optuna_test/trial_2/epoch=0.ckpt (torch, 882628 bytes, 777 tensors)

prescalers.encoder_length.weight f4 [21, 1]
000000 78 e2 5c 3f 14 89 5f 3f 75 d9 37 bf 5f 83 88 3e
       0.86283064 0.8731854 -0.7181619 0.26662728
000010 f0 d6 9c bd c0 58 37 3e dd 90 8a be e4 05 d6 3e
       -0.076581836 0.17904949 -0.27063647 0.4180137
000020 ad b8 93 3e 94 1f b3 be a0 2b 12 bf e6 1c 3f bf
       0.28851834 -0.3498503 -0.57097816 -0.7465347
000030 7f f2 03 bf 45 b5 18 3f a6 b1 e6 be ad 3d 26 3f
       -0.51541895 0.59651595 -0.4505741 0.6493786
000040 e2 44 1a 3f 96 79 20 3f 79 c1 f7 be f1 1f 43 bf
       0.60261357 0.62685525 -0.48389795 -0.76220614
000050 d7 86 47 3f
       0.77940124

prescalers.encoder_length.bias f4 [21]
000000 cc c6 bf 3e 9a c8 4f bd 25 fd 3b bf 9d 87 43 be
       0.37456357 -0.050728418 -0.7343314 -0.19094701
000010 9c f1 6f 3f 94 a8 a2 be bc c0 05 be a4 94 6f 3e
       0.9372804 -0.3176924 -0.13061804 0.23396546
000020 69 2b 23 3f b4 1e 58 3e 34 85 30 3f 8c 68 6e bf
       0.63738114 0.21105462 0.6895325 -0.93128276
000030 46 7f 5f bc 9f 5c 7b 3f 11 59 62 3e 63 b3 51 bf
       -0.013641184 0.98188204 0.22104289 -0.8191435
000040 72 1f 17 3f fd 05 91 3e 09 a2 cb 3d 1b 7e 7f 3f
       0.59032357 0.2832488 0.09943015 0.99801797
000050 0d 02 22 3e
       0.15821095

prescalers.processed_correction_value_center.weight f4 [21, 1]
000000 9e 88 6c bf 8c f5 c9 3e 52 33 04 bf 50 bf f3 be
       -0.9239596 0.3944515 -0.5164081 -0.47606897
000010 fc 4d 7f 3f 00 45 1c be 04 04 a2 3e d2 62 42 bf
       0.9972837 -0.15260696 0.3164369 -0.7593204
000020 b4 46 e4 be 4a ea 70 3f 22 a3 2a 3f d0 6c 93 3e
       -0.44585192 0.94107497 0.6665517 0.28793955
000030 2a 31 67 3f 98 47 8f be fe 19 5d bf ac 61 97 be
       0.90309393 -0.2798431 -0.86367786 -0.29566705
000040 80 f3 a5 bd 90 3f 44 3f 90 9d bc 3e b4 9e 8c be
       -0.081030846 0.7665949 0.3683896 -0.2746483
000050 42 8e 0d 3f
       0.55295193

prescalers.processed_correction_value_center.bias f4 [21]
000000 aa 5c 03 3f a9 fd dc 3e f3 2a 8c bd cc aa 5f 3f
       0.5131327 0.43162277 -0.068441294 0.8736999
000010 fc 9c 4a 3f 6e 4a 54 bf eb 1e 04 bf b2 fc 7d 3f
       0.7914579 -0.8292607 -0.5160968 0.9921371
000020 a0 0a 34 3f 86 ee c5 3e 2e ef 02 3f 6d ba 16 be
       0.7032871 0.3865854 0.5114621 -0.14719553
000030 4f ce 58 bd f8 49 04 3f 89 18 52 bf 17 89 10 bf
       -0.052931126 0.5167537 -0.8206869 -0.5645918
000040 c6 f8 25 3f de f6 e2 3e 9d e6 c0 3e 97 8f be bd
       0.64832723 0.4432897 0.37675944 -0.09304731
000050 a9 ff 96 3e
       0.29491928

prescalers.processed_correction_value_scale.weight f4 [21, 1]
000000 64 33 6a bf 64 13 df 3e 42 5e 2f 3f a8 9d 93 be
       -0.91484666 0.4356948 0.685032 -0.2883122
000010 3c 07 1d 3f 52 16 79 3f 4a ff 07 3f 8c fd e7 be
       0.61339164 0.97299683 0.53123915 -0.45310628
000020 38 a5 64 3f b8 f1 0b bf 20 49 21 be 50 8f 16 bf
       0.89314604 -0.5466571 -0.15750551 -0.5881243
000030 6c ff 72 3f 90 b6 93 bd 28 cd 18 be 20 1d 56 be
       0.9492099 -0.072125554 -0.14922011 -0.20909548
000040 10 2e a8 bd 88 c2 0d 3f cc 12 6c 3f 86 4d 78 3f
       -0.08211911 0.55374956 0.9221618 0.9699329
000050 c6 72 7f 3f
       0.99784505

prescalers.processed_correction_value_scale.bias f4 [21]
000000 78 a5 5c 3f ff 83 8a be 40 4c f7 3e 85 13 16 bd
       0.86189985 -0.2705383 0.48300362 -0.03663971
000010 ae 38 3a bf e8 ff f3 3d a6 69 18 bf f4 02 b8 be
       -0.72742736 0.119140446 -0.59536207 -0.35939753
000020 58 23 07 3f 7a cb 11 3e 7d dd 0d 3e d1 9e 67 3f
       0.52788305 0.14237776 0.13854022 0.9047671
000030 a1 00 62 bf ed 7d 2e bf 04 85 d7 be de 36 65 3f
       -0.8828221 -0.681609 -0.4209367 0.89536846
000040 fb 0a 12 3e ce c1 9a bd e1 49 08 3f 4d b8 b9 3d
       0.14262001 -0.075564966 0.5323773 0.09068356
000050 76 e0 52 3f
       0.8237375

prescalers.time_idx.weight f4 [21, 1]
000000 f2 95 d0 be 8c 69 98 3e 09 12 f3 3e bf 4b 62 bf
       -0.407394 0.29768026 0.47474697 -0.8839683
000010 d4 e6 3d bf 10 8b 43 3f 14 8d 49 3f c9 0f 2e 3f
       -0.7418034 0.7638407 0.78730893 0.67992836
000020 0e 06 57 3f 20 ff 8d 3e a2 41 76 bf 4c 82 42 bf
       0.83993614 0.27733707 -0.961939 -0.7598007
000030 38 70 08 3f 46 84 2b be 48 3d 09 bf e8 75 27 3a
       0.5329623 -0.16749677 -0.5360913 0.0006388114
000040 6e 58 44 3f 96 0b 13 3e 6b ee 6d 3f 24 e1 03 bf
       0.76697433 0.14359888 0.9294192 -0.5151541
000050 ce 5f 30 3f
       0.68896186

prescalers.time_idx.bias f4 [21]
000000 13 1a da be 4d 6f dd be 6f fa 0e 3f d9 5c 24 3f
       -0.42598018 -0.43248978 0.5585088 0.64204174
000010 39 82 a8 3e 5c 9e 0d bf a1 aa 70 3f b0 0e 47 bf
       0.32911852 -0.5531976 0.9401036 -0.77756786
000020 a5 62 53 3f 4a 6b 04 bf f5 04 4f bf c4 51 36 be
       0.82572395 -0.5172621 -0.8086694 -0.17804629
000030 a3 3f 0e 3f 3e 61 68 bf f8 fa 4b bf af 35 8f 3e
       0.5556585 -0.9077338 -0.7967982 0.27970645
000040 d5 f2 aa be 6e 08 22 3f 60 f4 1e bf dd 59 2b bf
       -0.3338839 0.6329411 -0.62091637 -0.66933995
000050 f4 ec 10 bf
       -0.5661156

prescalers.relative_time_idx.weight f4 [21, 1]
000000 97 dc 7e bf ac 3b a2 be e2 be 23 bf 5f f0 10 3f
       -0.99555343 -0.3168615 -0.6396314 0.5661678
000010 42 e9 81 be fe 6f fa be 5a 7a 29 3f bf 38 5f 3f
       -0.25373274 -0.48913568 0.6620232 0.8719596
000020 31 b5 db be 3f ef 2b bf 9d f4 2a 3f 53 19 1b bf
       -0.42911676 -0.67161936 0.667795 -0.60585517
000030 77 d3 ec 3e 79 05 c6 3e 30 7f f4 3e 96 d2 7d bf
       0.46255085 0.3867605 0.47753286 -0.99149454
000040 5b 5b 34 bf f6 03 78 3f 01 68 c8 3e 2a fd 32 bf
       -0.704519 0.96881044 0.3914185 -0.6991755
000050 6d 51 d8 be
       -0.42249623

prescalers.relative_time_idx.bias f4 [21]
000000 e9 5f 4d 3f 9e 18 45 bf fc 12 d3 3d c1 16 b3 be
       0.8022447 -0.7699069 0.10306355 -0.34978297
000010 75 e3 4c bf 70 27 79 3f b9 4d 31 be 90 96 54 3f
       -0.8003457 0.973258 -0.17314805 0.8304224
000020 30 af 11 3d 44 7e 03 3f b5 50 36 3f cc 3e 7f bf
       0.035567462 0.5136454 0.712169 -0.99705195
000030 45 06 66 be 82 93 ff bd 6f 55 46 bf a5 de 4b 3f
       -0.22463329 -0.12479307 -0.7747411 0.79636604
000040 88 1e 10 3f 31 88 3c bd fb 9d 90 3e 44 d0 65 3c
       0.56296587 -0.04602832 0.2824553 0.014026705
000050 23 69 5e 3f
       0.86879176

prescalers.processed_broadcast_clock_bias.weight f4 [21, 1]
000000 86 60 33 bf 50 3b 7e 3f da 38 5a be 6f 08 6a bf
       -0.7006916 0.99309254 -0.2131075 -0.9141912
000010 2a 73 5a 3f 34 dd 22 3e e0 35 ca 3c c7 64 25 3f
       0.85331976 0.15904695 0.024683893 0.646069
000020 f2 48 04 bf f0 8e 1b 3f d8 68 e0 be c1 8a 1e 3d
       -0.51673806 0.6076498 -0.4382999 0.038706545
000030 1b 71 e8 be 33 53 1b 3d 8a e2 26 bf 9c 96 70 bf
       -0.45398793 0.03792114 -0.6518942 -0.9397981
000040 85 98 31 bf 77 0f 9c be 5b f7 65 3e 17 95 41 bd
       -0.6937335 -0.3048055 0.2245764 -0.047261324
000050 5d 0f f6 be
       -0.48058596

prescalers.processed_broadcast_clock_bias.bias f4 [21]
000000 06 98 01 3f 8d ef f7 3d 7d d3 0e 3f 96 ea 00 3e
       0.50622594 0.121062376 0.55791456 0.12589487
000010 c6 5e 17 bf ba 88 5c bf 80 bf 49 bf f7 9c 83 3e
       -0.5912899 -0.8614613 -0.7880783 0.25705692
000020 a9 38 20 be 83 4e ad 3c 41 36 3b 3d 01 04 83 be
       -0.15646614 0.021155601 0.045706037 -0.25588992
000030 37 bc af be 53 8a 0e 3f d5 89 20 3c 89 46 98 bd
       -0.34323284 0.55679816 0.009798487 -0.074353285
000040 aa 50 d1 3e 9d d3 35 bf 82 c2 a9 3e b5 04 1b 3e
       0.40881854 -0.7102602 0.3315621 0.15138514
000050 13 8a 42 3e
       0.18997984

prescalers.processed_final_clock_bias.weight f4 [21, 1]
000000 cf 52 33 3f 64 98 e4 bd 23 c7 0b 3f 8e a5 7f be
       0.7004823 -0.11161879 0.54600734 -0.24965498
000010 f4 dc 5f 3f 69 1d 25 bf 23 dd 7e bf 4b 9c 60 bf
       0.8744652 -0.64498 -0.9955618 -0.87738484
000020 63 b3 a5 3e 83 25 05 bf 14 75 4b bf 95 7d 34 be
       0.32363424 -0.52010363 -0.7947552 -0.1762603
000030 63 29 d3 bd 3c 1b 9f be d8 a1 b0 3e 07 c6 ec 3e
       -0.10310628 -0.31075466 0.34498477 0.46244833
000040 00 2d c4 3e f1 c9 a4 3e ba 49 1e 3f c6 e0 0e 3f
       0.38315582 0.3218532 0.6183125 0.5581173
000050 77 61 1d 3f
       0.61476845

prescalers.processed_final_clock_bias.bias f4 [21]
000000 a9 07 2a 3f db 2f 99 bd 8f 04 2b 3e 4e 5d e6 3e
       0.6641794 -0.07479831 0.16700958 0.4499306
000010 ea 97 3b 3f 28 2f 3f 3e ea 12 0e 3f 3e e8 75 bf
       0.7327868 0.18670332 0.5549761 -0.960575
000020 b8 a1 2c bf a2 21 22 3f ba 49 30 3f 5a a8 0a bf
       -0.67434263 0.6333257 0.688625 -0.54163134
000030 24 62 75 bf 84 e9 03 be bc 2c 29 bf 7a 44 47 bd
       -0.95852876 -0.12882048 -0.66083884 -0.04864929
000040 dc 7a 05 3e a4 8c 68 3f 82 e3 6b 3e fa 90 0f bf
       0.13035148 0.908396 0.23036006 -0.5608059
000050 7d 32 70 3f
       0.9382704

prescalers.processed_correction_value.weight f4 [21, 1]
000000 6f 95 54 3f 44 f1 e7 3e dd 35 4b bd f8 2a f5 bc
       0.8304052 0.4530126 -0.049611915 -0.029927716
000010 06 02 22 bf 32 ab 13 3f ae 41 76 bc 6b a3 be be
       -0.6328434 0.576831 -0.015030308 -0.37234053
000020 5e 30 79 3f e3 ab 09 be 9b 5e 0c 3f 69 56 ad be
       0.9733943 -0.13444476 0.54831856 -0.33854988
000030 22 62 de be 87 92 84 be 5f 1a 20 3f 04 d4 61 3f
       -0.43434244 -0.25893041 0.6254024 0.88214135
000040 10 64 4c 3f 69 fc 2f 3f c4 78 58 3f 2e 3e 75 be
       0.79840183 0.6874452 0.84559274 -0.23949501
000050 65 3d 5c be
       -0.21507795

prescalers.processed_correction_value.bias f4 [21]
000000 15 b7 40 3d 9d f1 fc be b4 9a dd 3d a7 57 45 3e
       0.0470496 -0.49403086 0.10820523 0.19271718
000010 c3 0d c8 be 9a bb 35 3f b8 81 53 3f 3d 30 ca be
       -0.39073 0.7098938 0.8261981 -0.39489928
000020 83 bb 0e 3e 4b 46 4e 3f 35 35 e6 be 65 7a d9 3e
       0.13938718 0.8057601 -0.4496247 0.42476192
000030 62 68 7b 3f 43 36 94 3d 95 10 2a bf 76 b7 05 3f
       0.9820615 0.07236912 -0.6643155 0.52233064
000040 d0 73 29 3f 3c 83 f0 be cb a2 60 3f e7 17 54 3f
       0.6619234 -0.46975124 0.877484 0.8284897
000050 82 02 61 be
       -0.21973613

static_variable_selection.flattened_grn.resample_norm.mask f4 [3]
000000 7c cf 72 b9 14 c1 05 b9 3d 33 bc 39
       -0.00023156212 -0.00012755796 0.0003589633

static_variable_selection.flattened_grn.resample_norm.norm.weight f4 [3]
000000 d7 f5 7f 3f 4c 05 80 3f 04 fe 7f 3f
       0.99984497 1.0001616 0.9999697

static_variable_selection.flattened_grn.resample_norm.norm.bias f4 [3]
000000 8a 57 fe b8 65 f7 11 b9 25 88 88 39
       -0.00012127969 -0.00013920439 0.00026041377

static_variable_selection.flattened_grn.fc1.weight f4 [3, 63]
000000 b2 ac df 3c 6d a6 47 3e 6d ab 1f be 57 44 78 3e
       0.027304027 0.1949708 -0.15592737 0.2424482
000010 23 92 9b be d0 60 22 be a0 43 fa bc 6d 6b 58 3e
       -0.3038493 -0.15857244 -0.030549824 0.2113473
000020 7c d1 33 3e 3b 17 0b 3e 62 83 d4 be 11 4b 2e bd
       0.1756038 0.1358308 -0.41506487 -0.042552058
000030 4b 80 98 be 0f 3c af 3d b5 4e 52 bd 23 b7 3e be
       -0.2978538 0.08556377 -0.051344592 -0.18624549
000040 3b 74 b9 bc 26 22 e3 bd 4c 51 48 bc 04 74 84 bd
       -0.02263843 -0.11090498 -0.012226414 -0.06467441
000050 28 36 57 3e 5a c4 33 3e e0 8f bf 3c 26 02 21 bd
       0.21016753 0.17555371 0.023384035 -0.03930869
000060 02 4a 02 be 58 90 fe bd cd 22 2e bd 13 d5 88 bd
       -0.12723544 -0.12429875 -0.042513657 -0.06681266
000070 5d 84 a0 be 69 64 0e 3e bd c2 85 bd e5 9c 14 3f
       -0.31350985 0.13905491 -0.06531284 0.580519
000080 35 48 15 be 0e 59 77 3e 4e cd 73 38 7f 46 d1 3d
       -0.14578326 0.24155065 5.812692e-05 0.10218524
000090 67 7b 86 be aa f6 5e 3e bf 96 1f 3e b1 9d 33 3c
       -0.26266024 0.21773782 0.15584849 0.0109628895
0000a0 5e 75 63 3d 85 ea b2 3e 5b d3 f4 bd 81 94 06 bd
       0.055531852 0.3494455 -0.11954375 -0.032856468
0000b0 37 7a 8c 3e 60 21 92 3e 0d cf 27 3e 1e 40 5e 3d
       0.27436993 0.28541088 0.16387577 0.054260366
0000c0 b8 cd 45 be 1a 5d 95 bd a1 67 c1 bd f2 ed 1f bd
       -0.19316757 -0.07293148 -0.09443594 -0.03904528
0000d0 85 d2 83 3e 95 fc 29 be 24 90 04 bf dc 58 0d 3e
       0.2574655 -0.16600259 -0.5178244 0.13803428
0000e0 7c 6d 16 be c3 99 59 3e dc c3 53 bd b2 73 83 be
       -0.14690202 0.21250062 -0.051700458 -0.25674206
0000f0 b1 1a f9 bd a0 35 17 be a8 3a 13 3e d1 25 0a 3e
       -0.12163294 -0.1476655 0.14377844 0.13490988
000100 a3 17 26 be 00 0a af bd b8 e2 aa 3c b6 a3 16 3d
       -0.16219954 -0.08546829 0.020860061 0.03677722
000110 52 24 b2 bd 0e 55 23 3d 7e d4 86 be 77 b5 a8 bd
       -0.08698334 0.039876036 -0.26333994 -0.08237737
000120 2b f5 0d 3c 73 d2 00 3e d2 56 31 3c 81 73 33 3e
       0.00866441 0.1258028 0.010823922 0.1752453
000130 c5 f2 f0 3d 0f 9b a8 3d 0a d6 13 bd c6 4a 30 be
       0.117650546 0.082327 -0.036092795 -0.17216024
000140 68 0c 69 3d 5c d4 e7 bd ee 28 05 3d b8 24 e6 bd
       0.056896597 -0.11319801 0.032509737 -0.11237472
000150 56 58 06 bd 30 be cc 3c a5 89 09 bd cc 56 ae be
       -0.032799087 0.024993032 -0.033578534 -0.34050596
000160 63 bb ae 3d ab ce a9 3d 38 8c 5b bd b2 01 04 3e
       0.08531835 0.08291372 -0.05360052 0.12891272
000170 d8 d2 08 3d a1 3d 0a 3e c4 dc 58 bc 9c bb 89 be
       0.0334042 0.13500072 -0.013236228 -0.26900947
000180 b0 5e 33 be 40 e0 2b be 4d 71 fd bd c3 58 c2 3d
       -0.17516589 -0.16784763 -0.12375126 0.09489586
000190 e3 80 1f 3e 4b d2 41 bd eb 98 64 3e 9c 3c 6c 3e
       0.1557651 -0.04731969 0.22323959 0.23069996
0001a0 da 5b 3c be c4 1d a9 bd 8e f3 59 3e ae 40 ff bd
       -0.18394414 -0.082576305 0.21284315 -0.124635085
0001b0 1d 18 b6 3d 40 cd c0 bd b7 d5 9a bd 68 1e a5 3d
       0.08891318 -0.09414148 -0.07560294 0.0806244
0001c0 35 5a 92 bd a3 09 55 bd 2d 92 50 bd 01 2a 82 3e
       -0.07146112 -0.052011143 -0.050920654 0.2542267
0001d0 88 ec ee bc cd c4 2e bc ec ec c6 3d fa f1 3a 3e
       -0.029165521 -0.010667038 0.09713158 0.18256369
0001e0 a6 16 8c 3e 32 8b 37 be e0 8e 9b bb 25 d0 77 3c
       0.2736103 -0.17924193 -0.0047472566 0.015125309
0001f0 f8 8d 76 3c d5 a5 2f 3e ea 73 07 bf ab 18 43 3e
       0.015048496 0.17153104 -0.52911246 0.19052379
000200 0d 1e 66 bd 85 b7 b0 3c 86 bd 27 3e b5 de 16 bc
       -0.056181002 0.021571884 0.16380891 -0.009208371
000210 24 d7 84 3d 5c c6 93 3e 88 25 97 3e 66 0a 2c 3e
       0.06486347 0.28862274 0.29520822 0.16800842
000220 57 35 65 3d 0d a2 8c be 9b c8 46 be 24 16 ca 3e
       0.055959072 -0.27467385 -0.19412462 0.39470017
000230 a6 ee be bb fd d4 93 3e 66 54 09 be 65 0c 32 be
       -0.005826789 0.28873435 -0.13411102 -0.1738754
000240 84 1c 7c be 2f 51 df bd 83 72 e3 ba be b9 bf be
       -0.24620253 -0.109041564 -0.0017352853 -0.37446398
000250 95 c1 23 be 74 05 43 bd 18 82 bf be 60 27 2a 39
       -0.15991814 -0.047612622 -0.3740394 0.00016227132
000260 3b 42 d1 3d c8 68 24 bd 7b 9b 26 3d 39 ee ad bc
       0.102177106 -0.04013899 0.04067562 -0.021231757
000270 9e 9c fa be e6 6b 25 bd ae fd e7 3d db 84 02 3e
       -0.48947614 -0.040386103 0.113276824 0.12745993
000280 f6 9c 34 be dc 11 07 3e b4 db 56 3e fe 14 b4 3d
       -0.17638001 0.13190407 0.20982248 0.087930664
000290 ff a0 1d bb 23 7f 6c bd 86 07 48 be 3f 6d 14 3e
       -0.002405226 -0.057738435 -0.1953412 0.14494799
0002a0 dc 8c 84 3e ce b9 35 3d 34 b4 76 bd ca 74 07 be
       0.25888717 0.04436665 -0.06023045 -0.13228145
0002b0 ff e2 86 bd 9a 7a a6 3c aa 8a 29 3d 02 ff 8e bd
       -0.06586265 0.020322133 0.041392006 -0.06982233
0002c0 23 9a 18 be d7 49 b8 bd 76 c1 dc 3a 81 51 eb bd
       -0.14902548 -0.08998459 0.0016842324 -0.11490155
0002d0 63 e8 cc be fc 8c 96 3e 5b 68 8e 3c 0c 4c c8 bd
       -0.40021047 0.29404438 0.017383745 -0.0978013
0002e0 e7 00 ce 3c b3 ec 2e be f1 a7 7c 3e 61 9c 85 3e
       0.025146915 -0.17082481 0.2467344 0.2609587
0002f0 50 0c 52 be
       -0.2051251

static_variable_selection.flattened_grn.fc1.bias f4 [3]
000000 ae 5d 5d 38 71 88 37 38 1f 9b c5 b8
       5.2777752e-05 4.375767e-05 -9.4225856e-05

static_variable_selection.flattened_grn.fc2.weight f4 [3, 3]
000000 ca 9e eb be 13 5a 78 3e bc 39 ad be da e4 b7 3f
       -0.46019584 0.2425311 -0.3383311 1.4366715
000010 4f c5 59 bf 41 b3 84 bf 01 ba 9d 3e 1d 84 e2 bf
       -0.85066694 -1.0367204 0.30805972 -1.7696568
000020 31 f8 13 bf
       -0.57800585

static_variable_selection.flattened_grn.fc2.bias f4 [3]
000000 5a 4e ea 38 72 e1 af 38 95 7e 5d b8
       0.000111725836 8.386643e-05 -5.2808395e-05

static_variable_selection.flattened_grn.gate_norm.glu.fc.weight f4 [6, 3]
000000 4d 13 b9 be bb ab 14 3f 1c 0b 9c 3e f1 83 bd bd
       -0.36147538 0.5807454 0.30477226 -0.092536815
000010 44 48 0c 3f 88 e4 0d 3f 20 80 1d 3f 7a a5 11 3f
       0.5479777 0.55426836 0.6152363 0.5689312
000020 0e 15 20 be 36 82 b4 3e dd c3 fe be f6 31 39 be
       -0.15633032 0.35255593 -0.49758807 -0.18085465
000030 b1 4e 37 3e c3 d6 05 3f 9a 6b 13 bf f9 be 04 3c
       0.17901112 0.52280825 -0.5758606 0.008102172
000040 b1 c2 22 3f 4a 19 e4 bc
       0.63578326 -0.02784409

static_variable_selection.flattened_grn.gate_norm.glu.fc.bias f4 [6]
000000 bd c2 89 b7 db 61 d3 b8 d8 ef 6c 39 2a 1a fd b7
       -1.6422355e-05 -0.00010079491 0.00022596063 -3.0172134e-05
000010 20 2e 6c b8 1b 54 fa 37
       -5.6309742e-05 2.9841487e-05

static_variable_selection.flattened_grn.gate_norm.add_norm.norm.weight f4 [3]
000000 1a f5 7f 3f 27 00 80 3f dc fe 7f 3f
       0.9998337 1.0000046 0.9999826

static_variable_selection.flattened_grn.gate_norm.add_norm.norm.bias f4 [3]
000000 00 41 0d b9 45 b4 88 b6 03 86 11 39
       -0.00013471022 -4.074102e-06 0.00013878201

static_variable_selection.single_variable_grns.encoder_length.resample_norm.mask f4 [22]
000000 4c af 3b b7 a5 a6 8f b8 b0 f6 73 38 13 90 c7 b7
       -1.1186883e-05 -6.849811e-05 5.816546e-05 -2.3789738e-05
000010 12 27 4f b8 19 f5 fe 36 f5 e8 de b6 90 4e 40 37
       -4.9389033e-05 7.598323e-06 -6.6432353e-06 1.1462384e-05
000020 ad a1 32 b8 84 ce c2 37 45 83 27 34 99 5a 3d b8
       -4.258908e-05 2.3222769e-05 1.5600843e-07 -4.5145487e-05
000030 9b 06 44 38 cb 6c 20 b8 92 c0 c8 34 b4 b4 46 b7
       4.6736193e-05 -3.8248294e-05 3.7393016e-07 -1.1843793e-05
000040 71 45 d6 b5 c7 b7 41 b8 93 2d a7 b6 1d 38 3c 38
       -1.5964453e-06 -4.618594e-05 -4.9822934e-06 4.4874952e-05
000050 4f 95 97 36 2d 61 20 39
       4.5175325e-06 0.0001529499

static_variable_selection.single_variable_grns.encoder_length.resample_norm.norm.weight f4 [22]
000000 29 ff 7f 3f 69 f9 7f 3f d7 04 80 3f 51 f8 7f 3f
       0.9999872 0.99989945 1.0001477 0.99988276
000010 86 fb 7f 3f dc fe 7f 3f aa fe 7f 3f 3c 00 80 3f
       0.9999317 0.9999826 0.9999796 1.0000072
000020 fc fb 7f 3f 78 00 80 3f 96 00 80 3f b7 f8 7f 3f
       0.9999387 1.0000143 1.0000179 0.99988884
000030 f8 03 80 3f d4 fe 7f 3f 1e 00 80 3f f7 fc 7f 3f
       1.0001211 0.9999821 1.0000036 0.9999537
000040 00 00 80 3f 61 fb 7f 3f a4 ff 7f 3f e8 04 80 3f
       1.0 0.9999295 0.9999945 1.0001497
000050 1e 00 80 3f df 07 80 3f
       1.0000036 1.0002402

static_variable_selection.single_variable_grns.encoder_length.resample_norm.norm.bias f4 [22]
000000 82 0e 0e b7 4c 88 e3 b8 fa f6 91 b8 fb 8b 6c 39
       -8.467237e-06 -0.00010849591 -6.960142e-05 0.0002255886
000010 87 9c c2 b8 4e 30 da 38 61 f4 d7 37 cd 3f 5b 38
       -9.279796e-05 0.000104040475 2.5743795e-05 5.2273088e-05
000020 d2 6b 8f b8 57 fc d1 38 bd 5a 60 b8 b8 ba a7 38
       -6.8388545e-05 0.000100128986 -5.349027e-05 7.9979596e-05
000030 91 70 77 b8 e2 3f 47 b9 f8 c5 63 36 82 05 9c 38
       -5.8994225e-05 -0.00019001917 3.394087e-06 7.4396856e-05
000040 4c 94 6f b7 8d 46 59 b8 b4 85 f9 b6 2e 66 47 b9
       -1.4280038e-05 -5.1802537e-05 -7.4363434e-06 -0.00019016184
000050 b4 ce c1 37 08 2c 6c 39
       2.3103647e-05 0.00022523117

static_variable_selection.single_variable_grns.encoder_length.fc1.weight f4 [21, 21]
000000 f9 d7 a1 3e cf fd c4 bd 17 71 36 be 3d 3d a7 3e
       0.31610087 -0.09618723 -0.17816578 0.3266391
000010 ab 46 9d be 0a 98 4b 3d 40 fc 2c 3e 2c c4 d7 3e
       -0.30717978 0.049705543 0.168931 0.42141855
000020 a3 fe 0d 3f ff f4 b7 bd c9 7f 00 bd 5b 0c 06 be
       0.5546667 -0.08982276 -0.031371865 -0.1309065
000030 c6 b0 84 3e 56 d6 24 3e c3 88 0e bf ff 45 05 3f
       0.25916117 0.16097388 -0.5567743 0.5205993
000040 3d 77 3d be 07 2b 82 bd 28 56 f2 3d e0 67 66 bd
       -0.18502517 -0.06355863 0.11832839 -0.056251407
000050 f8 6b 38 3f 7c a5 be bc 27 10 59 be c4 09 b1 3e
       0.7203975 -0.023272268 -0.21197568 0.34577763
000060 ca b6 e0 3c f6 1e 8d be d3 48 29 3e 59 97 c1 be
       0.02743091 -0.27562684 0.16531686 -0.37810782
000070 ea 4e 92 be f4 9f 77 be d4 7c dc 3e cd 61 89 3b
       -0.28575832 -0.24182111 0.43063986 0.004192567
000080 b2 bb 42 bd d6 85 8b bc 0f ca 91 3e a6 37 9f bc
       -0.04754228 -0.017031591 0.2847447 -0.019435715
000090 0b d5 82 be 04 20 a6 bd e7 0c b6 3e 89 bb 12 be
       -0.25553164 -0.08111575 0.3555672 -0.14329351
0000a0 01 3d a4 3e 9a 90 e1 3c 00 3b 67 3e a7 f4 08 bf
       0.32077792 0.027534772 0.225811 -0.5349831
0000b0 27 a5 ed be 99 b8 e2 3d 1d 85 26 3e 69 bd 0b bf
       -0.46415064 0.110703655 0.16261716 -0.5458589
0000c0 14 a8 0b bd c9 27 01 bd 18 9f da 3e 6d 61 dc be
       -0.03409584 -0.031532083 0.42699504 -0.4304308
0000d0 c9 f4 70 be c1 f4 81 bd c2 be 90 3d a8 dc f0 3e
       -0.23530878 -0.06345511 0.07067634 0.47043347
0000e0 16 b6 ef bc 44 46 2d 3e 2e 8b e1 be d2 1b c4 3e
       -0.02926163 0.16921335 -0.44051498 0.38302475
0000f0 2e 10 26 3d a5 cc 89 be 9f 3a 98 be be 6e ff be
       0.040542774 -0.26913944 -0.29732224 -0.49889177
000100 6c 16 6b be e9 60 a9 be d0 32 5e be 05 20 2b 3e
       -0.22957772 -0.3308175 -0.21699071 0.16711433
000110 6e b7 82 bb 9e 9d 69 be 5b 06 46 be 8c 28 ab 3e
       -0.0039891517 -0.22814032 -0.19338362 0.33429372
000120 bf 8d be be 84 db 81 bd 0b 93 05 3f 2a 93 4a 3e
       -0.3721752 -0.063406974 0.52177495 0.19782701
000130 d2 c4 20 bf df d6 09 be 9c af cb 3d 69 ab c2 be
       -0.62800324 -0.13460873 0.09945604 -0.380214
000140 4f 77 19 3e bd 05 9d 3e 09 77 52 be 58 9c 17 3f
       0.14986919 0.3066844 -0.20553221 0.59222937
000150 df e8 d2 bd ae e9 b8 3e 47 8d cd 3e 42 7d 02 bd
       -0.10298323 0.36115783 0.4014685 -0.031857736
000160 69 cc cd 3e 00 9f 8d bd 2a 35 eb be 7c 2d 13 be
       0.40195015 -0.069150925 -0.45938998 -0.1437282
000170 ed b5 44 bd 93 1b f8 bc 6b 0e b4 3e 21 48 2e 3d
       -0.04802506 -0.030286586 0.3516725 0.042549256
000180 92 5f 05 3d 30 45 07 bf 7e d4 18 3f 4c 1a eb 3d
       0.032561846 -0.52839947 0.5969924 0.11479625
000190 57 67 99 3e b9 b3 1a 3f 2e 10 94 3b b5 7b e1 3e
       0.29961655 0.60430485 0.0045185303 0.44039693
0001a0 5f 13 df 3d 16 0a d8 be 12 35 15 bf a3 fa f0 be
       0.108923666 -0.42195195 -0.58284104 -0.4706622
0001b0 da 6e c0 bd 45 c7 d3 bd c6 8c 10 be d3 7e 36 3f
       -0.09396143 -0.10340742 -0.14116201 0.7128727
0001c0 ed 11 b0 be 12 3e 91 3c b5 8e 3c 3d e6 1d c1 be
       -0.34388676 0.017729793 0.046034534 -0.37718123
0001d0 71 08 49 3e 39 af 58 3e 6c fe 0d 3f 22 11 a9 be
       0.19632126 0.21160592 0.5546634 -0.33020884
0001e0 a1 b0 b2 3d f3 7d 3c 3d 82 80 8a bd 94 ac ed 3e
       0.087250955 0.046018552 -0.06762792 0.4642073
0001f0 39 ff 56 ba 96 93 b4 bd ab 16 8a 3e f4 66 12 3f
       -0.0008201483 -0.08817212 0.2697042 0.57188344
000200 1e 0e 52 bd c6 03 84 3e af 11 74 3e 63 0f 4c be
       -0.051282994 0.2578413 0.23834871 -0.19927745
000210 b3 69 ba be 65 c3 e4 3d 88 e7 c6 bd 9d 58 ee bd
       -0.36408767 0.11170081 -0.0971213 -0.116379954
000220 f7 97 43 bd b5 a4 48 3e ca e2 3e be 53 50 7f bc
       -0.047752347 0.19594081 -0.186412 -0.015583116
000230 ee 1e e9 bd b0 08 e0 3d e8 6c b1 3e 76 51 bd 3d
       -0.113828525 0.10939157 0.346534 0.09244053
000240 03 83 12 3f 59 92 87 3d ae 8f 90 3b cb 1c d7 be
       0.5723116 0.066197105 0.004411659 -0.42014155
000250 d7 f4 4a be aa f2 ba 3e 43 a0 ca be dd 1c 29 be
       -0.19819961 0.36513263 -0.39575395 -0.16514917
000260 a5 26 89 3e dc 99 bb bd cd ba 2f 3c 94 32 92 3e
       0.26787296 -0.09160206 0.010725689 0.28554213
000270 b8 70 d9 be 91 71 03 3f 54 97 e1 bd 1d 44 17 be
       -0.4246881 0.51345164 -0.11015192 -0.14772077
000280 8b d8 ac bd 8a ee 35 bc 14 ab 9d 3e 24 f5 6e be
       -0.0843974 -0.011104235 0.30794585 -0.23335701
000290 ce 0d c8 3e 39 3a 2c 3e a4 5f 68 be 93 a2 00 bf
       0.39073032 0.16819085 -0.22692734 -0.5024807
0002a0 00 42 9c 3c 69 0f ed be cb a3 70 3e 68 cb 10 3f
       0.01907444 -0.4630082 0.23499982 0.56560373
0002b0 1e 52 32 3f 1f 90 0c 3f 44 30 91 3d c8 7f 6e 3e
       0.6965655 0.5490741 0.07089284 0.23290932
0002c0 b7 5d c8 be 4e 7a 04 be a8 a6 d5 bc 20 45 d8 bd
       -0.39134 -0.1293728 -0.026080444 -0.105600595
0002d0 3b a0 13 be 92 68 6f 3e 16 35 a4 3e 6a 72 fa bc
       -0.14416592 0.23379734 0.3207175 -0.030572135
0002e0 71 9a a2 3b 21 8a 01 3f 75 2d f2 3e c8 b1 99 be
       0.0049622585 0.50601393 0.47300306 -0.3001845
0002f0 a6 61 a6 3e 83 dc 28 3e 4f b0 33 bf 10 81 8d 3e
       0.32496375 0.16490369 -0.701909 0.2763753
000300 b8 c6 c0 3e a9 a4 a2 be a2 3a af be e2 af 3b 3e
       0.3765161 -0.3176625 -0.3422442 0.18328813
000310 4f 44 33 bf e6 2f 95 bc d3 80 14 3f 96 11 c7 3d
       -0.70026106 -0.018211316 0.5800907 0.09720151
000320 72 0e fd 3d 42 37 4e bc 77 44 11 bf 45 bd d5 3e
       0.12356271 -0.012586417 -0.56745094 0.41745964
000330 9a 0b 3e 3e bd e9 bd 3e 25 36 92 be dc 19 4a 3e
       0.18559113 0.3709239 -0.28556934 0.19736427
000340 3e aa 17 be 5c 9d 3e 3b e9 71 95 be 70 c7 08 3f
       -0.14811036 0.0029085493 -0.2918847 0.5342932
000350 ef d3 cb 3e f3 83 25 be 12 2e 6a bd 42 aa 01 be
       0.3981013 -0.16163616 -0.057172842 -0.12662604
000360 77 5f c2 be dc cb 42 3e 5b 17 c8 3e 08 d5 e8 3e
       -0.3796346 0.19023079 0.3908032 0.4547503
000370 72 8a 72 be 6c a1 97 bc c6 4c 4f be 75 5f 71 3e
       -0.23685625 -0.01850959 -0.2024413 0.2357157
000380 f2 7b 80 be c4 3b cf be af 60 b1 be aa 61 a6 3e
       -0.25094563 -0.40475285 -0.34644076 0.32496387
000390 d6 0e a6 be 80 a3 c1 3d de 46 c0 3d 1c 6d b1 3d
       -0.32433194 0.09455013 0.09388517 0.08663389
0003a0 32 c6 8e 3e 9c 6c 9b bd 94 9f fc be 9a c5 9f 3e
       0.27885586 -0.07589075 -0.49340498 0.31205446
0003b0 88 c4 40 be e2 3e a7 3e 1f 4c b3 3e f3 fa 3e be
       -0.1882497 0.32665163 0.35019013 -0.18650417
0003c0 e9 1d 56 bc 93 17 f7 bd 9d a3 93 be 35 e0 1b bd
       -0.013068655 -0.12065043 -0.28835765 -0.038055617
0003d0 90 ef 66 bd b4 e7 47 3e 92 67 4e bf 97 f7 2e be
       -0.05638081 0.19521981 -0.80626786 -0.17086636
0003e0 ce e8 88 3e 0c c0 52 bf 4b 36 5c be f3 8e 3e be
       0.26740116 -0.8232429 -0.21505086 -0.18609218
0003f0 8b d5 b0 be 56 d2 6b 3d a8 21 3c bf 1d ca e9 3d
       -0.3453792 0.05757364 -0.73488855 0.11415503

static_variable_selection.single_variable_grns.encoder_length.fc1.bias f4 [21]
000000 42 28 cf 37 12 a8 58 36 5c 02 4c b8 1c 0e 23 36
       2.469507e-05 3.2284338e-06 -4.8639587e-05 2.4297105e-06
000010 10 25 b8 38 ec 40 c9 36 63 5c be b8 6d e4 e4 b6
       8.780707e-05 5.9978247e-06 -9.0771144e-05 -6.8215218e-06
000020 28 d7 38 b8 4a f2 bc b6 e3 61 3b 38 28 b9 6e b8
       -4.40694e-05 -5.6310428e-06 4.467544e-05 -5.6916062e-05
000030 d8 84 cc 37 58 a4 7a b8 ee 8b 21 38 33 56 73 38
       2.4380555e-05 -5.9757702e-05 3.851571e-05 5.8015994e-05
000040 6f 34 ff 36 68 59 25 37 c8 8f 72 37 0d a2 19 b8
       7.6056963e-06 9.855583e-06 1.4457801e-05 -3.6628964e-05
000050 84 e6 c8 37
       2.39492e-05

static_variable_selection.single_variable_grns.encoder_length.fc2.weight f4 [21, 21]
000000 a0 c7 26 be 42 c6 4f be 1e 4e 0c bf 37 0c 2d be
       -0.16287088 -0.20290473 -0.548067 -0.16899191
000010 cb 33 9c bd f8 8d 70 3e 74 e3 1c 3e 0a 91 91 bb
       -0.07627066 0.23491657 0.15321141 -0.004442339
000020 fd c8 38 bf 95 0b 06 be e4 86 08 3f 72 86 da 3c
       -0.72181684 -0.13090356 0.53330827 0.026675437
000030 f4 b1 ab 3e 77 ff 15 bd ae e4 10 be 7d c0 48 3d
       0.33534205 -0.036620583 -0.14149734 0.049011696
000040 2e 91 5e be 62 e5 13 be 9c 00 e4 be 99 42 fc be
       -0.21735069 -0.14442971 -0.44531715 -0.4926956
000050 cb 66 59 3f 93 3c e4 3e 12 0c 92 3e 78 29 e2 be
       0.84922475 0.44577464 0.28524834 -0.44172263
000060 d1 fb e6 3c 96 b1 45 3e d9 46 8c 3e ab 74 66 be
       0.028196247 0.19306025 0.27397802 -0.22505443
000070 d4 d6 8b 3e 6c 7b 5b 3e 27 0e 41 be ce 0d a4 bd
       0.27312338 0.214338 -0.18853055 -0.080104455
000080 b5 06 f0 be 41 7d b2 3e c2 19 fc bd 0b 54 0f 3f
       -0.46880117 0.34861186 -0.123096004 0.55987614
000090 76 09 0e 3e 16 3e 14 be ba fe 24 3e 54 26 90 bd
       0.13870797 -0.14476809 0.16112795 -0.070385605
0000a0 0d 12 02 3f b7 50 ae 3e bf 25 8f 3d 24 ac 53 bd
       0.50808793 0.34045956 0.06989621 -0.051677838
0000b0 49 cf a1 be 2d 08 8b be 1b ab a2 3d 0e 16 be be
       -0.3160346 -0.27154675 0.07942792 -0.371262
0000c0 49 12 9c be a4 20 ce 3d 43 6d d2 be ba b0 a9 3d
       -0.304827 0.100648195 -0.41098985 0.08285661
0000d0 8a d7 d7 be d8 c4 06 bf 94 cf de 3d 6d c7 ad 3c
       -0.4215663 -0.5264411 0.10879436 0.021213258
0000e0 1d 38 3b 3e 1b 1c 35 3e 68 c9 4a 3e 3c c4 98 be
       0.18283124 0.17686503 0.19803393 -0.29837215
0000f0 db 8b 50 be 47 b2 35 be 8c 7f 5b be 46 64 5b be
       -0.2036585 -0.17743789 -0.21435374 -0.2142497
000100 6d b5 77 3c 5b 2e b4 3e 5c 5c 40 be 6f 06 96 3e
       0.015118939 0.35191616 -0.18785232 0.29301783
000110 c4 5f 7d be 4c 32 8a be 0d 8d ff bd 04 f0 a0 3d
       -0.24743563 -0.26991498 -0.12478075 0.07858279
000120 ca ba 8c 3d 01 8f 8a 3e 85 cc 14 bf 46 36 86 be
       0.06871565 0.27062228 -0.5812457 -0.26213282
000130 d7 18 5d 3e e6 97 b6 bd aa d8 c8 3c 4c 0e e5 3e
       0.21591507 -0.08915691 0.024517376 0.4473747
000140 0e a1 49 bd d6 c8 2c bf ca 34 89 bd f5 13 e1 be
       -0.04922586 -0.6749395 -0.06699522 -0.43960539
000150 59 d6 f5 3d d6 66 92 bd 5f d1 44 3e 36 24 55 3e
       0.12003774 -0.07148521 0.19220494 0.20814595
000160 4b 44 26 3e f6 08 e9 3d b8 64 b4 3d 94 17 8f be
       0.16236989 0.11378662 0.08808273 -0.27947676
000170 57 1f 5a 3e 64 7b 95 be 6d 8a 1a 3e 21 db a5 3e
       0.21301018 -0.29195702 0.15091868 0.32393745
000180 6c ac 14 bd f9 f2 b1 be 66 05 1c 3f d9 52 53 3e
       -0.036297247 -0.34755686 0.6094574 0.20637073
000190 41 24 e8 bd 56 88 1e bf ff 63 0c 3f 0c 3c aa bd
       -0.1133504 -0.6192678 0.5484008 -0.08312234
0001a0 2f 69 11 3e 78 15 d5 be d2 65 00 bf 0f 40 94 3d
       0.1420028 -0.41617942 -0.50155365 0.07238781
0001b0 04 57 90 3e d1 c5 2f be 55 9f 34 3e 53 57 ed be
       0.28191388 -0.17165305 0.17638905 -0.46355686
0001c0 2d 21 df be 16 4d 1e bf f0 f3 1d 3e de 9a bd bd
       -0.4358 -0.61836374 0.15425086 -0.09258054
0001d0 90 04 7f 3d 2c cd 85 be 0a 08 1f be f7 a5 15 3d
       0.06226021 -0.26133096 -0.1553041 0.03653523
0001e0 66 67 c9 bd 3d 05 88 3d 4d c2 0e 3f bb 43 3b be
       -0.09834175 0.06641624 0.5576523 -0.18287556
0001f0 dc 6c 8e be 81 42 e0 3e 8b d4 4e bd 49 8f ee 3e
       -0.27817428 0.43800738 -0.050495666 0.46593693
000200 f8 9e b6 3e b1 28 a0 3e ed 9d 95 3e 43 91 2a bc
       0.3566816 0.31281045 0.2922205 -0.01041061
000210 1c a0 58 be f9 8f 3b 3e 1f 42 d1 be 87 99 1b 3e
       -0.21154827 0.1831664 -0.4087076 0.15195285
000220 86 da 20 3e ee 1f 48 3e df 98 dc bd 88 b2 15 be
       0.1570836 0.1954343 -0.10771345 -0.14618886
000230 ee 3e 1c bf d4 e8 30 3b 86 e0 33 bf c6 b3 8c 3e
       -0.61033523 0.0026994245 -0.7026447 0.27480906
000240 b2 7f ff 3e 0d 4d cc 3d 9d cf 48 be f4 0a 0d 3f
       0.4990211 0.09975634 -0.19610448 0.5509484
000250 22 a9 02 3e e1 e3 b4 bd 11 fc eb 3e 33 2c da 3c
       0.12759832 -0.08832527 0.4609075 0.026632404
000260 d8 38 c6 3d e2 ec e4 be ce ae 94 3e 1b 17 84 bd
       0.09678811 -0.44711977 0.29039615 -0.064497195
000270 41 4e a1 3d a7 8f 5c bb 4d 90 bf bd 6f 40 8d 3e
       0.07876254 -0.003365496 -0.09353695 0.2758822
000280 dd a3 af 3e 6a 08 e0 bd ba fd 1c bf 85 7d e4 3d
       0.34304705 -0.10939105 -0.61324656 0.111567535
000290 15 1b 44 3f fc 71 27 be 4e 1f d0 bd ec 58 04 3f
       0.76603824 -0.16352075 -0.10162221 0.51698184
0002a0 9c e4 80 bd 83 f4 44 3e 68 b7 60 3e 89 b4 18 be
       -0.06293604 0.19233899 0.21944964 -0.14912619
0002b0 66 d9 49 bf 3c 88 21 3e 54 70 04 3f 9a 97 85 3e
       -0.7884735 0.15774626 0.517339 0.26092225
0002c0 77 db e1 bd f2 e3 55 3d da 4c 3b be 25 e3 b6 3d
       -0.11028188 0.05221934 -0.18291035 0.08930043
0002d0 bd 9d 95 3e 5e a2 01 bf cd 55 1e 3e 57 f1 50 3f
       0.29221907 -0.5063838 0.15462418 0.81618255
0002e0 b3 f7 80 be 46 26 11 be cc d7 b1 bd a7 42 13 3e
       -0.2518898 -0.14174756 -0.08683738 0.14380895
0002f0 a4 e2 c9 bd 8e 09 0d 3d c7 f4 0b 3e c7 51 58 3e
       -0.098576814 0.03443294 0.13667594 0.21124946
000300 2d f7 15 be 9f 3e 01 3e a7 48 e8 be 20 bf eb bd
       -0.14645071 0.12621544 -0.4536793 -0.115110636
000310 c9 fb 8e be a0 18 7d be 42 b5 23 be 0c 0e 3b be
       -0.27926472 -0.24716425 -0.15987113 -0.18267077
000320 dd 9e 50 3e 7d e5 59 be f4 e0 c4 be c8 74 ae be
       0.20373102 -0.21278949 -0.38452876 -0.34073472
000330 b7 90 18 bf 6d c2 96 be d7 9a 55 be 65 04 e6 3d
       -0.5959582 -0.2944521 -0.20859848 0.11231307
000340 94 2e be bd e7 f5 79 3b 93 6e 3c 3d 7f 98 24 3e
       -0.09286228 0.0038140954 0.04600389 0.16073798
000350 2d 4c 11 be 57 77 87 bd 44 ff 4b 3d b0 c5 00 bf
       -0.14189215 -0.06614559 0.049803987 -0.5030165
000360 98 23 31 be b2 ac 7e 3c 8f 03 c3 be 8b c1 2f bd
       -0.17298734 0.015544103 -0.38088652 -0.042909186
000370 c5 cc c8 be df ac b6 3d 10 bd 57 3d b7 9b d3 3e
       -0.39218727 0.08919691 0.05267054 0.41329738
000380 55 c1 3a 3d 76 11 bb bd 30 e7 21 3d 38 f3 e3 bd
       0.045594532 -0.0913419 0.03952712 -0.11130375
000390 b3 67 af 3d c7 89 5f be 0f 49 1f be 0c 41 33 be
       0.08564701 -0.21829902 -0.15555213 -0.17505282
0003a0 9c 90 8e be c8 92 18 3e a8 37 34 be ab d9 ab 3e
       -0.27844703 0.14899743 -0.17599356 0.33564505
0003b0 6a f0 98 bd 91 bf 93 bc 18 e9 37 3e 29 27 fb be
       -0.0746773 -0.018035682 0.17960012 -0.49053314
0003c0 7b 93 af bc 70 e1 c4 be d6 36 8c be 8a 2c 8a 3e
       -0.021432629 -0.38453245 -0.27385587 0.26987106
0003d0 22 03 58 bd 34 0b 8a bb 3c b9 2c 3e 6b e3 dd bb
       -0.052737363 -0.0042127613 0.16867536 -0.006771495
0003e0 cd cc fc 3c 8c 91 ef bc 01 69 45 3d 27 bf 07 3f
       0.030859375 -0.029244207 0.048195843 0.5302605
0003f0 e6 37 4c 3e e3 35 71 3e f4 3b a1 3e 5c 85 cb 3e
       0.19943199 0.23555712 0.31491053 0.39750183

static_variable_selection.single_variable_grns.encoder_length.fc2.bias f4 [21]
000000 50 d9 04 b4 fc 35 a9 38 53 60 f0 b7 fd 40 65 38
       -1.2372516e-07 8.068603e-05 -2.8655084e-05 5.465838e-05
000010 f0 18 d5 38 cc ae 8a 38 55 82 da 37 7c b8 87 38
       0.000101612764 6.612911e-05 2.6048316e-05 6.4716645e-05
000020 93 8c ff b7 bd fa 9f b7 ec 44 25 38 e9 36 cd 37
       -3.0463829e-05 -1.9071036e-05 3.9403254e-05 2.4463474e-05
000030 fb ab 81 b6 1e 1d f3 b8 53 86 93 37 b3 99 49 b8
       -3.8645207e-06 -0.000115925664 1.7586315e-05 -4.8065278e-05
000040 de 9a 85 38 fc 60 01 b8 1e d3 cd b7 4b 60 8a b8
       6.3707805e-05 -3.084632e-05 -2.4536213e-05 -6.598289e-05
000050 88 ff ab b7
       -2.050378e-05

static_variable_selection.single_variable_grns.encoder_length.gate_norm.glu.fc.weight f4 [44, 21]
000000 63 67 5a 3e 9d e2 98 bd fd 01 82 3e e7 bc 15 3e
       0.21328501 -0.07465098 0.25392142 0.14622842
000010 44 44 94 be 80 0e 9b be c2 7c 93 be 15 53 2f be
       -0.28958333 -0.302845 -0.2880612 -0.17121537
000020 bd 43 32 3e 70 3f 3f 3e 54 de 94 be ba b3 0c be
       0.17408653 0.18676543 -0.29075873 -0.13740435
000030 8b de 90 3d d1 6e 6b 3d b3 6a bf 3d cd 79 49 3c
       0.07073697 0.05747873 0.09346523 0.012297106
000040 6d ee 77 3e a9 98 7b 3e 32 61 92 3e c8 85 27 3e
       0.24212046 0.24569954 0.2858978 0.16359627
000050 70 e6 77 3e 43 65 96 be 30 a3 77 3e 4b 31 55 be
       0.24208999 -0.29374132 0.24183345 -0.20819585
000060 73 e7 4e 3e ec 43 42 be bf c9 59 3e a7 ff 47 be
       0.20205478 -0.18971223 0.21268366 -0.19531117
000070 bf f6 4b 3e da ee 34 3e af 4d be 3d 45 02 f7 3d
       0.19918345 0.1766924 0.09292161 0.1206098
000080 c5 db 5b 3e 94 d9 77 3e 6e f9 8f 3e 0c f7 2a be
       0.21470554 0.24204093 0.28119987 -0.16695803
000090 e6 76 80 3c f3 13 6b 3e 8b 71 96 be 48 9f 21 be
       0.015681695 0.22956829 -0.293835 -0.15783417
0000a0 2a 5c 34 3e de 1e 01 be f2 2d 3c be bd e9 90 be
       0.17613283 -0.12609431 -0.18376902 -0.28303328
0000b0 51 0d d2 3d 58 55 a0 3d 0a eb 81 be 10 81 0e be
       0.10256446 0.07828778 -0.25374633 -0.13916421
0000c0 0b 84 62 be 0d 86 c0 bd 3f e0 79 3d 09 9d 84 bd
       -0.22120683 -0.09400568 0.061004873 -0.064752646
0000d0 fc cb a8 3d 5d 0a 0f bd a2 78 46 3e 44 70 4b 3d
       0.08242032 -0.034921993 0.19381955 0.04966761
0000e0 c2 0f f5 bc fb df cc bd c8 0f 0e 3e ee 4f 16 3d
       -0.02991474 -0.100036584 0.13873208 0.03669732
0000f0 4d 3a 95 3e ef ce e5 b9 09 aa 71 be a4 84 79 3e
       0.29146042 -0.0004383246 -0.2360002 0.24367005
000100 cd e0 91 bc 80 44 5c be d5 bb 8b bd e2 91 ef 3d
       -0.017807389 -0.21510506 -0.068229355 0.11697747
000110 45 35 87 3d f1 78 9a 3e 8c d6 a8 3d 3d 4c 51 be
       0.06601957 0.30170396 0.082440466 -0.20439239
000120 f8 a2 a8 bd f3 c4 11 bd 03 98 18 bc ba b8 05 bd
       -0.08234209 -0.035588216 -0.009313586 -0.032646872
000130 f9 7a 8f be da 77 6e be 28 5c 34 3e 77 c3 ab 3d
       -0.28023508 -0.23287907 0.1761328 0.08386891
000140 f1 f2 c9 3d 2c 4a 8d 3d 04 83 3b be ca 4c 22 be
       0.098607905 0.06898913 -0.18311697 -0.15849605
000150 8e b7 95 3e 25 3a 0e 3d 87 d8 9a 3e 22 02 af 3d
       0.29241604 0.03472342 0.30243322 0.08545329
000160 0b 6f e6 bd 6c 7b 9b be d9 4c 8f 3e 4a 67 9f bd
       -0.112516485 -0.303676 0.27988318 -0.07783373
000170 36 1c 64 3e ad 4d 5b 3e 16 6e 6d 3d 02 2f 2d bd
       0.22276387 0.2141635 0.057966314 -0.04228116
000180 70 15 6d bd e7 ef 75 be bc 53 72 3e 54 5f 07 3e
       -0.057881773 -0.24017297 0.23664755 0.13219959
000190 1a 79 88 bc 0e 3d 80 bd 22 43 9d bd 4d db b4 3b
       -0.016659308 -0.06261645 -0.0767882 0.0055193068
0001a0 20 d1 d0 3d bb ad 06 be 1b 09 bd bd cb ae 88 3e
       0.101961374 -0.1315221 -0.09230252 0.26695856
0001b0 2f 86 6a bc 5a 4b 87 3e 05 15 42 3e 0a 61 0f 3e
       -0.014314218 0.26424676 0.18953331 0.14001861
0001c0 34 e4 92 3e f6 0d d6 3c b9 2a 61 3d 0e 38 89 3e
       0.2868973 0.026129704 0.054972384 0.2680058
0001d0 49 49 09 3d 7f cd 24 be 53 56 30 be c1 bf 1e be
       0.033517156 -0.16094016 -0.1722043 -0.15502836
0001e0 21 78 f3 3c 45 42 8a 3e ac 6d 0a be 7a d4 88 3e
       0.029720368 0.27003685 -0.13518399 0.26724607
0001f0 ad 26 36 3d 3f a8 6f 3e 6b 77 f3 3d e7 67 21 be
       0.044470478 0.23404025 0.118880115 -0.15762292
000200 1e 93 8b 3e 73 c4 0b 3e 89 05 68 bb a0 96 5e 3e
       0.2726068 0.13649158 -0.003540369 0.21737146
000210 52 cb 2b 3e 14 4c 94 3e 9a 26 83 be e3 d7 2c bc
       0.1677678 0.28964293 -0.25615388 -0.010549518
000220 9a 63 58 3e f2 a6 eb 3d 19 d3 80 3e 6c cc fd 3c
       0.21131745 0.11506452 0.25161055 0.030981265
000230 a6 4c e7 bd 5b e7 19 be 3b ee 17 be 3a 91 53 be
       -0.112939164 -0.15029661 -0.14836971 -0.20660868
000240 c0 cd 95 3e 21 cc 0a be df 54 81 bd ba 36 14 bd
       0.29258537 -0.13554431 -0.06315016 -0.036185004
000250 5f aa a0 3d 89 da 83 3e be f2 61 3e 64 18 e6 bc
       0.07844996 0.25752667 0.22065255 -0.028087802
000260 c4 55 8f be 5b 19 a4 bb 6b f3 ed 3d 7a fc 8f 3e
       -0.2799512 -0.0050079054 0.11618694 0.28122312
000270 e8 f8 8f be 24 ce 56 be e1 87 0f 3e cf 7e c1 bd
       -0.28119588 -0.20977074 0.14016677 -0.09448015
000280 6d f7 80 3e 0e 11 7e be 66 ab 30 bd 94 7c 50 3e
       0.2518877 -0.24811193 -0.04313221 0.20360023
000290 7b e3 0b 3e 6a 33 1f 3e 36 7b b2 bc 82 66 3a bd
       0.13660996 0.15546957 -0.021787267 -0.045507915
0002a0 ef 6a ac 3d e6 89 7b 3e 22 32 f0 3d 94 be 43 be
       0.084188335 0.24564323 0.11728312 -0.19115669
0002b0 94 e4 0a 3e 67 19 59 3e 25 49 42 be 9d 1a 5a 3e
       0.13563758 0.21201096 -0.18973215 0.21299215
0002c0 a4 7d 92 3e 28 d3 7f 3e 17 ad 72 3e c6 8c 7c 3e
       0.2861148 0.24982893 0.23698841 0.24663076
0002d0 74 46 b4 3b 93 58 9c 3d 8a 1e 1b be 1b aa 2b be
       0.0055015627 0.07634082 -0.15148368 -0.16764109
0002e0 8c 7f 35 3e 90 c5 5c 3c a8 af 51 3b f8 7a d1 3c
       0.17724437 0.013474837 0.0031995568 0.025571331
0002f0 87 c8 c5 bd fd 7c 2f be ab 7e ed bd 54 76 7e 3d
       -0.09657388 -0.17137523 -0.115964256 0.062124565
000300 78 b2 83 3e b3 a1 80 3e c3 cf 45 be 6e 0c 82 3d
       0.25722098 0.25123367 -0.19317536 0.06350027
000310 bd 8b 41 3e 70 04 99 3e 38 16 8f 3e a9 d5 1e be
       0.18900962 0.29886198 0.2794664 -0.15511192
000320 34 99 4f be 52 b5 2c be 72 af 7a be 72 26 18 3e
       -0.20273286 -0.16866043 -0.2448099 0.14858416
000330 2f d9 01 3e ab cf ac 3c 30 08 96 3e cd 7b 01 3e
       0.12680505 0.021095118 0.29303122 0.12644883
000340 5d 41 fd 3d 43 b5 96 bb 13 e8 bd 3d bc 18 e9 bd
       0.12365983 -0.004599245 0.0927278 -0.11381671
000350 6e 2f 73 3e ea e1 d9 3c 74 1f 06 3d df 0e c6 bb
       0.23748562 0.026596982 0.03274484 -0.0060442532
000360 c5 b9 68 3e 81 72 83 3e e2 8b 7a be ff 5f 7e be
       0.22727115 0.25673297 -0.24467424 -0.24841307
000370 34 f3 b4 bd 77 e8 89 be ed 7f ee 3d b0 38 4e be
       -0.0883545 -0.2693517 0.11645494 -0.20138812
000380 ea e9 40 bd dc 8b 4f be 1a 2b d9 3c 8b 31 4e 3e
       -0.047098078 -0.20268196 0.02650981 0.20136087
000390 37 47 47 3e b0 af 26 3e c1 0c 99 3e 27 99 17 bd
       0.1946076 0.16277957 0.29892543 -0.03701129
0003a0 6e 5b 95 3e dd de 0a be 7d c0 17 be af ef 80 3e
       0.29171318 -0.13561578 -0.14819522 0.25182864
0003b0 c0 65 64 3e 37 8b e9 bd a9 e6 94 3e 0d c2 95 be
       0.2230444 -0.11403506 0.2908223 -0.29249611
0003c0 21 90 bf 3b ec c5 fb 3d f6 cb d5 bd a1 62 e3 bd
       0.005846039 0.1229361 -0.10439293 -0.11102796
0003d0 ab 4e 54 3e 86 11 8e 3e 65 9e 41 be eb b2 7c be
       0.20733134 0.27747744 -0.18908079 -0.24677627
0003e0 17 56 8a be 8a 19 0b bd 7b 4c 2c 3e b5 f0 48 3e
       -0.27018806 -0.033959903 0.1682605 0.19623072
0003f0 ef 60 74 3e 76 35 9a bd 18 b0 1b be 26 39 62 3e
       0.23865102 -0.07529728 -0.15203893 0.22092113

static_variable_selection.single_variable_grns.encoder_length.gate_norm.glu.fc.bias f4 [44]
000000 98 16 56 b6 86 48 13 b8 69 7e ec b7 77 51 d2 38
       -3.1901636e-06 -3.5115074e-05 -2.8192257e-05 0.00010028754
000010 1f 0c 1d b8 fc 11 9a 38 06 12 62 37 dd fd 01 38
       -3.7443006e-05 7.346642e-05 1.3474846e-05 3.0992425e-05
000020 79 8b 26 b8 62 f0 44 38 bb 73 b9 b7 94 99 69 38
       -3.9707378e-05 4.6953915e-05 -2.210761e-05 5.569456e-05
000030 af b4 ea b7 39 c4 a2 b8 6e 07 06 36 39 a8 35 38
       -2.7979111e-05 -7.761311e-05 1.997188e-06 4.3310432e-05
000040 4b 75 10 b7 40 3d 0d b8 72 91 97 b6 57 09 0b b9
       -8.610378e-06 -3.3674063e-05 -4.5170827e-06 -0.00013259552
000050 f4 d8 b9 36 98 36 22 39 79 31 13 33 ff f0 fd 37
       5.5386863e-06 0.00015469862 3.42711e-08 3.0272173e-05
000060 91 e2 0e b7 0b b8 35 b7 a1 47 f7 b6 ba c2 b1 b7
       -8.516611e-06 -1.0831292e-05 -7.3695123e-06 -2.119072e-05
000070 35 92 07 b7 0c f5 6d b6 b5 2c 8b 37 44 fe 0d 38
       -8.0806685e-06 -3.5458388e-06 1.659091e-05 3.3853823e-05
000080 d5 9a 83 36 6c 6a 4c b7 23 dd 30 b7 b7 d7 c3 37
       3.922129e-06 -1.2184126e-05 -1.0541905e-05 2.3346262e-05
000090 d3 55 bf b2 b4 03 a0 37 82 c5 8c 36 75 28 a7 36
       -2.2274355e-08 1.907521e-05 4.195318e-06 4.9816977e-06
0000a0 99 95 88 36 c7 a5 4a b8 67 4c 51 36 17 e4 0e 37
       4.0705313e-06 -4.8314945e-05 3.11879e-06 8.516966e-06

static_variable_selection.single_variable_grns.encoder_length.gate_norm.add_norm.norm.weight f4 [22]
000000 2f fe 7f 3f b6 fb 7f 3f 03 03 80 3f 3e f8 7f 3f
       0.9999723 0.99993455 1.0000919 0.9998816
000010 0d fa 7f 3f dd f9 7f 3f f2 fb 7f 3f 1e 00 80 3f
       0.9999092 0.99990636 0.99993813 1.0000036
000020 70 fe 7f 3f f7 02 80 3f 78 00 80 3f 2f f4 7f 3f
       0.99997616 1.0000905 1.0000143 0.9998197
000030 3b 02 80 3f 12 00 80 3f 04 00 80 3f 5b 00 80 3f
       1.0000681 1.0000021 1.0000005 1.0000108
000040 17 00 80 3f e2 fb 7f 3f 02 00 80 3f c2 fd 7f 3f
       1.0000027 0.9999372 1.0000002 0.9999658
000050 5a 00 80 3f a6 09 80 3f
       1.0000107 1.0002944

static_variable_selection.single_variable_grns.encoder_length.gate_norm.add_norm.norm.bias f4 [22]
000000 bd 20 87 b7 79 c0 ec b8 f8 41 66 b8 70 4c 83 39
       -1.6108499e-05 -0.00011289208 -5.489771e-05 0.00025043217
000010 43 c3 ce b8 8e a2 01 39 fc 19 3c 38 f4 42 82 38
       -9.859216e-05 0.00012362955 4.4846893e-05 6.211354e-05
000020 8e 8d 8d b8 d9 81 df 38 3f e4 47 b8 5d ab dc 38
       -6.7497705e-05 0.00010657655 -4.7657868e-05 0.000105223364
000030 96 a2 3a b8 8a bb 4c b9 fc 78 de 35 26 1c b3 38
       -4.4497276e-05 -0.0001952482 1.65755e-06 8.540628e-05
000040 ce e2 75 b6 25 c5 6a b8 79 c6 8a 35 48 68 4e b9
       -3.6639863e-06 -5.5973553e-05 1.0339564e-06 -0.00019684539
000050 fc d7 f3 37 49 56 79 39
       2.9068433e-05 0.00023778634

static_variable_selection.single_variable_grns.processed_correction_value_center.resample_norm.mask f4 [22]
000000 9a a4 3b b5 54 e5 bf b6 55 df 33 34 69 ef bb 37
       -6.9902455e-07 -5.718941e-06 1.6751922e-07 2.2403621e-05
000010 af 40 ff b6 c3 19 9d b6 06 fa f0 b4 30 23 78 36
       -7.6071224e-06 -4.6819637e-06 -4.48854e-07 3.6975362e-06
000020 67 7a a7 b6 f6 84 e2 36 54 7a 27 b6 68 44 17 36
       -4.9912373e-06 6.7508035e-06 -2.4956144e-06 2.254057e-06
000030 c9 75 4c 35 53 e2 80 b6 15 2e ae b3 06 b0 6b b6
       7.616732e-07 -3.841045e-06 -8.110889e-08 -3.5120188e-06
000040 38 da 71 35 fa 05 5f b6 e4 46 3b 34 2e 94 fd b6
       9.0097046e-07 -3.3233068e-06 1.7441522e-07 -7.557238e-06
000050 64 02 cd b3 b2 38 05 37
       -9.546491e-08 7.940618e-06

static_variable_selection.single_variable_grns.processed_correction_value_center.resample_norm.norm.weight f4 [22]
000000 e2 ff 7f 3f 8d ff 7f 3f 1e 00 80 3f f0 00 80 3f
       0.9999982 0.99999315 1.0000036 1.0000286
000010 10 ff 7f 3f f0 fe 7f 3f a2 ff 7f 3f 1e 00 80 3f
       0.9999857 0.9999838 0.9999944 1.0000036
000020 51 ff 7f 3f 3c 00 80 3f c4 ff 7f 3f 00 00 80 3f
       0.99998957 1.0000072 0.9999964 1.0
000030 1e 00 80 3f 1e 00 80 3f 00 00 80 3f f5 fe 7f 3f
       1.0000036 1.0000036 1.0 0.9999841
000040 05 00 80 3f a6 ff 7f 3f 00 00 80 3f a6 ff 7f 3f
       1.0000006 0.99999464 1.0 0.99999464
000050 e2 ff 7f 3f 1e 00 80 3f
       0.9999982 1.0000036

static_variable_selection.single_variable_grns.processed_correction_value_center.resample_norm.norm.bias f4 [22]
000000 f1 32 0d b6 2c 07 4a b7 36 fd d1 b6 66 46 ce 37
       -2.104029e-06 -1.2041808e-05 -6.258163e-06 2.4589895e-05
000010 7a 44 27 b7 98 82 3a 37 f6 99 51 36 5b 80 be 36
       -9.969919e-06 1.111687e-05 3.1233044e-06 5.677384e-06
000020 57 ca ef b6 96 74 2b 37 55 f4 b8 b6 af af 25 37
       -7.1463105e-06 1.0219539e-05 -5.5120713e-06 9.875671e-06
000030 b4 9f ae b6 e5 91 a8 b7 65 44 18 b5 9e 18 ea 36
       -5.204196e-06 -2.0095098e-05 -5.672394e-07 6.9766093e-06
000040 28 bb b4 b5 8e 22 c7 b6 54 ef b4 b4 b6 31 a8 b7
       -1.3465515e-06 -5.934685e-06 -3.3701747e-07 -2.005031e-05
000050 f9 42 04 36 d0 13 c1 37
       1.9708516e-06 2.3016619e-05
