optuna_test/trial_0/epoch=0.ckpt (torch, 773124 bytes, 777 tensors)

prescalers.encoder_length.weight f4 [11, 1]
00000000: c6bd 6dbf f67b 183f 883e 78bf 70b8 abbe
00000010: 86d4 f83e 0c9f 38be 051e 8abe e746 2a3f
00000020: 52a0 01bf cb78 2a3f fcec 2e3f
-0.92867696 0.5956415 -0.96970415 -0.33539152 0.48599643 -0.18029422 -0.26976028 0.6651444
-0.50635254 0.66590565 0.6833036

prescalers.encoder_length.bias f4 [11]
00000000: 3456 3a3f d934 0cbe e663 6f3f 42ab 6abd
00000010: 924f b5be 1868 37bf 3554 a7be f66d 0f3f
00000020: 1ced 5f3f 2216 bebe ee1e 1abe
0.72787786 -0.13692035 0.9351181 -0.05729223 -0.3541227 -0.7164321 -0.32681432 0.5602716
0.87471175 -0.3712626 -0.15050861

prescalers.processed_correction_value_center.weight f4 [11, 1]
00000000: 0013 13bd aa1d 3fbf 784a 6a3e 5643 6fbf
00000010: 8470 88be 285d 72bf 5a46 073f b8b3 e3be
00000020: c0f1 b33d 20d9 ed3e 68d4 023e
-0.03590679 -0.7465464 0.2287997 -0.9346212 -0.26648343 -0.94673395 0.5284172 -0.44473052
0.087863445 0.46454716 0.12776339

prescalers.processed_correction_value_center.bias f4 [11]
00000000: 4a6b 6f3e 6832 2b3f 4cb9 433f d3af f73e
00000010: ca8a e03d 4fb6 e13d bd3e b5bd bae3 c63d
00000020: 8eb1 113f d579 0c3d 08c5 41bf
0.23380771 0.6687379 0.76454616 0.4837633 0.10963972 0.11021101 -0.08849857 0.09711404
0.5691155 0.034295876 -0.7569127

prescalers.processed_correction_value_scale.weight f4 [11, 1]
00000000: ac7d 9d3e 70ee 04be 08ad 773e d86c 573f
00000010: d0df 203f e00b fcbd 1696 04bf 8002 253f
00000020: 4a93 1cbf 78eb 17bf 9cc5 cbbe
0.30759943 -0.12981582 0.241871 0.8415046 0.6284151 -0.123069525 -0.5179151 0.6445694
-0.61162245 -0.5934367 -0.397992

prescalers.processed_correction_value_scale.bias f4 [11]
00000000: cc87 44bf 4705 e5bd 250e 0d3f 78c0 63bf
00000010: 2ec5 67bf 7ac3 dd3e c86a e4be d916 673f
00000020: 1868 553f 7dce 37bf 5bb0 4c3f
-0.7676971 -0.11182647 0.5509971 -0.8896556 -0.9053525 0.433132 -0.44612718 0.9026924
0.8336196 -0.7179945 0.799566

prescalers.time_idx.weight f4 [11, 1]
00000000: 5699 1d3f ca3f 41bf e3ef 2fbf 3fea 583f
00000010: 8b7b b7be a60d 3e3e b338 55bf 0401 9fbd
00000020: 59eb 103f aee5 4ebb 74c7 e13e
0.615621 -0.7548796 -0.68725413 0.8473243 -0.35836443 0.18559894 -0.8328964 -0.077638656
0.5660911 -0.0031570005 0.44097483

prescalers.time_idx.bias f4 [11]
00000000: 966c 0ebf b8c2 9e3e 81d1 bfbe e408 66bf
00000010: 0b0e 173f b61b 323e 365b 413f 28e9 21bf
00000020: 48b5 6f3f 5b3a 75bb a062 21bf
-0.5563444 0.31007934 -0.37464526 -0.89857316 0.590058 0.17393383 0.755298 -0.63246393
0.9363599 -0.0037418816 -0.63041115

prescalers.relative_time_idx.weight f4 [11, 1]
00000000: bac6 f2bd 1d7f ae3d 9849 04bf f1ab a1be
00000010: b490 b4be 448a 333f 8fb6 82be 7cc7 fe3e
00000020: 168f a5bd dde8 383f 6376 00be
-0.1185431 0.08520339 -0.51674795 -0.31576493 -0.3526665 0.7013285 -0.25529906 0.4976157
-0.08083932 0.7223032 -0.12545161

prescalers.relative_time_idx.bias f4 [11]
00000000: 976a de3d 5d32 0ebf 4150 48bf 6c2a b2be
00000010: 86b7 833e d553 903d da37 623f 147a 6d3e
00000020: 02ff 603f 4511 3ebf 4410 1f3f
0.10860174 -0.555456 -0.7824746 -0.3479799 0.25725955 0.0704724 0.8836647 0.231911
0.8788911 -0.742451 0.62134194

prescalers.processed_broadcast_clock_bias.weight f4 [11, 1]
00000000: 54c2 59bf ce75 403f d903 dcbe 0b5b a5be
00000010: 682f 0ebf d1ca 233f f068 47be 4eca 47bf
00000020: 3fc9 c6bc 7ce9 f53e fbec 773e
-0.85062146 0.75179756 -0.42971686 -0.32296023 -0.55541086 0.6398135 -0.19473624 -0.7804307
-0.024265883 0.48029697 0.24211495

prescalers.processed_broadcast_clock_bias.bias f4 [11]
00000000: 865f 4ebf 4ec3 2f3f eba2 30be 84ae 5d3e
00000010: a660 36bf 5661 ecbe 22b6 60bf b85b 623f
00000020: 392f 263f 408d 04bf 3a25 9ebe
-0.8061451 0.68657386 -0.17249648 0.21648604 -0.71241224 -0.4616801 -0.8777791 0.884212
0.64915806 -0.5177803 -0.30887777

prescalers.processed_final_clock_bias.weight f4 [11, 1]
00000000: b0ba 073f 345d c93e b4ec f2be 7a2d 443e
00000010: cecc f8be 4cb2 203f fb1a 79bf 1db9 46bf
00000020: feaf e9be d824 3abf ecea 03bf
0.5301924 0.3932892 -0.47446215 0.19157973 -0.48593754 0.6277206 -0.97306794 -0.7762621
-0.45642084 -0.7271247 -0.5153034

prescalers.processed_final_clock_bias.bias f4 [11]
00000000: 20c1 08bf 42db d43e 67a5 b1bd 2ada 183f
00000010: b38b 88bd b0d3 6abf 74a8 46bf 0e01 cebd
00000020: 79c6 963e 30bf 45bf 22ae 0d3f
-0.53419685 0.4157353 -0.08674126 0.5970789 -0.066672705 -0.9172926 -0.7760079 -0.10058795
0.29448298 -0.77244854 0.5534383

prescalers.processed_correction_value.weight f4 [11, 1]
00000000: 647e 063f b837 cb3e 76e4 293f 774b f73e
00000010: 35e4 4f3c 2e70 0dbf 5eca e8be 9a69 15bf
00000020: 7390 40bd 87fd 433f 7613 24bf
0.52536607 0.39690948 0.6636423 0.48299763 0.012688686 -0.552493 -0.45466894 -0.5836426
-0.047012758 0.7655873 -0.64092195

prescalers.processed_correction_value.bias f4 [11]
00000000: 5560 fa3e 1d79 e9be 2a71 193d b32e 1bbf
00000010: 0f1f 613e 8b49 f2bd a91d 5d3e ccc3 ca3e
00000020: 4c95 2d3f 3ad5 14bf 9e05 2abf
0.4890162 -0.45600215 0.037461437 -0.6061813 0.21984504 -0.118304335 0.21593346 0.39602506
0.67805934 -0.5813786 -0.6641482

static_variable_selection.flattened_grn.resample_norm.mask f4 [3]
00000000: 125e 76b5 6b75 43b5 eee8 dc35
-9.177903e-07 -7.2814026e-07 1.6459069e-06

static_variable_selection.flattened_grn.resample_norm.norm.weight f4 [3]
00000000: c4ff 7f3f 0000 803f 1d00 803f
0.9999964 1.0 1.0000035

static_variable_selection.flattened_grn.resample_norm.norm.bias f4 [3]
00000000: 51c0 8436 4ee0 b7b6 3183 cc35
3.956295e-06 -5.4799375e-06 1.5237366e-06

static_variable_selection.flattened_grn.fc1.weight f4 [3, 33]
00000000: 2283 9ebe 3a10 cfbe 49de b4be 1e3d 1b3e
00000010: 555e 5d3e a99b f83d 7544 cfbe 464a d43e
00000020: 7403 28bc 19ed cf3e 646e 683e f2f8 eb3d
00000030: 6fb5 1f3f 5e84 04bd 2999 933c 1a21 c3bb
00000040: 9cb3 963c d348 003f d6c9 b93e f919 6cbe
00000050: fe89 c9be c69d 943d b3ec be3d a6a3 b9be
00000060: e7ca 05bf 57c2 9ebb bff3 893e f88c 45be
00000070: daf1 21be 74d1 80be c1f3 94bd e670 253d
00000080: 29dc cabc b5fa 143e 8615 63be fb96 e83c
00000090: d18b 8bbd c0db 333e 7274 babd ebbd ccbd
000000a0: 302e 59be 93d3 1dbe a98c c8bd 4230 83be
000000b0: 7181 ed3d 9491 e9be 0a96 dcbd ea03 9cbe
000000c0: 2727 1c3e 1c37 833e 5ad5 8bbe f74e 323d
000000d0: 30fe abbd eeb5 6dbc 3f4f ba3d 5c4b 68be
000000e0: 83e4 3abe eea1 8c3d a913 d03e 1c59 cdbe
000000f0: 06f3 c2be b199 35be aca7 0b3e 4822 d63d
00000100: 4b11 083f 696c 9cbd 8438 673d b55e 763e
00000110: f59e b63e 391b 7ebe dc45 9bbe 1280 50bd
00000120: 8554 c93d c28c 90be f819 1fbe b8a5 4e3e
00000130: f872 0a3d 24f6 cebe 8fbb 31be da63 d83d
00000140: bce8 6abd 31e6 0e3e 5951 16bf ce9b 763e
00000150: f97b 033c cd0d c8bd 5399 bdbe 0ee9 f83d
00000160: 48dd 5e3e fe8a 8cbd 1a82 5ebe 3acb 5dbb
00000170: 3cc0 ed3e 131b bcbd db3f bdbe e45b 503d
00000180: b9bb a83c 4a5a 663e 6512 4abe
-0.3095942 -0.40442067 -0.3532584 0.15160033 0.21618016 0.12139065 -0.40481916 0.41462916
-0.01025473 0.4061058 0.2269836 0.11522092 0.6238622 -0.032352798 0.018017368 -0.0059548737
0.018396191 0.5011112 0.362868 -0.23056783 -0.39363092 0.072566554 0.093224905 -0.36257666
-0.5226273 -0.0048449445 0.26943776 -0.19292057 -0.15814915 -0.251598 -0.07273055 0.04039087
-0.024763184 0.14548762 -0.2217618 0.028392306 -0.06813777 0.17564297 -0.091042414 -0.099971615
-0.21209025 -0.1541274 -0.09792454 -0.25622755 0.115969546 -0.4561888 -0.10770805 -0.30471736
0.1524931 0.25627983 -0.27311212 0.043532338 -0.08398092 -0.014508707 0.09097146 -0.22684997
-0.18251233 0.06866823 0.4064 -0.40107048 -0.38076037 -0.1773441 0.1363818 0.104557574
0.53151387 -0.07637865 0.056450382 0.24059565 0.3566815 -0.24815072 -0.30326736 -0.050903387
0.09830574 -0.2823239 -0.1553725 0.20180404 0.03380105 -0.40422165 -0.17356704 0.1056592
-0.05735086 0.13954999 -0.58717877 0.24082872 0.008025163 -0.09768257 -0.3703104 0.12153827
0.217641 -0.06862448 -0.21729317 -0.0033843056 0.46435726 -0.091848515 -0.3696278 0.050868884
0.020597326 0.2249538 -0.1973358

static_variable_selection.flattened_grn.fc1.bias f4 [3]
00000000: e815 7fb6 801d b4b4 a500 2334
-3.8010712e-06 -3.3549077e-07 1.5180792e-07

static_variable_selection.flattened_grn.fc2.weight f4 [3, 3]
00000000: ff7c df3f b2a8 bf3d f627 4c3f 76b2 5fbf
00000010: e65a abbe 07bd 47bd a71d 0bbe f537 e4be
00000020: 9b84 ba3f
1.7460021 0.09358348 0.79748476 -0.87381685 -0.33467788 -0.048764255 -0.1358553 -0.44573942
1.4571718

static_variable_selection.flattened_grn.fc2.bias f4 [3]
00000000: 91c8 f6b5 ab82 f034 0e6f c235
-1.8386801e-06 4.4798557e-07 1.4486448e-06

static_variable_selection.flattened_grn.gate_norm.glu.fc.weight f4 [6, 3]
00000000: 173d fbbe f577 c73e 1acb 3f3f a8d3 f63d
00000010: 46e0 b83e 3dbe 053f ac42 a03b c2c8 143f
00000020: c294 97be b9e5 10bf 3862 1cbf 9c67 48bf
00000030: 3f0d f0be 735d 9bbe 02d0 243f 0bb2 af3e
00000040: d3a7 24bf 204d babe
-0.49070045 0.38958707 0.74919283 0.12052089 0.36108607 0.52243406 0.0048907604 0.5811883
-0.2960568 -0.5660053 -0.6108737 -0.78283095 -0.46885106 -0.30344734 0.64379895 0.34315524
-0.6431858 -0.36386967

static_variable_selection.flattened_grn.gate_norm.glu.fc.bias f4 [6]
00000000: 2cf2 3436 48c1 1cb6 5ab1 4b35 f7b6 13b4
00000010: 0806 0935 01a6 1234
2.6963053e-06 -2.3358316e-06 7.5881474e-07 -1.3757004e-07 5.1045254e-07 1.3657701e-07

static_variable_selection.flattened_grn.gate_norm.add_norm.norm.weight f4 [3]
00000000: 0000 803f 1e00 803f 5a00 803f
1.0 1.0000036 1.0000107

static_variable_selection.flattened_grn.gate_norm.add_norm.norm.bias f4 [3]
00000000: 0daa 80b4 359f 06b7 67a4 0a37
-2.3965586e-07 -8.024091e-06 8.263719e-06

static_variable_selection.single_variable_grns.encoder_length.resample_norm.mask f4 [23]
00000000: 4da0 80b4 0fc9 2234 39e7 c234 be00 6235
00000010: 6fa3 fa32 18bf 2f35 a892 9634 dba9 3d35
00000020: 28ad 0eb4 3860 cd32 1e67 4935 2c01 0eb6
00000030: 15f8 a6b3 9202 55b5 27ff 9134 b195 c335
00000040: 99c0 3a36 187f c5b5 c0f0 17b2 22a1 24b6
00000050: 0dea d432 8508 12b5 6081 06b5
-2.3958492e-07 1.516057e-07 3.6303553e-07 8.419264e-07 2.9178151e-08 6.547066e-07 2.8046384e-07 7.065516e-07
-1.3287774e-07 2.3908896e-08 7.502839e-07 -2.116033e-06 -7.775103e-08 -7.9352424e-07 2.7194002e-07 1.4572198e-06
2.7828266e-06 -1.4714633e-06 -8.844097e-09 -2.4531696e-06 2.4786482e-08 -5.4401636e-07 -5.0107155e-07

static_variable_selection.single_variable_grns.encoder_length.resample_norm.norm.weight f4 [23]
00000000: 0000 803f 0000 803f 0000 803f 0000 803f
00000010: 0000 803f 1e00 803f 0000 803f 1e00 803f
00000020: 0000 803f 0000 803f 1e00 803f c4ff 7f3f
00000030: 0000 803f e2ff 7f3f 0000 803f 1e00 803f
00000040: 3c00 803f e2ff 7f3f 0000 803f c4ff 7f3f
00000050: 0000 803f 0000 803f 0000 803f
1.0 1.0 1.0 1.0 1.0 1.0000036 1.0 1.0000036
1.0 1.0 1.0000036 0.9999964 1.0 0.9999982 1.0 1.0000036
1.0000072 0.9999982 1.0 0.9999964 1.0 1.0 1.0

static_variable_selection.single_variable_grns.encoder_length.resample_norm.norm.bias f4 [23]
00000000: 43ff 8b35 cdff c335 4787 8535 29a8 4636
00000010: a496 0235 60f2 a1b6 bc6e 8cb5 7eea 21b6
00000020: 10fd 0c36 b29f 1635 5673 f9b5 e4f1 fe35
00000030: e31c 63b4 97f3 8035 ae4b 8436 9e7a fa35
00000040: 0627 4b36 52b6 0fb6 4f77 b133 6725 f2b6
00000050: 7196 2d34 a8f6 93b5 a155 44b5
1.0430598e-06 1.460308e-06 9.948643e-07 2.9602181e-06 4.8647985e-07 -4.82639e-06 -1.0463041e-06 -2.4127362e-06
2.1008927e-06 5.611174e-07 -1.8585513e-06 1.8994874e-06 -2.1151531e-07 9.607637e-07 3.942717e-06 1.8662138e-06
3.0272072e-06 -2.1414785e-06 8.263907e-08 -7.216516e-06 1.6166611e-07 -1.102414e-06 -7.3140296e-07

static_variable_selection.single_variable_grns.encoder_length.fc1.weight f4 [11, 11]
00000000: e7c2 013f ed15 8dbe cfb7 21be 1fb4 a9be
00000010: 8a2b 773d 3c1f 1b3f 325d 723e 1056 fc3d
00000020: 477f e13e a865 68be e15a 593f de3e 393f
00000030: 321c 64be 0516 09bf de13 92bc d6db 74bd
00000040: 1794 f73e b11d 79bd 78a1 093e c181 8dbe
00000050: dacd 2f3e 7e3a 13bf afed 353f 528f bd3e
00000060: 03b5 b03d e7cd 933e c500 06bf 2262 87be
00000070: 7b1c 9ebe 2cd5 d23e 6610 38bd d5fb 5b3e
00000080: 1634 a53e f0eb 593d 3846 f0be 211b a6be
00000090: d1d0 da3e fd7e 243f 1b05 c0be b14c 443e
000000a0: cfd7 b53e 0a86 043f 4094 f83d ce79 3ebf
000000b0: e595 79bd 2739 0a3d 02d7 27be 96d5 8e3d
000000c0: 10f3 02be a0d6 0e3f b15e d6bd d0ed 3b3e
000000d0: f7b2 6abc 2914 9e3e 5b39 14bf 6f82 a13e
000000e0: f621 07ba 9576 b03d 2beb edbe c74e 133f
000000f0: ca06 af3e 2191 223e ab39 81be 0dd0 4c3e
00000100: aff6 72be f1db 58be dedf d3bd 9378 263e
00000110: 46fd 70bd 3d30 15be 65ce 803e 6acb ca3d
00000120: 1a66 51be ee57 6abe d68a 2bbd 9b22 353a
00000130: 8d5b c3be cd6b c4be 3058 093f 07e9 1abf
00000140: 0619 c63b e3e7 e93e 7150 c6be a659 96be
00000150: f3c1 aa3d 6d57 a13d cca9 183e 1cb4 603e
00000160: c2a3 fabd 69f4 4fbe 6832 cd3e 9855 153f
00000170: 3209 8bbe a60a 0fbf 33c5 9e3e 6855 c23e
00000180: 9e0c 823f 16d6 bf3e cc07 a3bf 11fa 3dbe
00000190: 1101 e63e 2693 7f3e 639e 603f 4d77 4d3f
000001a0: 3d65 a33e 7875 2c3f 2d83 f0bd 3b4b 18bf
000001b0: 2fc0 bbbe 0df6 b53d 7ecd 4d3c ad6b 07bf
000001c0: 8f44 d53e 48f2 1d3d f381 dcbc b6bb 123f
000001d0: cc43 d73e e520 87bf f6ff 893f 3921 953e
000001e0: 2035 213f
0.5068802 -0.2755579 -0.15792774 -0.33145234 0.060344256 0.60594535 0.23668364 0.123211026
0.44042417 -0.22695029 0.84904295 0.7236155 -0.2227638 -0.53549224 -0.017831739 -0.059779964
0.4835517 -0.06081933 0.13440502 -0.27638057 0.1716837 -0.57511127 0.710658 0.37023407
0.08628275 0.2886803 -0.52344924 -0.26442057 -0.30881104 0.41178262 -0.044937514 0.21482785
0.322663 0.053203523 -0.46928573 -0.32442573 0.4273744 0.6425627 -0.37503895 0.1916988
0.3551621 0.5176703 0.121376514 -0.7440461 -0.060933966 0.03374591 -0.16390613 0.06974332
-0.12788033 0.5579624 -0.1046728 0.18352437 -0.014324895 0.30874756 -0.5790002 0.31544825
-0.0005154902 0.08616368 -0.4646848 0.5754208 0.34184867 0.15875675 -0.2523931 0.2000124
-0.23726915 -0.21177651 -0.10345434 0.16256933 -0.05883529 -0.14569183 0.25157467 0.099020794
-0.20449105 -0.22885105 -0.04188045 0.00069097587 -0.38155785 -0.38363495 0.5365019 -0.6051182
0.0060454635 0.45684728 -0.38733247 -0.2936527 0.08337774 0.07878003 0.14908522 0.21943706
-0.122382656 -0.20308079 0.4007752 0.5833373 -0.27155453 -0.55875623 0.31009826 0.37955785
1.01601 0.37468022 -1.2736754 -0.18552424 0.4492269 0.24958476 0.8774168 0.80260164
0.31913176 0.67366743 -0.1174377 -0.5948979 -0.36670062 0.08884821 0.0125612 -0.52898675
0.4165387 0.038561136 -0.026917433 0.57317674 0.42043912 -1.0556914 1.0781238 0.2912691
0.6297169

static_variable_selection.single_variable_grns.encoder_length.fc1.bias f4 [11]
00000000: a3f3 9135 614b d034 5835 44b5 0e36 8036
00000010: 6d4c 6c35 6f6f 84b5 31d4 c635 b9d3 3e35
00000020: f67e 8a35 7863 e535 f113 c034
1.087425e-06 3.8797864e-07 -7.3093315e-07 3.82099e-06 8.8028065e-07 -9.867198e-07 1.4813905e-06 7.108861e-07
1.0318752e-06 1.7090779e-06 3.5777296e-07

static_variable_selection.single_variable_grns.encoder_length.fc2.weight f4 [11, 11]
00000000: 5341 533e 788a b33e a1a9 ac3e 54ac 70be
00000010: c078 f0be 16d9 17bf f934 043e 4e80 323f
00000020: 23f4 61be bc9c 4dbc 74d4 92be 79f8 15bf
00000030: 3658 ecbd eb34 fc3d a1aa 2dbe cc07 fa3d
00000040: 3a1c c83d 5d97 6abe 5971 923e 12dc c23d
00000050: 2a54 7dbf 4478 dbbe 7524 423f 7477 c23e
00000060: a6f7 373d 5fe1 40be 8f74 e03e 9d07 5abe
00000070: 18c1 063e 5424 d5bc f977 30bf a5ca 683f
00000080: 5eb7 d8be 5ed8 253e 1b1c 2bbf bbb2 d1be
00000090: 9cfb 89be 61a8 c8be 3dbd cd3e 2791 1bbe
000000a0: 4091 71bf e706 dcbd 3359 a5be 8cfe d7be
000000b0: 7b46 933e 412b 45bf 9eec 703f 1e59 32bf
000000c0: 1940 333f d2e0 013f a773 b0be 1ab7 15bf
000000d0: 19be febc b80a 923e 24aa 9f3e 2683 123f
000000e0: 9afd b53e 3921 d4be c3dd e5be 7ed6 b0bd
000000f0: 4425 35be 4d94 3e3e 3f90 713d 6796 9cbf
00000100: c6ca 893d e34c 143e e272 25bf ff77 41be
00000110: d9ab bbbc 6915 3ebe 64a9 2cbe 7bc8 f8bd
00000120: 8c44 233e 0be7 e83d a9f0 8bbe 0f97 0abe
00000130: 6245 27bf 9656 3f3e dae4 20bf 386f bd3e
00000140: de66 12bf 867d d93e 403c db3e f1a7 d0be
00000150: e6d2 fa3e 9148 043e 202c bfbe 4f98 b63e
00000160: e4bb 65bf c611 48be 1601 2dbd dee6 913f
00000170: d043 fc3e 9e7d f33c 7e07 b73e 9b51 5a3e
00000180: 7715 913d 73ac 08be 1bfd 85be d7ba 83be
00000190: d6fa ac3e 71c5 4c3e c43a 513d 06a7 8ebe
000001a0: 40d7 ba3e acee a93e d235 bd3e a801 253f
000001b0: 53c4 123f 0ba5 8d3d b922 18bf 9ac7 273f
000001c0: 3953 843e aaa3 b9be b7f6 59be 6eba a13f
000001d0: 3493 a3bd 4d53 09be ae0b b03d fb9e babe
000001e0: 04f2 41bd
0.20630388 0.3506658 0.33723167 -0.23503238 -0.46967125 -0.5931562 0.12910832 0.6972703
-0.22065787 -0.012549575 -0.28677714 -0.58582264 -0.115402624 0.12314781 -0.16959621 0.122085184
0.09771009 -0.22909303 0.28602102 0.09514631 -0.9895655 -0.42865193 0.7583688 0.3798176
0.04491391 -0.18835972 0.43838927 -0.21291967 0.13159597 -0.0260183 -0.68933064 0.9093421
-0.42327398 0.16195819 -0.6683976 -0.40956673 -0.26949775 -0.39190963 0.4018344 -0.1519209
-0.9436226 -0.10743504 -0.32294616 -0.4218639 0.2876471 -0.77019125 0.9411105 -0.6966723
0.7001968 0.50733674 -0.34463236 -0.58482516 -0.031096505 0.28523803 0.31184494 0.57231367
0.35545045 -0.41431597 -0.44895753 -0.08634661 -0.17689997 0.1861126 0.058975454 -1.2233399
0.06728129 0.14482455 -0.6462842 -0.18893431 -0.022909092 -0.18562855 -0.16861492 -0.121476136
0.15944117 0.11372193 -0.27332047 -0.13534187 -0.65340245 0.18685374 -0.628492 0.36998916
-0.5718821 0.4247858 0.42819405 -0.4075313 0.48989028 0.12918307 -0.37338352 0.35663077
-0.89739823 -0.1953803 -0.042237364 1.139858 0.49270487 0.029722985 0.35747904 0.21320193
0.07084172 -0.13347034 -0.26169667 -0.25728485 0.33785123 0.19997193 0.051081434 -0.27861804
0.36492348 0.33189905 0.36955124 0.6445565 0.57330817 0.06916245 -0.5942798 0.6553894
0.25844744 -0.36257678 -0.2128552 1.2635019 -0.07987061 -0.13410683 0.08595978 -0.36449417
-0.047349945

static_variable_selection.single_variable_grns.encoder_length.fc2.bias f4 [11]
00000000: 167e a3b5 37c5 3fb6 b5cc 7535 d04f b5b5
00000010: c18d 15b5 7a97 edb4 4b00 0cb5 2a2a 4ab4
00000020: 06e9 ab35 8169 b735 4af5 c6b5
-1.2181142e-06 -2.8576012e-06 9.15675e-07 -1.3508779e-06 -5.5713105e-07 -4.4254904e-07 -5.215449e-07 -1.8828055e-07
1.2808312e-06 1.3665268e-06 -1.4823538e-06

static_variable_selection.single_variable_grns.encoder_length.gate_norm.glu.fc.weight f4 [46, 11]
00000000: 99ce e6bc 8001 6d3e 712f c43c 5b99 d33d
00000010: 279b 8a3e d4e8 cdbd 600b 973e bff3 673e
00000020: c605 16bd e75a 463e 17f9 2dbe 409e 6bbb
00000030: d375 863e b597 393e 25ea 57be 0e70 95bc
00000040: 51f5 853e 0537 06bc 472c 32be 96df 5a3c
00000050: ebe0 9a3e 88f3 2a3d 4f1b 99be 51e9 2ebe
00000060: f16c c4bd 2d83 ac3d 79de 17be 9e3d a1bd
00000070: ec33 093e e915 9fbe 0f00 8e3e cc77 073e
00000080: 7678 793e 427d 74be 8d50 98be 6b57 a03d
00000090: 9dda 93bc d886 03be 8c8f 273e 894d 803e
000000a0: 9c8e 993e 8417 2c3e 3ce6 013e 3abe 3abe
000000b0: 5992 0bbe a435 73be 6622 9a3e ec12 da3d
000000c0: baca 3cbe e2e0 4c3e 2a89 203e 12a2 7c3e
000000d0: 20e6 59be 4c7c 17be 8c26 0d3e f300 98be
000000e0: e8e8 4f3e 098f 37bd 4f62 fe3d 9990 a33e
000000f0: fd29 1cbe deae 2fbe 0c97 423e 8ff1 80be
00000100: 6d28 1cbe 03cd 0ebc 6a27 0f3d a3cd 2abd
00000110: 0eeb 853d 1bbb 7a3e c137 3f3e e949 26be
00000120: 2ed8 983e b432 25be 11e2 98be 6737 05be
00000130: 43d7 d5bc 3895 12be 90cf 82be 7828 343e
00000140: 27cc 043e 19e8 47be 1cda 553e 7d0f a13e
00000150: ce66 c6bd b69e ae3d 8d23 cf3c 5abd 5cbe
00000160: 334f 753d 700b 2dbe d31d 69be 18f6 99bd
00000170: b28f 4b3d 9627 1cbe 2a66 053e 1b8f 89be
00000180: a83e 4a3c e78c 493e dc9a 5e3d 9f77 58be
00000190: 5cb7 523d 4179 c8bd 1c21 9b3e 9f3c 17bc
000001a0: 2c1b d53d 871f 33be a8a2 8fbe 0db8 89bd
000001b0: 0626 70bd 88b9 81be 06b1 e43d cefb 673e
000001c0: dd2e 84be e0bd 23bd 799b e1bd c71f 353e
000001d0: 7737 1fbd 71c7 31be af05 21be f271 073e
000001e0: 3e7a 7b3e d8d0 97be b69d 4dbe 3bdf 0f3e
000001f0: 2903 73be 5542 00be 8e04 6c3d 409c 7fbe
00000200: 2e8e a43c 80f5 9d3e 9350 8a3d 5a51 2abe
00000210: 30bd 953d 6ed8 743e 0ceb 44be 1a29 5a3e
00000220: c7d5 a1be f454 3fbe c9d9 453e 500a 11be
00000230: 67c8 7abe 4401 663e 955e a9bd 4175 fa3d
00000240: 674f 7cbe 7386 80be 39b1 5cbe 83bc 533e
00000250: 8adf 253d 3351 9dbb 34a9 1d3d b46e 8abe
00000260: 6746 933e 29eb dbbd d073 26bd 923c 6ebd
00000270: a5ac 17be 1bb8 323e e9b5 0abe 9c2c 2b3c
00000280: 3360 523e fbfe c5bd 62b0 a03d 8e70 a23e
00000290: 3bd8 3dbe 2e8b 96be b035 ecbd 52a8 863e
000002a0: 506d ffbb b6ae 2ebe be2b 9dbe 37e0 02be
000002b0: 4318 ab3d 8e8a 843e f4cc 98be a0e2 bcbc
000002c0: 0256 a03e c670 5c3e 1a13 d73d 356b c7bd
000002d0: e2d6 723e 9139 5c3e 4aa4 fcbd e04c 85bd
000002e0: ce71 8abd 4365 d33c 6046 5b3c 019a 813e
000002f0: 3b11 16bd 9241 8b3e c080 003d 0ffe 72be
00000300: 2238 363d b0dc 813e 8a39 42be b05c 27bd
00000310: e3f5 713e 540a 23be 6594 3cbe fcdf 44be
00000320: 85d4 463e 1fdf 173d 9b4c 88be 81f2 8bbe
00000330: fa6f 673e b52f d23b 675a 673e 5f96 7ebe
00000340: 952f 713e c082 7d3e 486e 943e 1765 3bbe
00000350: bee4 8a3e 04c0 acbd a52f 163e dcb6 523e
00000360: 5f25 463e a196 ce3d f284 f5bd 1d9c 973e
00000370: b458 9fbd dc9b 4c3d 10be ae3a bc16 79be
00000380: cff3 85be 40a0 40be 4959 833e 421c 433e
00000390: ee83 f7bd e2db 1abe cba6 5f3d d948 5c3e
000003a0: 9181 853e 617b 943d d44f bbbd f050 9ebd
000003b0: cddc ebbc 3833 65be 2f95 923e 5368 5abd
000003c0: 4f54 87be 33ae d23d 1439 27be 45dc ed3b
000003d0: ac04 6bbe 3724 5bbe 4807 77be bd76 93be
000003e0: ac35 453e 1222 d5bd 49a0 9f3e aa2a 96be
000003f0: 68e2 ea3d 9aec 83be 3a96 84be 9549 943d
-0.028174685 0.23145103 0.023948403 0.103319846 0.27071497 -0.10054174 0.29500866 0.22651576
-0.0366266 0.19370614 -0.16989551 -0.0035952479 0.26261768 0.18124278 -0.21085413 -0.018241908
0.26163724 -0.008191829 -0.17399703 0.013358971 0.30249724 0.041736156 -0.29903647 -0.1708119
-0.095910914 0.08423457 -0.1483096 -0.07873081 0.13398713 -0.31071404 0.2773442 0.13229293
0.24362358 -0.23875907 -0.29748955 0.07829174 -0.018048579 -0.12844408 0.16363353 0.25059155
0.29991615 0.16805845 0.12685484 -0.18236628 -0.13630046 -0.23750931 0.3010437 0.1064814
-0.18436709 0.20007661 0.15677324 0.246712 -0.21279192 -0.14793509 0.13784236 -0.29688224
0.2030369 -0.044814143 0.124210946 0.31946257 -0.15250392 -0.1715655 0.19002932 -0.25184295
-0.15249796 -0.008715871 0.034949698 -0.041700017 0.06538974 0.24485438 0.18673612 -0.16239132
0.29852432 -0.16132623 -0.29859975 -0.13009416 -0.026103621 -0.14314735 -0.25548983 0.17593563
0.12968503 -0.19522132 0.20883983 0.3145713 -0.09687577 0.085263655 0.025285507 -0.21556607
0.059889983 -0.16898894 -0.22765283 -0.07517642 0.049697585 -0.15249476 0.13027254 -0.26866993
0.01234404 0.19682656 0.054346904 -0.21139382 0.051444396 -0.09788752 0.30298698 -0.009230762
0.10405573 -0.17492495 -0.28053784 -0.06724558 -0.058630012 -0.25336862 0.11166577 0.2265465
-0.25817004 -0.039976 -0.11015982 0.17687903 -0.038871255 -0.17361237 -0.15724824 0.1322706
0.2455835 -0.29651523 -0.20079693 0.1405 -0.23731674 -0.12525304 0.05762153 -0.24961948
0.020087328 0.30851364 0.067536496 -0.16632596 0.07311475 0.23910686 -0.19230288 0.21304742
-0.31608412 -0.18684751 0.1932136 -0.1416409 -0.2449051 0.2246142 -0.08269993 0.12229396
-0.24639665 -0.25102577 -0.2155198 0.2067738 0.040496387 -0.0048009395 0.038491443 -0.27037585
0.2876465 -0.107382126 -0.04063779 -0.058163233 -0.14811952 0.17453043 -0.13545956 0.010447647
0.2054451 -0.09667774 0.07846142 0.31726497 -0.18539517 -0.2940306 -0.115336776 0.26300293
-0.0077950135 -0.17058834 -0.30697435 -0.12780844 0.08354237 0.2588696 -0.29843867 -0.023057282
0.3131562 0.21527395 0.1050169 -0.09737245 0.23714784 0.21506335 -0.12336023 -0.06508803
-0.06759988 0.025805121 0.013383478 0.25312808 -0.036637526 0.27198464 0.031372786 -0.23729728
0.044487126 0.25363684 -0.18967262 -0.040859878 0.23628955 -0.15921909 -0.18415983 -0.19226068
0.19417007 0.03707802 -0.26620945 -0.27333453 0.2260131 0.0064143785 0.2259308 -0.2486205
0.23553307 0.24756908 0.28990388 -0.18300281 0.2712764 -0.084350616 0.14666612 0.20577568
0.19350193 0.10087324 -0.11988248 0.29611292 -0.07780591 0.049953327 0.001333179 -0.24325079
-0.26162574 -0.1881113 0.25654057 0.19053748 -0.120857105 -0.15122941 0.054602426 0.21512164
0.26075414 0.07250095 -0.091460854 -0.07730281 -0.02879181 -0.2238282 0.28629443 -0.053322148
-0.2643151 0.10287132 -0.16330367 0.007258924 -0.22951001 -0.21400534 -0.24123871 -0.28801528
0.19258755 -0.10406889 0.31176975 -0.29329425 0.11468965 -0.2576645 -0.25895864 0.07240597

static_variable_selection.single_variable_grns.encoder_length.gate_norm.glu.fc.bias f4 [46]
00000000: ea34 0735 ffd2 0c35 8f98 0235 5f3e d935
00000010: 332a 5234 82e9 19b6 495b 1fb5 0e93 e3b5
00000020: 2214 8135 1fd7 bd34 8592 4db5 b1f0 4535
00000030: 346e b0b3 4f85 b934 6b84 cf35 7753 a635
00000040: 2dbe 8335 7da8 bbb5 fc69 dd32 6f12 6eb6
00000050: 862e 4133 152b 29b5 c84a f7b4 965a 4934
00000060: aa89 91b2 9a8c 32b4 7669 70b4 a856 dcb3
00000070: 6ddc b134 98bb 5e33 1c80 ad34 79ec 3633
00000080: a65a e3b3 83bf d7b3 b828 8eb4 db7d 53b3
00000090: 9099 22b1 047c f633 21bc 10b4 5b80 4334
000000a0: 51df dfb3 3fd2 68b1 0045 d5b5 b593 b132
000000b0: 4c0c 54b4 9dc7 f7b3
5.036842e-07 5.2461104e-07 4.8650776e-07 1.6185912e-06 1.9573126e-07 -2.2934696e-06 -5.9364953e-07 -1.6955617e-06
9.617108e-07 3.5360515e-07 -7.6581665e-07 7.373847e-07 -8.2156845e-08 3.455593e-07 1.546124e-06 1.2392255e-06
9.815609e-07 -1.3981622e-06 2.5775982e-08 -3.5475493e-06 4.4978627e-08 -6.30201e-07 -4.6061746e-07 1.8752539e-07
-1.6942824e-08 -1.6628692e-07 -2.2390108e-07 -1.0260311e-07 3.31292e-07 5.185902e-08 3.2316973e-07 4.2590248e-08
-1.0587e-07 -1.00465535e-07 -2.6479188e-07 -4.924173e-08 -2.3661393e-09 1.1477826e-07 -1.3479486e-07 1.8207486e-07
-1.0424868e-07 -3.3879954e-09 -1.5889818e-06 2.0672681e-08 -1.9748512e-07 -1.1538143e-07

static_variable_selection.single_variable_grns.encoder_length.gate_norm.add_norm.norm.weight f4 [23]
00000000: 0000 803f 0000 803f 0000 803f 0000 803f
00000010: 0000 803f 1e00 803f 0000 803f 1e00 803f
00000020: 0000 803f 0000 803f 0400 803f c1ff 7f3f
00000030: 0000 803f e2ff 7f3f 0000 803f 1e00 803f
00000040: 3c00 803f d7ff 7f3f 0000 803f 88ff 7f3f
00000050: 0000 803f e2ff 7f3f e2ff 7f3f
1.0 1.0 1.0 1.0 1.0 1.0000036 1.0 1.0000036
1.0 1.0 1.0000005 0.99999624 1.0 0.9999982 1.0 1.0000036
1.0000072 0.99999756 1.0 0.99999285 1.0 0.9999982 0.9999982

static_variable_selection.single_variable_grns.encoder_length.gate_norm.add_norm.norm.bias f4 [23]
00000000: 771d 9a35 2a4e d635 eca2 9435 757a 5a36
00000010: 76f9 1535 bdb7 afb6 de7a 95b5 76e5 2cb6
00000020: a249 1b36 77e9 2b35 ecd7 06b6 1ab2 0e36
00000030: 1ff3 5eb4 c4db 9135 2ebc 9036 7c73 0936
00000040: bb22 5c36 76b0 1cb6 4254 e633 fd42 04b7
00000050: cf07 4534 7881 a3b5 00b9 55b5
1.148247e-06 1.5966991e-06 1.1074276e-06 3.255581e-06 5.586984e-07 -5.2367964e-06 -1.1137124e-06 -2.576356e-06
2.313966e-06 6.40422e-07 -2.009324e-06 2.1263318e-06 -2.0763808e-07 1.0867302e-06 4.3134414e-06 2.0481812e-06
3.280277e-06 -2.3348525e-06 1.0725536e-07 -7.88341e-06 1.8349895e-07 -1.2182127e-06 -7.9617894e-07

static_variable_selection.single_variable_grns.processed_correction_value_center.resample_norm.mask f4 [23]
00000000: 94c7 3535 ce34 0236 1cfb 1536 2ae9 d736
00000010: 1b05 db35 368f 1bb7 b86d c0b5 eea6 38b6
00000020: 79fc ce35 84a8 3634 f836 1fb5 7d09 1f35
00000030: ef58 82b2 9b6c 34b4 2ee2 78b4 b375 ac34
00000040: 46f5 0136 f629 33b6 378f 8c34 09ec 9fb6
00000050: ae3f 8bb1 1298 df35 7c8d 2736
6.771818e-07 1.9402246e-06 2.2348895e-06 6.434643e-06 1.6318257e-06 -9.272064e-06 -1.4337047e-06 -2.7515302e-06
1.5421675e-06 1.7011376e-07 -5.9312106e-07 5.9245923e-07 -1.5174434e-08 -1.6803317e-07 -2.3179084e-07 3.2123134e-07
1.9365266e-06 -2.6697503e-06 2.6181235e-07 -4.7660474e-06 -4.052672e-09 1.6659053e-06 2.4967294e-06

static_variable_selection.single_variable_grns.processed_correction_value_center.resample_norm.norm.weight f4 [23]
00000000: 0000 803f 1e00 803f 1e00 803f 4100 803f
00000010: 1e00 803f 2eff 7f3f e2ff 7f3f e2ff 7f3f
00000020: 0000 803f 0000 803f 0000 803f e2ff 7f3f
00000030: 0000 803f e2ff 7f3f a6ff 7f3f e2ff 7f3f
00000040: 0000 803f e0ff 7f3f 0000 803f 0000 803f
00000050: 0000 803f 2800 803f 3c00 803f
1.0 1.0000036 1.0000036 1.0000077 1.0000036 0.9999875 0.9999982 0.9999982
1.0 1.0 1.0 0.9999982 1.0 0.9999982 0.99999464 0.9999982
1.0 0.9999981 1.0 1.0 1.0 1.0000048 1.0000072

static_variable_selection.single_variable_grns.processed_correction_value_center.resample_norm.norm.bias f4 [23]
00000000: e104 0936 b1cd 5536 e642 2a36 8a98 d936
00000010: 517d d435 8fab 1eb7 e92a eeb5 65ef 9bb6
00000020: 3978 9436 d560 9135 2ab9 7fb6 068a 7d36
00000030: 67f9 14b5 883d de35 d5ff 0137 9fe1 6e36
00000040: 9ebf ca36 5ab8 8eb6 3d1f dd34 313d 76b7
00000050: 2947 6733 c5d0 49b6 8789 21b6
2.041743e-06 3.1859201e-06 2.5370914e-06 6.484862e-06 1.5831703e-06 -9.457478e-06 -1.774487e-06 -4.647229e-06
4.4247395e-06 1.0831524e-06 -3.810574e-06 3.7780278e-06 -5.5497225e-07 1.6558197e-06 7.748565e-06 3.5596092e-06
6.0423763e-06 -4.253391e-06 4.1187187e-07 -1.467699e-05 5.38486e-08 -3.0072854e-06 -2.407092e-06

static_variable_selection.single_variable_grns.processed_correction_value_center.fc1.weight f4 [11, 11]
00000000: 1877 813e 302e e43c 5788 533e 8ead c1be
00000010: a857 473f 9538 06bf e5c5 263e ebde 94bc
00000020: e3c8 783f 09f3 38be 10f8 bcbe d655 003f
00000030: 3773 383f e60d c6bd 3b45 8a3d 7b54 64be
00000040: d813 0dbf 4170 73bf d2b9 63be cf76 85be
00000050: 2446 16bf add6 d23e a779 d4be 6372 4c3e
00000060: 7eea 6b3e a3f7 f53e 93f7 dd3e d9d9 44be
00000070: 0917 e53e 6140 093f 8815 62be d72d 0c3e
00000080: 9df2 b1be d6d4 333f dad4 1bbe e5ae 32be
00000090: 17d3 023f 803f 31be c310 18bf 8093 e4bd
000000a0: 00bf 123f 22ee e63c d3c3 fdbe ed2a 5e3c
000000b0: 319f 023f cafa 65be 4a2b ac3e 6954 da3d
000000c0: 3bce 303f 4fd1 bebe f197 783f 2d06 6cbe
000000d0: 58fd 2d3f b046 e03e 4847 3bbc ff67 c83e
000000e0: 32fc 50be ad0b bfbd 46b1 4bbf 8d03 063f
000000f0: 913c 84bd 9459 70be 0cf1 d23d 4153 0e3d
00000100: 0ef8 2bbf 1d8a a2be 9a71 72be 4a0c 523e
00000110: b820 4cbd 4ea0 313f 5f9e eebe e24b 0a3e
00000120: 0e57 08be 8b99 2e3f 63ce 843e 3ca6 4bbe
00000130: b3ec 963d a08f 43bf b610 ba3e ea1d 863e
00000140: 384c 1d3e 96e4 87be cdb7 953d d771 0f3e
00000150: 83a4 af3c a7c3 ae3d e124 b2be 9ec6 073c
00000160: 7323 4bbe 71dc 863d bc94 883e b98a 643c
00000170: d8fb 2d3f acbc abbe 2d82 cb3e 4240 273e
00000180: 111e 223d 4a46 89bf a76f 3b3d 5a2c 2bbf
00000190: 64c1 923e 96ae e03e ce23 d43e 536b 693d
000001a0: 9ef7 86be a732 6b3a cc86 a2be af0a 6abd
000001b0: bf4d 483f fca9 56bf a8d5 cb3e 2d89 943d
000001c0: c96f f1be 9b5a d7be e50c 253f 5485 1fbe
000001d0: 4e82 2d3f 22e7 06be 2a12 9f3e 7387 473f
000001e0: 14d8 41be
0.25286174 0.027854055 0.20657478 -0.37827724 0.7786813 -0.5243009 0.16286428 -0.018172702
0.9718153 -0.1806146 -0.36908007 0.50130975 0.72050804 -0.0967062 0.06751486 -0.22297852
-0.55108404 -0.9509316 -0.22238854 -0.26067206 -0.58700776 0.4117941 -0.41499063 0.1996551
0.2303867 0.48040494 0.43352947 -0.19223727 0.44744137 0.5361386 -0.22078526 0.13689362
-0.34755412 0.70246637 -0.15217915 -0.1744953 0.5110335 -0.1730938 -0.59400576 -0.11160946
0.5732269 0.028189722 -0.49563465 0.013560039 0.51024157 -0.2245895 0.33626777 0.10660631
0.6906468 -0.37269065 0.97106844 -0.23049231 0.67964697 0.4380393 -0.011430569 0.39141843
-0.20408705 -0.09328399 -0.7956737 0.5234917 -0.064568646 -0.23471671 0.10299882 0.034747366
-0.67175376 -0.31745997 -0.23676148 0.205125 -0.04983589 0.6938523 -0.46605203 0.1350551
-0.13314459 0.6820304 0.2593871 -0.19887632 0.073693655 -0.7639103 0.36340874 0.26194698
0.15361106 -0.26541585 0.07310448 0.1400827 0.02144075 0.085334115 -0.3479376 0.0082871
-0.19837742 0.065850146 0.26675975 0.01394909 0.6796241 -0.33542383 0.39747754 0.16333106
0.039579455 -1.0724576 0.045760777 -0.6686455 0.2866317 0.43883198 0.41433567 0.056987118
-0.26360792 0.00089720864 -0.31743467 -0.057139095 0.7824363 -0.83853126 0.39811444 0.07252727
-0.47155598 -0.42061314 0.644728 -0.15578204 0.67776954 -0.13174108 0.31068546 0.77941054
-0.18930084

static_variable_selection.single_variable_grns.processed_correction_value_center.fc1.bias f4 [11]
00000000: cf7c 1536 1038 3cb6 ba80 d335 95d1 1436
00000010: 5c7d a8b0 5ea6 93b6 7c91 4336 36b1 fb35
00000020: b137 2136 58b5 00b7 0d8e 3936
2.2275378e-06 -2.8046816e-06 1.5758189e-06 2.2175711e-06 -1.2259238e-09 -4.400309e-06 2.9141947e-06 1.8752532e-06
2.4023286e-06 -7.671617e-06 2.7649833e-06

static_variable_selection.single_variable_grns.processed_correction_value_center.fc2.weight f4 [11, 11]
00000000: f0d1 4bbd bd83 63be 55d7 83be 075a 06be
00000010: 3cb7 2cbf 0451 7fbe aefb f63d d8cc babb
00000020: 3a9b e5be 5f98 d3bc 7f93 8cbf 1fcd 283f
00000030: 20ad 903d 0fbb 92be 19d4 94bc 0a42 ba3d
00000040: dd80 05be 4a61 c13d c410 26bd 8a78 17bd
00000050: 7602 5d3e 8024 14be b863 8bbc b515 003f
00000060: 2feb 0a3e 1385 4ebe 3a0e 28bf 6e4a 153e
00000070: 29e6 d0bd a2e3 bcbd 464b 0bbf bc61 273f
00000080: 67f1 1dbf 4679 fdbe 9a1f da3e 1cb2 963e
00000090: db8a d9be 0a31 f93e 6fe8 5dbd de03 203f
000000a0: 8035 11be 1407 3fbf bc51 6fbe 802f 053e
000000b0: 1cf5 d53c 845a 003e e809 ccbe 3ac0 c0bd
000000c0: 03aa 8e3e 8a65 33bf 70d9 a4be 8ef6 7bbe
000000d0: 777a 003f db2e 3bbf ef0d df3e f7ea bcbe
000000e0: 7836 18bf 4b7a c93e 864c b8be 8b87 f53d
000000f0: dbbe d53d c756 6cbe 8243 cabc 096a e5be
00000100: d80d 26bc 6ae8 453f 6637 08bd 400e 45be
00000110: 1bbf e1be 5a34 5bbd aa76 b23d 296a 81bd
00000120: be41 2b3e 8cf7 8f3e 53ac a6be a288 bcbe
00000130: 8e09 8f3e 011d 65be dcac 463e a004 ed3d
00000140: a02b ce3e 35a7 edbe 4d4c f6be c33f 4c3e
00000150: be49 fe3e 2b28 c03c a3a0 e93e 51f5 e83e
00000160: c393 0d3d b11d 953e d7bb 16bf c12b 15bf
00000170: 1641 193e e26b ebbd ae00 43bd 0ab7 d1be
00000180: 3d29 31bf 2742 443c a69b a53e 1f4a b53e
00000190: ddd7 8bbe b5c4 7dbf b4cb 503e 2c95 b9be
000001a0: 6b10 213e bce8 33bf 918c 833e 7271 c13e
000001b0: 3855 a93f 1449 adbf 8baf 9cbe 49e6 2cbe
000001c0: bb89 563f c34a 0ebd d7bf a5be 4689 75bf
000001d0: 6c87 0b3d 3627 163e 952c 973c 33ef e4be
000001e0: 24bf bfbd
-0.04976076 -0.22218223 -0.25750223 -0.1312028 -0.67467093 -0.24933249 0.12059723 -0.005700689
-0.4484499 -0.025829492 -1.0982512 0.6593799 0.07064271 -0.2865834 -0.018167542 0.09094627
-0.13037439 0.094423845 -0.040543333 -0.03698019 0.2158297 -0.14467049 -0.017015323 0.5003312
0.13566278 -0.20167951 -0.6564671 0.14579174 -0.102001496 -0.09223105 -0.54411733 0.65383506
-0.61696476 -0.49506587 0.42602235 0.29432762 -0.4248875 0.48670226 -0.054176744 0.625059
-0.14180565 -0.74620175 -0.23371023 0.13006401 0.026117854 0.12534529 -0.39851308 -0.09411664
0.27864084 -0.7007681 -0.32197142 -0.24605772 0.50186867 -0.7311837 0.43565318 -0.36898014
-0.5945811 0.39351115 -0.35995883 0.119887434 0.104367934 -0.23079978 -0.024690393 -0.4480746
-0.010135137 0.7730776 -0.033255957 -0.19243717 -0.44091114 -0.053516723 0.087140396 -0.063190766
0.16724297 0.2811855 -0.32553348 -0.36822993 0.27936977 -0.22374345 0.19401878 0.11573148
0.40267658 -0.4641663 -0.48105088 0.19946198 0.49665636 0.023456654 0.4563037 0.45499662
0.034564745 0.29124215 -0.5888037 -0.5826989 0.14966235 -0.114951864 -0.04760807 -0.4095996
-0.6920355 0.011978663 0.32345313 0.35408112 -0.27313128 -0.99128276 0.20390207 -0.36246622
0.15728919 -0.70277 0.2569318 0.37781864 1.3229132 -1.3537927 -0.3060268 -0.16884722
0.8380391 -0.034739267 -0.32372925 -0.9591259 0.034064695 0.14663395 0.018453876 -0.44713745
-0.09362629

static_variable_selection.single_variable_grns.processed_correction_value_center.fc2.bias f4 [11]
00000000: 7e35 3436 3836 a036 e8ad 62b6 072f 17b6
00000010: 568e 8135 2e07 4ab5 e2a7 4436 f3d9 7c35
00000020: 24db 21b6 34a3 6cb6 d38e 0836
2.6853227e-06 4.7746835e-06 -3.377785e-06 -2.2528127e-06 9.652674e-07 -7.526131e-07 2.9303997e-06 9.4194473e-07
-2.4118426e-06 -3.5261737e-06 2.0348714e-06

static_variable_selection.single_variable_grns.processed_correction_value_center.gate_norm.glu.fc.weight f4 [46, 11]
00000000: 3a41 9a3e cfa5 bf3d b0ca 01bd 990c 81be
00000010: b524 f83d aebf dc3d b73c 043e 9bdb c23d
00000020: 243f 633e 1f2d 34be 8f37 9c3e 2187 9c3e
00000030: 31c4 c93c f514 353e acf5 96be fc71 5d3e
00000040: 0a0a f9bd fc98 e8bd 0442 4c3e 71eb 6dbe
00000050: 6974 003d e1c4 8dbe b18e 8f3d c97a 0c3e
00000060: 6648 a33e 95de e33d 3f1b 0fbe 4c8e 7bbe
00000070: 9bb3 5d3e 9e5d 9d3e 9bf7 86be 2b4f 013e
00000080: 7fce a3be 6530 c43d da1b cd3b b4b1 1a3d
00000090: 25e1 9fbd 33fb 763e 2ec2 2dbe a987 0fbe
000000a0: f342 bf3d e89a 8d3d cbdf b5bd 940d 70bc
000000b0: 6eef 9dbe 5a30 963e 364d cf3d fdf8 3f3e
000000c0: 95af 853e 84e5 68be 1f96 f9bd 9b78 6cbc
000000d0: ff4f 80be 03d9 06be a04e ca3c f310 20bd
000000e0: db60 7ebe 3d5d 793d 401b 69be 2277 893e
000000f0: 5f1f 21be e71e 813e 1236 093e ef2d 6d3e
00000100: a38b 33be e755 713d de14 4abd 1373 783e
00000110: 94cd e13d b3be 83ba f25f 033d 468f 493e
00000120: 5853 95be 86c2 b7bd 8b39 10bd 9545 4ebe
00000130: 312e a53d 7275 11be 3271 2fbe f734 87be
00000140: 745b edbc f342 52be c2a9 9dbd 83ec cb3d
00000150: 1b5c d7bd d99d 5f3e 6e4d 283e f2ea 853e
00000160: 9331 aebd dee7 973e dc49 013e e919 8fbd
00000170: b01a a1be a1fd a2be 53e0 8cbe 43a5 e73d
00000180: a257 5ebe bdbb 52bd 07c4 443e 6522 ea3d
00000190: 67bb 55be ba0b 44be aee7 f13d 3f01 34be
000001a0: 78cb 24be 5b82 6b3e 75bf 2d3e e977 50be
000001b0: b590 9d3d 2a8c b8bd 36ff 8bbe 5acc d63c
000001c0: 659e 773e 91fb 303e 605f d23d a77e 52bc
000001d0: 0d75 2c3e 9da0 39bd 2c38 86be 5e51 6c3e
000001e0: f137 b73c dd1f 53be 7e1f 69be a267 fabd
000001f0: 0125 62bd f5ae c6bd e12e 29be bcaf c53d
00000200: c109 63be ac91 373d cc39 0cbe 0bd7 9d3e
00000210: 6f7d 9f3e 22be f03d 919e 633d b279 b83d
00000220: 04fb a0bd cca0 79be 1059 9dbe 96f1 76be
00000230: b3e2 25bc 1e6c 563e b56a 00be c186 f53d
00000240: ff7d 11bd 156b a03e ebce 0e3e 6c46 f6bc
00000250: b2a2 043e 5b71 ec3d fe1f 43be 8ee9 08bd
00000260: 04e6 75be 6ca4 a13e fefb a03b 6691 84bd
00000270: f142 103e b721 363e ddf8 60be 206e 243e
00000280: 4310 863e 00c0 36be f8cf 52be 45d6 9abe
00000290: 6d98 2c3d e803 db3d 3875 24be 22f7 9e3e
000002a0: 5510 2abe 82c3 833e 623f 863e ec9f 943e
000002b0: 5f1b 853e 963a 5dbe ce79 c1bd 37f9 93be
000002c0: d342 9d3d 3586 99ba df28 a3be 1fd5 823e
000002d0: 8274 203e ff29 853c c1c1 653e a262 79bd
000002e0: c755 82be db8f 6ebd 64c5 9c3d f54f 973e
000002f0: eb9a 66be a4e6 563e 98c4 883e 87ea 0e3e
00000300: 6ef9 903d 0a8e a43e 79f2 91bd 5f10 1abe
00000310: 553f 943b 9ab9 96be 3f6c 3fbd 45d0 9abe
00000320: c95b bc3c 4ab9 00bc ea1b 22be 4105 473e
00000330: 037d a0be beaf f93d bbf3 f2bc 58be f5bd
00000340: e6ab 8c3e d130 d6bd ede7 99be d097 983e
00000350: 7964 613e 870a bebd 21e7 b63d a26e 6fbe
00000360: 37fb a7bd 697d 58bd 620d 113e 2ad9 60be
00000370: 41ef b3ba 69b3 c0bd 4722 4f3e 1111 aa3d
00000380: c6d2 58be 302a 6a3e 3b92 44be 29c8 0fbe
00000390: e5c3 503d e0e2 cabd 153b f23c aa27 603e
000003a0: 98d0 0dbd 7dda d83d 3333 813e dc90 2fbd
000003b0: 2057 cc3d f01b 11bd 9830 89be 41da 883e
000003c0: 132c a0be 45d3 8a3e 11bc 68bd 7813 3abd
000003d0: 2065 6d3e 73dc f73c d507 51bb 98e0 20be
000003e0: 3ef3 1bbd d7d2 463e 065d 933d 7b73 3b3e
000003f0: 04ed 743c de0f 99be 8810 9abe 0018 873e
0.3012789 0.09357797 -0.03168744 -0.25204924 0.12116376 0.107787475 0.12913786 0.09514543
0.22192055 -0.17595337 0.30511138 0.30571845 0.024629684 0.17683776 -0.29484308 0.21625513
-0.12160118 -0.113573045 0.19947058 -0.23234345 0.031361017 -0.2768927 0.07009638 0.13718714
0.31891173 0.111264385 -0.13975237 -0.24566 0.21650545 0.30735487 -0.26360783 0.12627856
-0.31993482 0.09579543 0.0062594237 0.037767127 -0.07806615 0.24119262 -0.16968605 -0.14016594
0.093389414 0.06914312 -0.08880576 -0.014651675 -0.30846733 0.29333764 0.10122149 0.18747325
0.2611052 -0.22743803 -0.121868365 -0.014433051 -0.25061032 -0.13168721 0.024695694 -0.039078664
-0.24841635 0.060879935 -0.22764301 0.26848704 -0.15734623 0.2521889 0.13399532 0.23162054
-0.17533736 0.058919813 -0.049336307 0.24262647 0.11025539 -0.001005134 0.032073922 0.1968356
-0.2916515 -0.08972649 -0.035211127 -0.20143731 0.08065451 -0.14204958 -0.17133024 -0.26407596
-0.028974272 -0.20533352 -0.07698394 0.099572204 -0.105156146 0.21837558 0.16435787 0.26155812
-0.08505549 0.29669088 0.12625831 -0.06987364 -0.31465673 -0.31834128 -0.27514896 0.11310818
-0.21713117 -0.051448572 0.19215403 0.114323415 -0.2087227 -0.19145098 0.118117675 -0.175786
-0.16093242 0.22998945 0.16967566 -0.20358242 0.07693616 -0.09011109 -0.27343148 0.02622049
0.24181516 0.17283465 0.102720976 -0.012847579 0.16841526 -0.04531919 -0.2621473 0.23077914
0.022365542 -0.20617624 -0.2276592 -0.12226798 -0.05521107 -0.09701339 -0.16521789 0.09652659
-0.2217169 0.044816658 -0.13693923 0.30828127 0.31150386 0.11755015 0.055571143 0.090075865
-0.078603774 -0.24377745 -0.30732012 -0.24115595 -0.01012485 0.20939681 -0.12540706 0.11988593
-0.03552055 0.31331697 0.1394612 -0.030062877 0.12952688 0.11545058 -0.19055173 -0.03342586
-0.24013525 0.31570756 0.0049128523 -0.06473045 0.14088036 0.17786299 -0.21969934 0.16057634
0.26184282 -0.1784668 -0.20587146 -0.302416 0.042137552 0.106941044 -0.1606034 0.31047922
-0.16607793 0.25735098 0.26220232 0.2902826 0.25997445 -0.2160438 -0.094470605 -0.28901073
0.07678761 -0.001171297 -0.3186712 0.25553223 0.15669444 0.016255377 0.22437192 -0.06088508
-0.25456068 -0.05824266 0.07654837 0.2955319 -0.22520034 0.2098642 0.2671249 0.13956653
0.07078825 0.32139617 -0.07126326 -0.15045308 0.0045241513 -0.29438478 -0.04673409 -0.30237022
0.022992985 -0.007856676 -0.15830961 0.19435598 -0.31345376 0.12191723 -0.029657235 -0.11999196
0.27474898 -0.1045853 -0.30059758 0.29803324 0.22010984 -0.09279352 0.08930803 -0.23382047
-0.08202212 -0.052853975 0.14165261 -0.21957842 -0.001372792 -0.0940922 0.2022792 0.083040364
-0.21174154 0.22867656 -0.19196407 -0.14041199 0.05096807 -0.09906554 0.029569188 0.2189013
-0.03462276 0.10588548 0.25234374 -0.042862758 0.09977555 -0.035427034 -0.26794887 0.26729015
-0.31283626 0.2711431 -0.05681998 -0.045428723 0.23183107 0.030256486 -0.0031895537 -0.15710676
-0.03807377 0.19416367 0.07195477 0.18305771 0.014949087 -0.29894918 -0.30090737 0.26385498

static_variable_selection.single_variable_grns.processed_correction_value_center.gate_norm.glu.fc.bias f4 [46]
00000000: 2f71 6c35 03e0 dc35 19cb 9135 6d48 4736
00000010: 12ce 5c35 bd51 89b6 aef8 9ab5 6a6e 04b6
00000020: 6086 cd35 7d8b 1a35 2027 1db6 2092 0f36
00000030: 685a 8ab4 1ba4 1f35 99ef 2736 9a7d 1036
00000040: 138a 4536 2ac0 f9b5 dabc 7434 c6bd 25b7
00000050: 420b d432 79a4 a3b5 ba2a aab5 28ce a1b4
00000060: fdd2 0334 7629 f534 a856 a7b4 8af4 fd33
00000070: 02a0 df35 07c9 1bb3 450a 4a33 c69c 8535
00000080: 9053 0033 6572 abb4 8f12 9bb4 6d9f 74b3
00000090: 31a1 43b4 e9e5 f7b4 9dfb a1b4 b7d6 20b5
000000a0: c9f6 1835 0b26 2630 ebd3 4ab5 f736 adb1
000000b0: d161 1435 01b6 69b4
8.8081555e-07 1.6456473e-06 1.0862451e-06 2.9695468e-06 8.225626e-07 -4.0924338e-06 -1.154627e-06 -1.9733802e-06
1.5312798e-06 5.757245e-07 -2.3417597e-06 2.1393716e-06 -2.5770282e-07 5.947092e-07 2.5024403e-06 2.1530782e-06
2.9435657e-06 -1.8607873e-06 2.2792975e-07 -9.8789515e-06 2.4685168e-08 -1.2192314e-06 -1.2678422e-06 -3.0138585e-07
1.2277083e-07 4.5664973e-07 -3.1169225e-07 1.1825712e-07 1.6661363e-06 -3.6271583e-08 4.704113e-08 9.954899e-07
2.9878322e-08 -3.1934465e-07 -2.8884503e-07 -5.6955674e-08 -1.8219431e-07 -4.6174617e-07 -3.017166e-07 -5.9917096e-07
5.698353e-07 6.044451e-10 -7.5559245e-07 -5.0412114e-09 5.527664e-07 -2.1766029e-07

static_variable_selection.single_variable_grns.processed_correction_value_center.gate_norm.add_norm.norm.weight f4 [23]
00000000: 0000 803f 1e00 803f 1e00 803f 3c00 803f
00000010: 0700 803f 54ff 7f3f e2ff 7f3f e0ff 7f3f
00000020: 1d00 803f 0000 803f 0000 803f e2ff 7f3f
00000030: 0000 803f e2ff 7f3f a3ff 7f3f e2ff 7f3f
00000040: e2ff 7f3f e2ff 7f3f 0000 803f c4ff 7f3f
00000050: 0000 803f 1e00 803f 1e00 803f
1.0 1.0000036 1.0000036 1.0000072 1.0000008 0.99998975 0.9999982 0.9999981
1.0000035 1.0 1.0 0.9999982 1.0 0.9999982 0.99999446 0.9999982
0.9999982 0.9999982 1.0 0.9999964 1.0 1.0000036 1.0000036

static_variable_selection.single_variable_grns.processed_correction_value_center.gate_norm.add_norm.norm.bias f4 [23]
00000000: 7fa4 1536 b52a 4f36 e536 0f36 43b5 d236
00000010: badc 9135 ca75 29b7 1894 10b6 27ba a6b6
00000020: fed5 9536 6db8 a535 1227 82b6 6ec3 8936
00000030: 9a37 d9b4 00c1 0c36 f488 0b37 02b8 8436
00000040: 5af8 d436 560c 97b6 751a 5734 8161 7fb7
00000050: 152d b734 7a5e 1db6 e064 cfb5
2.229848e-06 3.0870262e-06 2.1340613e-06 6.2795893e-06 1.0867582e-06 -1.010061e-05 -2.1543874e-06 -4.9688565e-06
4.465458e-06 1.2347133e-06 -3.8788503e-06 4.105669e-06 -4.0459855e-07 2.0973966e-06 8.3169325e-06 3.955328e-06
6.3470043e-06 -4.501587e-06 2.003306e-07 -1.5221886e-05 3.4119208e-07 -2.3449816e-06 -1.545206e-06

static_variable_selection.single_variable_grns.processed_correction_value_scale.resample_norm.mask f4 [23]
00000000: 2f5e 17b7 d20b ecb6 1395 e6b5 6721 7536
00000010: 54e2 cf35 ad0a f9b6 7f6d 9336 1262 9b37
00000020: a730 a9b7 77d5 c1b6 8bc6 4e36 c951 fe36
00000030: 945c 98b3 4e6a 7eb6 dba3 e035 8b69 3237
00000040: 89b7 c437 c3a0 a4b7 57bf 99b4 5edf 3237
00000050: 70b6 dab5 b927 a4b5 4d58 f9b6
-9.02223e-06 -7.034724e-06 -1.7179722e-06 3.6527288e-06 1.5488572e-06 -7.422021e-06 4.3936884e-06 1.8523107e-05
-2.0169025e-05 -5.776699e-06 3.081196e-06 7.579311e-06 -7.0948914e-08 -3.7910827e-06 1.6736989e-06 1.06342e-05
2.3450486e-05 -1.9625184e-05 -2.863769e-07 1.06616335e-05 -1.6295362e-06 -1.2230513e-06 -7.431058e-06

static_variable_selection.single_variable_grns.processed_correction_value_scale.resample_norm.norm.weight f4 [23]
00000000: 01ff 7f3f 2eff 7f3f c6ff 7f3f 5600 803f
00000010: 1e00 803f d4fe 7f3f 5600 803f 4a01 803f
00000020: a8fd 7f3f 6bff 7f3f 2200 803f 9600 803f
00000030: 0000 803f 8cff 7f3f 3c00 803f d200 803f
00000040: b201 803f 8afd 7f3f 0000 803f 9600 803f
00000050: e2ff 7f3f c4ff 7f3f 2cff 7f3f
0.9999848 0.9999875 0.99999654 1.0000103 1.0000036 0.9999821 1.0000103 1.0000393
0.99996424 0.9999911 1.000004 1.0000179 1.0 0.9999931 1.0000072 1.000025
1.0000517 0.99996245 1.0 1.0000179 0.9999982 0.9999964 0.99998736

static_variable_selection.single_variable_grns.processed_correction_value_scale.resample_norm.norm.bias f4 [23]
00000000: 9b3c 3f37 4473 8337 c49f 3537 4781 0538
00000010: 0488 a936 7f46 59b8 4a0e 37b7 b649 d2b7
00000020: f5b5 c037 27a6 d936 f6eb a6b7 0439 ac37
00000030: dae4 14b6 066d 3437 6e0a 3138 8529 a437
00000040: 2098 0438 061d c6b7 8822 4835 7f67 a2b8
00000050: 7853 fb35 92af 4ab7 5edf 0db7
1.1398598e-05 1.5670092e-05 1.0825639e-05 3.183007e-05 5.052427e-06 -5.1802486e-05 -1.0910977e-05 -2.5068275e-05
2.2972914e-05 6.4864466e-06 -1.989862e-05 2.0530548e-05 -2.2186928e-06 1.075422e-05 4.2209802e-05 1.9569658e-05
3.161293e-05 -2.3616954e-05 7.4556056e-07 -7.7440396e-05 1.872525e-06 -1.2081016e-05 -8.456262e-06

static_variable_selection.single_variable_grns.processed_correction_value_scale.fc1.weight f4 [11, 11]
00000000: ad47 f0bd 597a 79be 8588 f43c a61b 573f
00000010: 47ec 2e3f 004d 58be 7c3e 31bf 73bf 153c
00000020: 269d 9cbe 36c1 a3be 3b5a 483e 27af 033e
00000030: 4d78 7dbe af3a 67be 5b2e 2dbe 2b85 903c
00000040: 9527 1ebe 5fb7 373e c236 adbe 3252 a9be
00000050: 9bcd 45be fe3b 11bd 0c82 3bbc 073b f33c
00000060: d969 ae3e 8399 8ebd 59bd 313f 69d8 fabc
00000070: 70fc eabd f78f f3bc 7fa1 853f 9200 6a3d
00000080: 885a 6cbc eba4 fc3b d509 273f f581 f6be
00000090: 3378 333e 8bcb 403f 574a d03d 5d73 60be
000000a0: b763 603d 1a22 023f e204 dd3e 57aa 1abe
000000b0: 7a90 a1be e12a cfbd 991d 293e 3f47 ff3e
000000c0: 59a9 103d e8d9 093f 41e6 d1bd f164 663e
000000d0: 773a 983e 3226 19be e99c 1a3e 9c38 8ebe
000000e0: 2abc 3ebe 1064 f6be 86a2 81bd f74d 12bd
000000f0: 35a7 5dbd f422 f13d 0e62 19bf cca2 4ebf
00000100: 1e8d a7bf 610a 853f aef3 67be e37e 92be
00000110: 2015 d1be 4db7 083e 8249 07be 1549 6e3f
00000120: 4f0e a03e b252 e73e 252a 1abf 5017 ec3c
00000130: 777a ccbd 6460 ab3e 6b16 10bf 3bff 013f
00000140: 2240 113e 9a6d ac3e 7a5e 853d 1bff a63d
00000150: 6443 4ebe e2d3 15bf 0dff a23e 9f40 ecbd
00000160: 2e21 be3e 56e8 19bf f2cc fabe f817 b43b
00000170: 5635 0cbf 5c17 413f 40ef 6f3e 7724 94be
00000180: d3cb a23c 24fc a53d b35c bbbb 00ce bdbc
00000190: f369 263f 5bb9 03bf ae43 aa3d 6bef b8bd
000001a0: ae36 cfbc f17c 713c a48d 043f cb48 fdbc
000001b0: 7737 09bd a630 383f aea7 1c3f d454 173e
000001c0: 9c95 07bf 0dd4 f8bc 2338 863d 7312 59be
000001d0: f1d1 2b3e 0d50 c93e 4687 3b3f 8333 f93e
000001e0: 3e4f 973d
-0.11732421 -0.24363078 0.029850254 0.84026563 0.6832928 -0.21123123 -0.6923597 0.009139883
-0.30588645 -0.31983346 0.1956567 0.12859784 -0.24752922 -0.2258098 -0.16912214 0.017641624
-0.15444787 0.17941044 -0.3383084 -0.33070523 -0.19316714 -0.035457604 -0.01144458 0.029691232
0.3406513 -0.06962874 0.69429547 -0.03062077 -0.1147393 -0.029731734 1.043991 0.05712945
-0.014425881 0.0077100894 0.6524938 -0.48146024 0.17526321 0.7531058 0.10170429 -0.21919008
0.054782595 0.50833285 0.43167788 -0.15104042 -0.3155554 -0.101156004 0.16515197 0.49859044
0.035317753 0.53848124 -0.102489956 0.22499444 0.29732105 -0.14955977 0.15098919 -0.27777565
-0.18626466 -0.48123217 -0.06329827 -0.035718884 -0.05411454 0.11774245 -0.59915245 -0.8071716
-1.308994 1.0393792 -0.2265155 -0.28612432 -0.4083643 0.13351174 -0.13211635 0.93080264
0.31260917 0.4518028 -0.6022056 0.02881971 -0.09984296 0.33471978 -0.5628421 0.50780076
0.14184621 0.3367737 0.065121606 0.08154126 -0.20142895 -0.5852643 0.31835213 -0.11535763
0.3713469 -0.6012014 -0.48984486 0.0054960214 -0.54768884 0.7542627 0.2343111 -0.2893407
0.019872582 0.08104733 -0.0057178377 -0.023169518 0.65005416 -0.51454705 0.0831369 -0.0903004
-0.025294628 0.014739261 0.51778626 -0.0309185 -0.03350016 0.7194923 0.6119336 0.14778453
-0.5296266 -0.030374551 0.06553676 -0.21198444 0.16779305 0.39318886 0.73253286 0.48672113
0.07388161

static_variable_selection.single_variable_grns.processed_correction_value_scale.fc1.bias f4 [11]
00000000: 877a c1b5 2b43 26b7 5ac3 b4b7 6374 2c36
00000010: 73ed dfb7 9009 efb7 7031 34b7 e568 d4b6
00000020: 05b8 9637 4d1e 8b36 676c c9b5
-1.4415281e-06 -9.91001e-06 -2.154864e-05 2.5697743e-06 -2.6694242e-05 -2.8495473e-05 -1.0740347e-05 -6.3303037e-06
1.7967084e-05 4.1460503e-06 -1.5007216e-06

static_variable_selection.single_variable_grns.processed_correction_value_scale.fc2.weight f4 [11, 11]
00000000: fb15 a2be 6f8d 3a3e f51b da3e 9987 14be
00000010: 82ea 893e a741 80bd 1597 a2be 17a0 d53c
00000020: d3ea 9fbe cdcc c63e 5fbd 3ebf 4140 b3be
00000030: 82c5 9d3d 0369 adbe 75b7 223d e12b b1bc
00000040: 9d44 753f c94c 67bd 30f9 c83e d37b bebe
00000050: f5f3 5b3d 3ea2 9dbd 7a5b 37bc d6a3 673e
00000060: a3ef 053f a837 adbe 6bf0 a8be da67 97bd
00000070: b41a cdbe 6f70 473c 41b7 75be a49d 353e
00000080: 8d2c 1d3f 3df5 f93e 952f 99be ca7c 9fbc
00000090: 8535 3a3d 1a88 96be 6067 cb3d fe5e 11bf
000000a0: 9ec3 8abd c0cc 5f3e e0dd d2be fc4d 623d
000000b0: 5b12 7ebe 89d9 99bd 40d3 363e 6ab7 ab3d
000000c0: c27f 41be 5ea0 9b3e 8fe2 0ebe e6d9 1b3f
000000d0: 4198 c33e cbb1 00be 1a68 ccbe bd9f 65be
000000e0: 7de9 43bd a896 27be 8267 0e3f 99ee c7be
000000f0: cfe8 93bf f5db 18be a15a 4abf 8d52 ea3e
00000100: d6c3 b43e 5d51 50bf 76cd 2cbf f5b5 92be
00000110: cb55 d23e 85dc bfbe f22c 1c3f e0f1 413f
00000120: 804f 163f 15f0 903d d120 41bf 7c7a 443e
00000130: 922f 8f3d 0bad cdbe e5e6 023f 59f6 8e3b
00000140: ca52 ae3e edc4 86bd 0531 02bf 536d 383f
00000150: 6007 c63e 38c5 0f3d 150f 92bc 8d20 c63d
00000160: bddb 313f 795a 0f3f 7545 dcbe 82ce 413f
00000170: 69cd e03e 12dd 083f dc83 6cbf c6bd 27bf
00000180: f6cd 3abe d818 8abe 326c f6be a488 7dbf
00000190: 1621 1dbf 95d8 b9be e6ad 033e 03c3 16bf
000001a0: eaef e4bc aa69 afbe a6a0 c93d b390 24bd
000001b0: fce1 88be dbc5 0a3d 1ca5 1f3f ca29 aebd
000001c0: 5dbe f03d a6bd 733e 683e eebe 5188 8bbe
000001d0: e30d dd3e 297b ac3d 6797 9a3e 3f57 923e
000001e0: 872f 683e
-0.31657395 0.18218015 0.42599455 -0.14504851 0.26936728 -0.06262522 -0.3175589 0.026077313
-0.31233844 0.38828126 -0.7450771 -0.3500996 0.07703687 -0.3386918 0.03972574 -0.021627368
0.9580782 -0.056469712 0.39252615 -0.37203845 0.053699452 -0.07696961 -0.011191243 0.22621092
0.5231878 -0.33831525 -0.32995924 -0.07392855 -0.40059435 0.012172802 -0.23995687 0.17735916
0.61396104 0.48819914 -0.29919115 -0.019468684 0.045461196 -0.29400712 0.099318266 -0.5678557
-0.06775592 0.2185545 -0.41184902 0.055250153 -0.2481169 -0.07512195 0.17854023 0.08384593
-0.18896392 0.30395788 -0.13953613 0.6087936 0.38202098 -0.12567823 -0.39923173 -0.22424217
-0.047830094 -0.16366065 0.5562669 -0.39049223 -1.1555423 -0.14927657 -0.7904454 0.45766106
0.3530566 -0.8137415 -0.6750101 -0.28654447 0.4108108 -0.3747293 0.6100608 0.75759697
0.5871506 0.07077042 -0.754407 0.19187349 0.06991495 -0.40171084 0.5113357 0.004362863
0.34047538 -0.06580529 -0.5085605 0.72041816 0.38677502 0.03510019 -0.017829457 0.09674177
0.6947592 0.55997425 -0.43021742 0.7570573 0.43906716 0.53462327 -0.923887 -0.65523946
-0.1824263 -0.2697208 -0.4812942 -0.9903662 -0.6137861 -0.3629805 0.12859306 -0.58891314
-0.027946431 -0.34260303 0.098450944 -0.04017706 -0.26734912 0.033880096 0.6236131 -0.085040644
0.11755059 0.23802814 -0.46531987 -0.2725244 0.43174657 0.084219284 0.30193636 0.28582188
0.2267438

static_variable_selection.single_variable_grns.processed_correction_value_scale.fc2.bias f4 [11]
00000000: b343 96b7 de75 d036 bf54 40b5 b424 32b7
00000010: 9629 1db7 643e c537 27a9 71b7 cb69 bdb7
00000020: 997b 1ab7 c7f0 3937 5c1d dab4
-1.7912918e-05 6.2126046e-06 -7.1648896e-07 -1.0618172e-05 -9.367612e-06 2.3513283e-05 -1.4404103e-05 -2.257982e-05
-9.207893e-06 1.108292e-05 -4.0627026e-07
