lightning_logs/lightning_logs/version_0/checkpoints/epoch=9-step=500.ckpt (torch, 929789 bytes, 1482 tensors)

prescalers.encoder_length.weight f4 [8, 1]
0.53418225 0.10802547 0.10634506 0.23373781 0.3906206 0.78929746 0.2717111 0.54978716
00000000: 2bc0 083f 753c dd3d 70cb d93d f758 6f3e
00000010: 6cff c73e 660f 4a3f b81d 8b3e dabe 0c3f

prescalers.encoder_length.bias f4 [8]
1.2735826 -2.915841 0.024915911 1.3809445 -0.7329048 0.42704025 0.58518076 0.22383347
00000000: c104 a33f 249d 3ac0 741c cc3c cac2 b03f
00000010: a69f 3bbf 05a5 da3e 68ce 153f 9a34 653e

prescalers.processed_correction_value_center.weight f4 [8, 1]
-0.37214908 0.50431657 -0.026458614 -0.6758205 0.4943543 0.06959568 -0.14320612 -0.9617145
00000000: 538a bebe e41a 013f bcbf d8bc 9302 2dbf
00000010: 021c fd3e 2e88 8e3d a0a4 12be ec32 76bf

prescalers.processed_correction_value_center.bias f4 [8]
-0.22390744 0.37049827 -0.12159313 0.4787049 -0.8896868 1.2077501 1.5755244 1.4440969
00000000: fe47 65be f3b1 bd3e d205 f9bd cf18 f53e
00000010: 84c2 63bf 8e97 9a3f c9aa c93f 2bd8 b83f

prescalers.processed_correction_value_scale.weight f4 [8, 1]
-0.118896365 -0.99653196 -0.39054477 -0.08111668 -0.921665 0.7873204 0.28472787 0.7587029
00000000: f07f f3bd b81c 7fbf 7cf5 c7be 8020 a6bd
00000010: 3df2 6bbf d48d 493f dac7 913e 5a3a 423f

prescalers.processed_correction_value_scale.bias f4 [8]
-0.2758075 -1.4763138 -0.22787043 0.4651047 -0.9820994 1.0389736 0.63485247 0.6055304
00000000: a436 8dbe daf7 bcbf de56 69be 3422 ee3e
00000010: de6a 7bbf 16fd 843f b185 223f 0a04 1b3f

prescalers.time_idx.weight f4 [8, 1]
0.95300174 -0.9752569 -0.908334 0.199525 0.9075333 0.5653695 -0.55034685 0.7174633
00000000: ecf7 733f 70aa 79bf 9488 68bf 4850 4c3e
00000010: 1a54 683f 0ebc 103f 88e3 0cbf adab 373f

prescalers.time_idx.bias f4 [8]
-3.5087843 2.4501147 1.735422 1.2388947 0.06898193 -0.17877233 -2.487922 -3.7439027
00000000: ec8f 60c0 aece 1c40 4f22 de3f 1a94 9e3f
00000010: 6646 8d3d 1810 37be 1d3a 1fc0 1a9c 6fc0

prescalers.relative_time_idx.weight f4 [8, 1]
-0.13155171 -0.68391687 0.42389944 0.28246123 -0.9750018 -0.7355963 0.71466714 -0.5242982
00000000: 7eb5 06be 2d15 2fbf 5909 d93e c29e 903e
00000010: b899 79bf 0a50 3cbf 6df4 363f 6838 06bf

prescalers.relative_time_idx.bias f4 [8]
3.2903526 -3.0968044 -2.6385953 4.935265 2.1457849 -0.60353184 -0.6488978 2.7059865
00000000: 2395 5240 0b32 46c0 bfde 28c0 b1ed 9d40
00000010: 8a54 0940 1081 1abf 2b1e 26bf e22e 2d40

prescalers.processed_broadcast_clock_bias.weight f4 [8, 1]
-0.012696762 0.59290135 0.23399283 0.20690091 0.19698976 0.8205074 0.5045235 -0.1636475
00000000: 1406 50bc 62c8 173f d19b 6f3e d5dd 533e
00000010: afb7 493e c60c 523f 7428 013f 3693 27be

prescalers.processed_broadcast_clock_bias.bias f4 [8]
-2.5728955 0.068761244 0.9156923 -0.62577784 -0.65180206 -1.1521391 -2.9860625 -0.93437433
00000000: 52aa 24c0 b2d2 8c3d d06a 6a3f fa32 20bf
00000010: 80dc 26bf 4b79 93bf a61b 3fc0 2833 6fbf

prescalers.processed_final_clock_bias.weight f4 [8, 1]
0.24667236 -0.6284458 0.8846419 -0.040238313 -0.42477357 -0.61323154 -0.299029 0.8724234
00000000: ae97 7c3e d3e1 20bf e477 623f eed0 24bd
00000010: ec7b d9be befc 1cbf 541a 99be 2457 5f3f

prescalers.processed_final_clock_bias.bias f4 [8]
-0.933807 -0.40227133 0.28550416 0.7778445 -0.12680016 -1.7028916 0.067892216 -0.3124653
00000000: fa0d 6fbf 82f6 cdbe 9a2d 923e d120 473f
00000010: e7d7 01be 5af8 d9bf 130b 8b3d 74fb 9fbe

prescalers.processed_correction_value.weight f4 [8, 1]
0.41962954 -0.48008382 -0.8828232 -0.9646692 0.7628221 0.30664796 0.284469 0.34425682
00000000: afd9 d63e 8ccd f5be b400 62bf 90f4 76bf
00000010: 4f48 433f f600 9d3e eca5 913e 6e42 b03e

prescalers.processed_correction_value.bias f4 [8]
1.6723571 0.64925617 1.2526078 -0.62747616 2.9792309 -0.7352683 1.2520372 -1.6451769
00000000: cc0f d63f a735 263f 7455 a03f 47a2 20bf
00000010: b8ab 3e40 8b3a 3cbf c142 a03f 2895 d2bf

static_variable_selection.flattened_grn.resample_norm.mask f4 [3]
1.3106195 0.025657196 -1.5148029
00000000: 61c2 a73f 0a2f d23c 10e5 c1bf

static_variable_selection.flattened_grn.resample_norm.norm.weight f4 [3]
1.7542049 1.5823591 0.29334706
00000000: c989 e03f be8a ca3f 9631 963e

static_variable_selection.flattened_grn.resample_norm.norm.bias f4 [3]
0.80470294 -0.41912228 -0.38286287
00000000: 0301 4e3f 3297 d6be 9a06 c4be

static_variable_selection.flattened_grn.fc1.weight f4 [3, 24]
-1.829623 1.293937 0.96009225 -0.57286394 -0.7489714 -0.43975133 -0.51004034 0.59428215
0.66547 -0.19309881 0.5944922 0.17240821 1.3126817 -1.1117724 -1.4085118 -0.56797963
1.2801553 0.99757683 -0.73648 0.17699638 0.9184694 -0.75407875 -1.1086367 0.17187111
1.9598062 -3.4681363 -0.63915265 1.8625338 0.88908494 1.3285954 1.0519586 -0.2963537
-0.72650033 0.10494146 -1.0808399 0.29238296 -2.6348412 1.199574 3.0137346 1.0784125
-1.436701 -2.0861273 1.1180322 0.012641106 -1.5741115 1.2761064 0.7447151 1.2681034
-0.7010164 0.7426237 0.17798933 -0.7019042 -0.10364683 -0.14389369 -0.021636095 -0.16166282
0.23046973 -0.46337396 0.2477671 -0.23737276 0.3876337 -0.72415257 -0.4150876 -0.029899318
0.06354466 0.9289621 0.1278576 0.41439635 0.18897569 -0.49844915 0.217956 -0.27225864
00000000: 1631 eabf ba9f a53f 9bc8 753f 36a7 12bf
00000010: 97bc 3fbf 1627 e1be 0192 02bf e022 183f
00000020: 3e5c 2a3f b2bb 45be a430 183f c78b 303e
00000030: f405 a83f 8f4e 8ebf 1d4a b4bf 1d67 11bf
00000040: 21dc a33f 3261 7f3f f489 3cbf 8a3e 353e
00000050: d020 6b3f 4e0b 41bf cfe7 8dbf fbfe 2f3e
00000060: eeda fa3f f2f5 5dc0 829f 23bf 8267 ee3f
00000070: 129b 633f 6a0f aa3f 94a6 863f acbb 97be
00000080: edfb 39bf 8ceb d63d f658 8abf 38b3 953e
00000090: 3da1 28c0 a48b 993f 07e1 4040 6c09 8a3f
000000a0: d2e5 b7bf 1c83 05c0 ae1b 8f3f a41c 4f3c
000000b0: 7c7c c9bf 7457 a33f a6a5 3e3f 3651 a23f
000000c0: d075 33bf 961c 3e3f d642 363e feaf 33bf
000000d0: ca44 d4bd de58 13be 2e3e b1bc f08a 25be
000000e0: 4200 6c3e 5a3f edbe a9b6 7d3e d811 73be
000000f0: ed77 c63e 1062 39bf 5d86 d4be 6aef f4bc
00000100: b423 823d 76d0 6d3f 1aed 023e c22b d43e
00000110: d882 413e ba34 ffbe dc2f 5f3e 7c65 8bbe

static_variable_selection.flattened_grn.fc1.bias f4 [3]
-0.84305847 1.654363 -0.29243195
00000000: aed2 57bf 2bc2 d33f a4b9 95be

static_variable_selection.flattened_grn.fc2.weight f4 [3, 3]
2.3849947 -3.170345 0.09480761 1.7032735 0.25897822 2.187644 0.04092516 -2.4722376
-0.11154573
00000000: c1a3 1840 efe6 4ac0 7e2a c23d de04 da3f
00000010: cb98 843e 5c02 0c40 24a1 273d 2439 1ec0
00000020: 1672 e4bd

static_variable_selection.flattened_grn.fc2.bias f4 [3]
-0.81798923 -1.2010026 -1.800343
00000000: be67 51bf 74ba 99bf a471 e6bf

static_variable_selection.flattened_grn.gate_norm.glu.fc.weight f4 [6, 3]
-0.68375397 0.90266734 0.05929955 3.7058406 -1.4848242 -1.0420697 -0.9140154 -1.2664273
3.1313972 -0.83179617 0.019645121 0.060073204 -1.6981938 0.5969697 0.73815656 -0.39840513
-0.0256228 -0.99975604
00000000: 800a 2fbf 3515 673f 16e4 723d 7e2c 6d40
00000010: b80e bebf 8a62 85bf eafc 69bf 4a1a a2bf
00000020: d068 4840 98f0 54bf ceee a03c 520f 763d
00000030: 6a5e d9bf 02d3 183f d4f7 3c3f c2fb cbbe
00000040: e8e6 d1bc 03f0 7fbf

static_variable_selection.flattened_grn.gate_norm.glu.fc.bias f4 [6]
1.3744398 -2.1725798 -0.62725186 0.1460028 0.53728414 0.09690809
00000000: a5ed af3f 8c0b 0bc0 9493 20bf c281 153e
00000010: 748b 093f c077 c63d

static_variable_selection.flattened_grn.gate_norm.add_norm.norm.weight f4 [3]
-1.8033093 1.8478228 -2.9789124
00000000: d7d2 e6bf 7585 ec3f 80a6 3ec0

static_variable_selection.flattened_grn.gate_norm.add_norm.norm.bias f4 [3]
0.32195142 -0.063241586 -0.2608133
00000000: d1d6 a43e ce84 81bd 5289 85be

static_variable_selection.single_variable_grns.encoder_length.resample_norm.mask f4 [16]
-2.5944214 -0.18902217 4.106122 -0.9215661 -1.0409951 -0.10466977 -0.047002666 -0.5777915
-0.9500557 -0.90782666 0.17261383 0.7286051 -0.6915558 -0.1315996 0.59604275 -0.18922743
00000000: 000b 26c0 078f 41be 5a65 8340 c2eb 6bbf
00000010: 543f 85bf 1b5d d6bd de85 40bd 25ea 13bf
00000020: da36 73bf 5467 68bf aec1 303e dd85 3a3f
00000030: cd09 31bf 0cc2 06be 4296 183f d6c4 41be

static_variable_selection.single_variable_grns.encoder_length.resample_norm.norm.weight f4 [16]
-0.9156791 0.55258805 6.776814 1.625215 0.46307456 0.6981616 1.0630567 0.81704426
0.91428196 0.40003565 1.1374178 1.4574084 0.69849855 1.0136795 1.2256787 0.5762186
00000000: f269 6abf 6976 0d3f a9db d840 0c07 d03f
00000010: 1c18 ed3e b8ba 323f 3e12 883f d029 513f
00000020: 620e 6a3f 79d1 cc3e e896 913f 5c8c ba3f
00000030: cdd0 323f 40c0 813f 0ae3 9c3f 1083 133f

static_variable_selection.single_variable_grns.encoder_length.resample_norm.norm.bias f4 [16]
-1.2785234 0.85588753 -2.5163858 -0.5912467 0.6576921 0.45799232 0.21054679 -0.2161527
-0.019989219 -0.87336224 0.31963205 1.1488585 -0.62187076 0.18410599 1.293272 0.9852574
00000000: a8a6 a3bf 721b 5b3f 770c 21c0 f25b 17bf
00000010: 825e 283f f87d ea3e 9499 573e 2257 5dbe
00000020: 6ec0 a3bc ab94 5fbf d0a6 a33e cc0d 933f
00000030: ec32 1fbf 4886 3c3e f089 a53f d439 7c3f

static_variable_selection.single_variable_grns.encoder_length.fc1.weight f4 [8, 8]
0.15220894 0.4250974 -0.5672334 0.52339125 -0.80088764 0.8685606 0.07068141 -0.62957525
-1.2260418 3.560279 0.11649114 -1.325808 -1.1408827 -0.5710653 0.36314052 0.13872859
-0.75872725 1.2999042 0.082652494 -1.1106234 0.71224433 0.036519155 0.21918587 -0.10755694
-1.5072608 1.008615 0.88758147 -1.0639113 -0.55520916 -1.0731373 -1.0482805 0.94186676
-0.28168374 0.31339496 -0.2747363 0.020293387 0.3185788 -0.3452896 -0.8410084 0.17000578
0.09957255 -0.97823524 0.6222806 -0.4356955 0.82707345 -0.26581302 -0.80742013 0.87033325
-1.3206422 1.4298351 0.5958344 -1.1204937 0.09369169 0.8806168 -0.6992476 0.048644707
2.926096 -3.5050156 -2.481795 1.5674826 -0.31502885 0.9973342 1.133048 -1.612789
00000000: a9dc 1b3e 5ea6 d93e 3536 11bf f8fc 053f
00000010: f906 4dbf fd59 5e3f 6ac1 903d d82b 21bf
00000020: f0ee 9cbf 9cdb 6340 e892 ee3d 14b4 a9bf
00000030: 7208 92bf 5631 12bf 8eed b93e de0e 0e3e
00000040: f33b 42bf 4363 a63f b645 a93d e828 8ebf
00000050: a555 363f 1c95 153d 4372 603e d046 dcbd
00000060: eced c0bf 4c1a 813f 8a38 633f 3f2e 88bf
00000070: 3022 0ebf 905c 89bf 0e2e 86bf 2e1e 713f
00000080: da38 90be 4e75 a03e 3caa 8cbe 513e a63c
00000090: c31c a33e ccc9 b0be 544c 57bf ff15 2e3e
000000a0: b1ec cb3d a06d 7abf c84d 1f3f 7b13 dfbe
000000b0: 16bb 533f a518 88be 16b3 4ebf 29ce 5e3f
000000c0: ce0a a9bf d604 b73f 9a88 183f 566c 8fbf
000000d0: 6ee1 bf3d 1a70 613f e401 33bf ac3f 473d
000000e0: 2845 3b40 2d52 60c0 bbd5 1ec0 45a3 c83f
000000f0: 764b a1be 4b51 7f3f b807 913f df6f cebf

static_variable_selection.single_variable_grns.encoder_length.fc1.bias f4 [8]
0.61878693 -1.0652597 -0.28278828 -1.0097542 0.1686392 0.45831937 -0.6834897 1.7647562
00000000: d268 1e3f 6e5a 88bf a0c9 90be a03f 81bf
00000010: c1af 2c3e d6a8 ea3e 2ef9 2ebf 88e3 e13f

static_variable_selection.single_variable_grns.encoder_length.fc2.weight f4 [8, 8]
-1.7719679 1.1300396 0.06015283 0.47165442 0.4398378 0.039869733 0.23712416 -0.3488873
0.10910706 -1.2494508 0.19903538 -0.65829945 -0.8685328 -0.93180853 -0.2663836 0.89903986
1.3136835 -0.98270386 1.2578267 -0.56503934 -1.3250252 -0.6959562 -0.6200419 2.092555
-1.399884 -0.4381296 0.8677515 0.53361833 -0.58366954 -0.89288384 -0.3472901 2.14913
0.85459566 0.453064 0.23114082 0.10430211 0.23867765 0.33307618 -0.4662421 -3.1286216
0.0864792 -0.076954186 -0.3697763 -0.09661819 -0.88139236 0.5579125 0.5467882 -1.72316
0.33998707 -1.3028812 0.6503702 -0.8884806 -1.0249871 -0.5817218 -2.416905 3.8362212
0.6036173 -0.8220936 1.1190957 -1.1841172 0.22103897 -0.23266342 -0.5677923 -1.3220377
00000000: d8cf e2bf 23a5 903f d062 763d b07c f13e
00000010: 6c32 e13e 724e 233d add0 723e 5ba1 b2be
00000020: 8673 df3d 01ee 9fbf eecf 4b3e 5086 28bf
00000030: 2a58 5ebf 018b 6ebf 6e63 88be 7a27 663f
00000040: c826 a83f 7b92 7bbf 7700 a13f 6ba6 10bf
00000050: 6d9a a9bf 2f2a 32bf 11bb 1ebf 6cec 0540
00000060: 662f b3bf 8652 e0be f624 5e3f 369b 083f
00000070: 5e6b 15bf 0994 64bf 02d0 b1be 598b 0940
00000080: c8c6 5a3f 01f8 e73e 2eb0 6c3e 589c d53d
00000090: ea67 743e f688 aa3e 49b7 eebe 563b 48c0
000000a0: 021c b13d 289a 9dbd 5253 bdbe c2df c5bd
000000b0: eea2 61bf 5bd3 0e3f 50fa 0b3f 8290 dcbf
000000c0: c912 ae3e d0c4 a6bf a97e 263f 7773 63bf
000000d0: c732 83bf b8eb 14bf 92ae 1ac0 a684 7540
000000e0: aa86 1a3f ba74 52bf 873e 8f3f 2791 97bf
000000f0: 0a58 623e 523f 6ebe d65a 11bf 8838 a9bf

static_variable_selection.single_variable_grns.encoder_length.fc2.bias f4 [8]
-0.5357361 0.35321712 1.0907581 1.0037916 -0.46019137 -0.7756512 1.9593709 -0.18169573
00000000: 0026 09bf e0d8 b43e f69d 8b3f 3e7c 803f
00000010: 349e ebbe 1491 46bf aacc fa3f 720e 3abe

static_variable_selection.single_variable_grns.encoder_length.gate_norm.glu.fc.weight f4 [32, 8]
0.3999359 -1.6647768 0.9102894 0.4313683 1.4905682 -0.34610733 -0.017446812 -0.96248007
-0.13602144 -0.07460219 -1.1487286 -1.605695 0.3430584 1.4815984 0.48681307 0.42707223
-0.73686683 -1.6404233 -2.421321 -2.532427 3.3153229 4.0411153 -3.883955 3.532317
-0.26994562 -1.1198092 0.30926293 -0.94739974 1.167144 0.586125 -0.3594786 0.37450913
0.45618522 -0.7392911 0.42140657 0.6175865 -0.25527477 -0.95310825 1.6229365 -1.7594547
-0.52124864 3.0965044 -1.4219444 -0.017648429 -2.2183719 1.3803022 -0.059779808 0.75707424
-0.6904518 0.50813615 1.1357003 0.18845245 -0.5255207 -0.92456925 0.029099222 -0.28453046
-0.83302397 -0.61843014 2.2403145 0.12882602 0.6447407 -2.3700006 1.1079435 -1.3621345
-0.074365646 2.5653167 -0.77951145 0.79613644 -1.6979021 -0.294111 0.00018235501 -0.024569992
0.12555349 -1.221581 1.1442258 -0.10009813 0.86206937 -0.40756243 0.1918509 -0.26973757
-0.31088394 0.18228763 -0.06015899 0.20614165 0.11217801 -0.6218394 -0.044595454 -0.39066803
-0.2543236 2.0025764 -0.6358651 0.28363287 -2.3883054 -0.52189785 0.8671109 -0.53021675
-0.18109924 -0.9569345 0.51051795 0.31093544 0.7484506 -0.5519737 0.16659819 -0.36535048
-0.10614632 0.6900526 -0.22769308 1.0814949 -0.0034337908 0.21475103 -2.8104079 1.7446537
0.4133138 -0.5011252 0.33530164 0.14829239 -0.49103463 -0.73600984 0.65846324 -1.2427974
0.39210287 0.29499996 -0.32951808 -0.2278633 -0.14446735 0.10871549 -0.016149454 0.33333996
0.10422835 -0.46625063 -0.08619991 -0.17340717 0.079070196 -0.09492022 -0.7087649 0.35470536
0.1838804 -0.32601172 0.50545 0.25362617 -0.25181085 -0.24272047 0.3077149 -0.4427888
0.5033064 1.2620609 1.842385 1.653282 -1.4363246 -2.9029725 0.7364272 -1.8140191
1.177347 2.1752121 -0.16482982 1.775129 -2.810742 -1.4800587 0.963278 -1.6777256
-0.6817193 -0.18304327 -0.38551244 -0.106291845 -0.25980994 1.1879139 -0.23562235 0.5849637
-0.3670981 0.8836732 -0.84041345 -0.62345195 -0.18665026 0.6479119 -0.29939097 0.28304648
0.34532595 -0.27189612 2.0998635 -0.56171536 -0.011318201 0.56668746 0.31349295 -1.3862486
-0.055597283 0.1605179 -0.017216312 0.66133904 -0.5178752 0.49610877 -0.30497202 0.039726764
-1.2570002 0.53150666 -1.7733381 -1.5172291 1.7030936 3.1648414 -3.9163206 3.4525928
0.06655316 -0.61270225 0.029606063 -0.30649126 1.0552856 0.25478697 -0.574079 0.07356674
-0.33563647 0.13760109 -0.11018251 0.21708167 0.034962483 0.35410035 -0.5904537 0.24625465
1.2668146 0.3682747 -2.3149548 -0.9864318 0.9223616 1.9803977 -1.7718933 1.2817361
-0.090475716 0.56133074 -3.2563229 0.5085274 0.9023887 0.45044434 -1.2336217 2.350396
-0.39717138 -0.2692467 4.180759 0.34634107 -1.7178061 0.1326401 1.7942972 -3.3632488
-0.6247175 -0.91769916 -0.00492715 -0.88942313 1.8637283 1.000943 -1.8293972 1.0508385
-0.29058647 -0.44573307 -0.03511122 -0.18757266 0.23682538 0.045585014 -0.41342285 0.64755654
00000000: 66c4 cc3e 6817 d5bf ba08 693f 4edc dc3e
00000010: f0ca be3f fb34 b1be 9eec 8ebc 1865 76bf
00000020: 3449 0bbe 08c9 98bd 8a09 93bf 6a87 cdbf
00000030: 5aa5 af3e 04a5 bd3f 903f f93e 36a9 da3e
00000040: 4ea3 3cbf 64f9 d1bf ecf6 1ac0 4913 22c0
00000050: 402e 5440 d150 8140 b892 78c0 7b11 6240
00000060: 5036 8abe e855 8fbf b657 9e3e ca88 72bf
00000070: f964 953f 4a0c 163f 940d b8be a9bf bf3e
00000080: 1c91 e93e 2e42 3dbf 9ac2 d73e 261a 1e3f
00000090: 60b3 82be e7fe 73bf 62bc cf3f d035 e1bf
000000a0: 8d70 05bf 212d 4640 4602 b6bf 7093 90bc
000000b0: cef9 0dc0 bead b03f acdb 74bd 9ecf 413f
000000c0: 73c1 30bf 3615 023f a15e 913f aef9 403e
000000d0: 8688 06bf 92b0 6cbf 7e61 ee3c faad 91be
000000e0: 0f41 55bf 7051 1ebf 5061 0f40 f8ea 033e
000000f0: ba0d 253f 17ae 17c0 18d1 8d3f 6c5a aebf
00000100: 044d 98bd 262e 2440 108e 47bf 99cf 4b3f
00000110: db54 d9bf b895 96be 8d36 3f39 0247 c9bc
00000120: 1891 003e c45c 9cbf fe75 923f 4000 cdbd
00000130: 94b0 5c3f 06ac d0be 9074 443e 0b1b 8abe
00000140: 2e2c 9fbe 9ca9 3a3e 4669 76bd cc16 533e
00000150: 96bd e53d de30 1fbf b9a9 36bd a405 c8be
00000160: b436 82be 362a 0040 0ec8 22bf 5438 913e
00000170: ffd9 18c0 199b 05bf fbfa 5d3f 49bc 07bf
00000180: 1472 39be a9f9 74bf 4eb1 023f ee32 9f3e
00000190: 759a 3f3f 264e 0dbf b798 2a3e 380f bbbe
000001a0: 3e63 d9bd 4aa7 303f 6028 69be 6d6e 8a3f
000001b0: 7309 61bb b2e7 5b3e b9dd 33c0 d050 df3f
000001c0: de9d d33e be49 00bf a8ac ab3e f6d9 173e
000001d0: e468 fbbe 246b 3cbf 0c91 283f fc13 9fbf
000001e0: b5c1 c83e 3c0a 973e 98b6 a8be ff54 69be
000001f0: 40ef 13be 3aa6 de3d dc4b 84bc 89ab aa3e
00000200: ac75 d53d 67b8 eebe 9489 b0bd a691 31be
00000210: 8eef a13d 8865 c2bd 9e71 35bf f19b b53e
00000220: 254b 3c3e 02eb a6be 2c65 013f 4adb 813e
00000230: 5aed 80be b78b 78be cf8c 9d3e 37b5 e2be
00000240: b0d8 003f 368b a13f 46d3 eb3f bf9e d33f
00000250: 7cd9 b7bf 4dca 39c0 7e86 3c3f c731 e8bf
00000260: 4eb3 963f ad36 0b40 26c9 28be 6d37 e33f
00000270: 32e3 33c0 9072 bdbf 6399 763f b6bf d6bf
00000280: 2885 2ebf b26f 3bbe e361 c5be 8aaf d9bd
00000290: cf05 85be 900d 983f fc46 71be 2ec0 153f
000002a0: 48f4 bbbe 6838 623f 5625 57bf 8c9a 1fbf
000002b0: 3f21 3fbe 8edd 253f c649 99be 78eb 903e
000002c0: 90ce b03e f835 8bbe 2a64 0640 94cc 0fbf
000002d0: fa6f 39bc 6e12 113f 2682 a03e 9870 b1bf
000002e0: fab9 63bd ce5e 243e 3909 8dbc 844d 293f
000002f0: 7893 04bf f801 fe3e 4b25 9cbe 88b8 223d
00000300: 62e5 a0bf d210 083f befc e2bf 9034 c2bf
00000310: f9fe d93f c38c 4a40 ffa4 7ac0 48f7 5c40
00000320: 064d 883d 0eda 1cbf 6a88 f23c 6cec 9cbe
00000330: 9913 873f 7073 823e d7f6 12bf 29aa 963d
00000340: 8bd8 abbe 4de7 0c3e 5ea7 e1bd a84a 5e3e
00000350: d234 0f3d a44c b53e f927 17bf 2e2a 7c3e
00000360: fb26 a23f 808e bc3e 3828 14c0 cb86 7cbf
00000370: e41f 6c3f ac7d fd3f 66cd e2bf ee0f a43f
00000380: 554b b9bd 5fb3 0f3f 9867 50c0 da2e 023f
00000390: f202 673f a4a0 e63e 51e7 9dbf e36c 1640
000003a0: 0c5a cbbe b4da 89be c7c8 8540 9e53 b13e
000003b0: 12e1 dbbf ced2 073e 88ab e53f 783f 57c0
000003c0: 7ced 1fbf 55ee 6abf ee73 a1bb 3cb1 63bf
000003d0: a68e ee3f e61e 803f b029 eabf e081 863f
000003e0: c0c7 94be 2037 e4be c8d0 0fbd 0c13 40be
000003f0: 5a82 723e 5ab7 3a3d 29ac d3be 44c6 253f

static_variable_selection.single_variable_grns.encoder_length.gate_norm.glu.fc.bias f4 [32]
-0.8917726 0.34102416 -3.3817346 -0.5260347 0.10199523 1.4892501 1.3580849 0.47317517
1.0738192 -0.538753 0.2457836 1.5193689 -0.55744815 0.28270933 -0.007337386 0.29146388
-0.17185758 0.07542921 1.7157043 1.7925144 -0.32473326 0.38737506 0.6915891 0.4221487
-0.49622643 -0.38792038 -0.23922038 -1.167776 -1.4078109 2.0703952 -0.9592218 -0.34330755
00000000: 364b 64bf b89a ae3e 576e 58c0 36aa 06bf
00000010: e0e2 d03d bf9f be3f bad5 ad3f 0444 f23e
00000020: e872 893f b7eb 09bf b2ae 7b3e ae7a c23f
00000030: ecb4 0ebf 47bf 903e 746e f0bb c13a 953e
00000040: 6ffb 2fbe a17a 9a3d 339c db3f 1d71 e53f
00000050: 7043 a6be 0656 c63e fc0b 313f e023 d83e
00000060: 6411 febe 809d c6be 30f6 74be af79 95bf
00000070: 2633 b4bf 5b81 0440 8f8f 75bf 02c6 afbe

static_variable_selection.single_variable_grns.encoder_length.gate_norm.add_norm.norm.weight f4 [16]
-0.5204877 -0.14494604 5.777423 1.6664958 1.3135022 0.57938755 0.06306167 0.20805523
1.0381167 0.7581794 1.2410452 1.6750171 1.4363883 2.3380365 1.470507 1.1519818
00000000: af3e 05bf bc6c 14be a6e0 b840 bc4f d53f
00000010: d720 a83f be52 143f 7a26 813d 6e0c 553e
00000020: 02e1 843f 0c18 423f 92da 9e3f f666 d63f
00000030: 92db b73f 64a2 1540 9339 bc3f 2474 933f

static_variable_selection.single_variable_grns.encoder_length.gate_norm.add_norm.norm.bias f4 [16]
-0.7276907 -0.16526704 -2.6413915 -1.4706992 0.056241065 0.94554746 -0.21839225 -0.9508148
0.67705446 -0.52716327 0.34408885 1.6191301 -0.13431682 0.3745575 1.774811 1.3279891
00000000: f049 3abf c33b 29be 8f0c 29c0 df3f bcbf
00000010: 085d 663d 660f 723f 38a2 5fbe 9968 73bf
00000020: 7153 2d3f 2cf4 06bf 6a2c b03e a83f cf3f
00000030: 598a 09be 00c6 bf3e 022d e33f 8cfb a93f

static_variable_selection.single_variable_grns.processed_correction_value_center.resample_norm.mask f4 [16]
-0.2042623 0.6169944 -0.1936324 0.15892553 0.08447626 -0.9124385 -0.16279285 0.3201778
-0.61795175 1.8314061 0.061123393 0.957293 -1.3273084 -1.4380426 -0.045412675 1.7445129
00000000: 232a 51be 58f3 1d3f 9247 46be 60bd 223e
00000010: e401 ad3d 9295 69bf 2bb3 26be 58ee a33e
00000020: 1632 1ebf 846b ea3f 865c 7a3d 2711 753f
00000030: 3ee5 a9bf c811 b8bf a402 3abd 334c df3f

static_variable_selection.single_variable_grns.processed_correction_value_center.resample_norm.norm.weight f4 [16]
1.0688956 1.2616969 0.7658243 0.9195642 0.90944934 -0.050592482 0.9634561 1.607491
0.9522662 3.090474 0.82837456 2.4682822 -0.18908839 -0.5474934 1.1554424 2.590226
00000000: 92d1 883f 497f a13f 100d 443f 8f68 6b3f
00000010: acd1 683f 103a 4fbd 0fa5 763f 44c2 cd3f
00000020: b8c7 733f 53ca 4540 5b10 543f 56f8 1d40
00000030: 63a0 41be 8728 0cbf 89e5 933f 43c6 2540

static_variable_selection.single_variable_grns.processed_correction_value_center.resample_norm.norm.bias f4 [16]
-0.46078312 0.69381094 -1.2872205 -0.0036268695 0.39430928 1.0884974 0.10222436 -1.0341339
0.08679933 -1.3774501 0.6715679 0.8527883 -1.0781496 -0.7547838 0.31282926 1.7893159
00000000: c4eb ebbe 989d 313f a4c3 a4bf c6b0 6dbb
00000010: e8e2 c93e e253 8b3f 015b d13d 805e 84bf
00000020: d9c3 b13d 4950 b0bf e0eb 2b3f 5650 5a3f
00000030: ce00 8abf 8339 41bf 282b a03e 4e08 e53f

static_variable_selection.single_variable_grns.processed_correction_value_center.fc1.weight f4 [8, 8]
-0.1135398 -0.078853734 1.3327744 0.2552564 2.378165 -0.7738986 -1.2639949 -1.0821152
0.60621876 -1.0230503 0.7292795 0.768723 2.5476255 -1.2177435 -2.1746662 -0.10043493
1.8176066 0.5289594 1.0916588 -0.6335691 1.8034549 -1.0653801 -0.5121646 -1.0431662
0.78384066 0.87219596 0.31177577 0.43776995 -0.0529119 -0.3293906 -0.19768032 -0.0078032217
-0.06016685 0.69070643 -0.20281105 0.62640345 -0.26814693 0.1728509 -0.07993285 0.35213536
-1.8795462 -0.2130366 -1.6473342 0.3234682 -3.2671976 1.2574084 2.2254455 0.47888398
-0.49252892 -1.1005963 1.1353911 0.6596596 1.2521787 -0.50774693 -0.36768377 -1.0243785
-0.15265134 0.5261029 -0.7313987 -0.38973582 -0.11497078 -0.4493479 0.75724757 1.032149
00000000: 8e87 e8bd 117e a1bd 5a98 aa3f f8b0 823e
00000010: db33 1840 381e 46bf 96ca a1bf c082 8abf
00000020: 2731 1b3f 50f3 82bf 10b2 3a3f 08cb 443f
00000030: 4c0c 2340 05df 9bbf bb2d 0bc0 d4b0 cdbd
00000040: 55a7 e83f e269 073f 7abb 8b3f 9631 22bf
00000050: 9cd7 e63f 605e 88bf 381d 03bf 7886 85bf
00000060: c8a9 483f 3c48 5f3f 13a1 9f3e 6223 e03e
00000070: 26ba 58bd e2a5 a8be b66c 4abe 2bb2 ffbb
00000080: 8471 76bd 23d2 303f b3ad 4fbe fa5b 203f
00000090: 8e4a 89be d4ff 303e d6b3 a3bd 164b b43e
000000a0: f894 f0bf 4426 5abe d9db d2bf a09d a53e
000000b0: c419 51c0 c2f2 a03f b36d 0e40 4830 f53e
000000c0: c02c fcbe 57e0 8cbf 7f54 913f 74df 283f
000000d0: 6447 a03f b4fb 01bf 0c41 bcbe d61e 83bf
000000e0: a250 1cbe aeae 063f f23c 3bbf 748b c7be
000000f0: cd75 ebbd ee10 e6be fada 413f 751d 843f

static_variable_selection.single_variable_grns.processed_correction_value_center.fc1.bias f4 [8]
-1.0184425 -1.1091578 -0.8703502 -0.18974099 0.030732093 1.3644369 -0.2634063 0.39224994
00000000: 535c 82bf e2f8 8dbf 45cf 5ebf 764b 42be
00000010: dfc1 fb3c dea5 ae3f 31dd 86be fcd4 c83e

static_variable_selection.single_variable_grns.processed_correction_value_center.fc2.weight f4 [8, 8]
-0.23001727 -0.58724403 -1.0415235 -0.78406096 2.2736654 1.2201555 -2.7697253 0.43857569
-0.57381177 -0.7197248 -0.1836488 0.4221356 0.9888446 1.9108155 -0.7811663 -0.31011966
0.44993684 -1.2782242 -1.5178013 -0.2698927 1.3067757 2.3181934 -2.2537193 -0.48605967
-0.40064362 -1.0605545 -0.49804506 -0.57942206 1.0518001 1.056331 -0.9884863 -0.04992678
0.47884488 0.6888621 0.53863513 0.11991812 -0.59655964 -3.3776116 1.2979447 -0.52212226
-0.015002588 -0.057874277 0.23596151 -1.1408283 -1.3241866 0.6463352 1.2527313 -0.2679294
0.7266648 1.4454932 2.645554 -0.36793053 -1.7444746 -4.735425 1.9617784 0.8914032
-0.5502959 -0.76752657 -1.3308814 0.08500452 1.1883147 1.4161317 -1.4444618 -0.22188076
00000000: a689 6bbe a055 16bf a450 85bf 38b8 48bf
00000010: bc83 1140 0e2e 9c3f 2e43 31c0 fe8c e03e
00000020: 54e5 12bf e23f 38bf 6e0e 3cbe 2822 d83e
00000030: eb24 7d3f 9a95 f43f 84fa 47bf 01c8 9ebe
00000040: 1f5e e63e da9c a3bf 5047 c2bf 602f 8abe
00000050: 6d44 a73f 485d 1440 f03c 10c0 d0dc f8be
00000060: 2921 cdbe 40c0 87bf c3ff febe 0155 14bf
00000070: 63a1 863f db35 873f 700d 7dbf 0680 4cbd
00000080: 282b f53e 4459 303f fee3 093f a297 f53d
00000090: 22b8 18bf ca2a 58c0 0d23 a63f cea9 05bf
000000a0: 6acd 75bc 940d 6dbd e59f 713e a906 92bf
000000b0: f27e a9bf 3976 253f 8059 a03f 0b2e 89be
000000c0: b406 3a3f ec05 b93f c250 2940 6461 bcbe
000000d0: f24a dfbf 9a88 97c0 8e1b fb3f 0033 643f
000000e0: 31e0 0cbf 9f7c 44bf 525a aabf da16 ae3d
000000f0: b21a 983f ce43 b53f 20e4 b8bf b634 63be

static_variable_selection.single_variable_grns.processed_correction_value_center.fc2.bias f4 [8]
1.2770612 0.98137057 1.6805438 0.9178802 -1.0709815 -0.048355125 -1.9790123 1.5098715
00000000: be76 a33f 1a3b 7b3f 0f1c d73f 32fa 6a3f
00000010: ec15 89bf 0610 46bd 4650 fdbf 7843 c13f

static_variable_selection.single_variable_grns.processed_correction_value_center.gate_norm.glu.fc.weight f4 [32, 8]
-2.3589978 -1.5403336 -0.7740818 -1.5918212 0.19137838 1.6087914 4.6106453 0.3774913
-0.6394949 -0.82381904 -0.032082677 0.5125993 0.44427556 0.54562944 -0.61186767 -0.6762794
0.18427666 -0.33904785 0.4887119 -0.25222826 0.062089533 0.33473969 -0.17861675 -0.06287035
0.8742078 0.7176932 0.7083074 -0.17023902 0.07875733 1.2635714 -2.0075393 -0.7421913
-0.5098262 0.1536203 0.25521058 -0.09229525 -0.22026306 0.631338 0.030242834 -0.13356578
2.0614247 0.26318133 -0.1151195 1.9184936 -0.90536416 -1.3920794 -0.18799636 -0.95763206
0.03104403 -0.19505173 -0.80893135 0.5018439 0.5247741 -0.6551516 -0.17368835 0.27868152
-0.9217982 -0.6475487 -1.0719061 -0.51732826 0.5065036 0.8519357 0.45523015 0.837775
0.8009472 0.24461418 0.18933868 1.2264977 0.6661443 -1.9032097 -0.9010744 -0.18924636
-2.2440553 -1.2732711 -0.30877855 -1.20719 -1.0576901 1.2420794 3.6389198 0.8507699
0.038977116 0.35163295 0.54029906 0.15685478 -0.10174554 0.43164027 0.024099104 -0.5174742
2.4395738 2.1925478 1.3357008 0.49792835 -0.54636264 -3.40984 -2.5387845 0.16466454
-0.6142414 -0.13797316 -0.25766972 -0.9366574 0.053126115 0.5113153 0.87206274 0.10515519
-0.0682567 -0.22965997 -0.9469118 0.5802709 0.8847488 -1.0770092 -0.6557983 1.0381374
-0.5269219 0.103051394 -0.19370532 -0.6660906 -0.05226122 0.88260806 0.60849017 0.5520085
3.0560982 3.2239532 3.7998095 0.8803741 -2.2673762 -2.8000755 -5.0654664 -0.92549986
-0.93705946 -1.4711405 -1.3863685 0.68645906 2.2708406 1.1876215 -0.22420204 -0.19217439
0.24560362 1.1129092 0.93471897 -0.15105353 -0.16523725 -0.065458 -0.65577716 -0.20554318
-0.5344722 -0.6180521 -0.54592496 -0.5112934 0.44335535 -0.15961212 2.1103926 0.42084438
0.48827922 1.0623277 0.790786 -0.24093959 0.26512256 -1.3413925 -1.6590664 0.1396586
-0.3619369 -0.16735117 0.23188454 -0.36263606 0.25511742 0.28084743 0.3078706 0.3137676
1.336566 1.2580495 2.2092834 0.012586283 0.15873751 -3.2102926 -2.4504533 0.20300241
-0.050593235 -0.20960918 0.15699188 0.2791829 0.11726035 -0.11052461 -0.7343576 0.7789899
-0.002229151 -0.39573485 -0.06785789 -0.6550452 -0.3658299 0.7140153 1.5126673 -0.47722268
-1.0185368 -1.1794395 -1.305209 -0.55439377 0.26046228 0.37951228 2.1413128 0.5730777
0.77065885 0.5529108 0.78050315 -0.011071088 -0.12618619 -0.8916205 -0.9747861 0.3157559
-1.1825366 -0.7171917 -0.77527463 -0.33935356 1.5077822 -0.20558304 0.22490737 0.98335046
0.2829177 -0.049061775 0.20522684 0.13954034 -0.5933372 -0.80057406 -1.0319755 1.4474802
-0.22520903 -0.3222372 -0.06017439 0.19970068 0.06739335 -0.2567836 0.16163269 0.43313444
-0.54906607 -2.056416 -1.8247598 -0.97541046 0.7969442 0.8937731 3.7984369 -0.9402239
-1.3738221 -2.827633 -2.3924308 0.4715604 -0.103179835 2.8407347 2.9713883 -0.19237405
0.2541831 0.4259401 -0.015463447 -0.02582636 -0.3188281 -0.30315948 -0.29786062 -0.42569706
00000000: d2f9 16c0 a729 c5bf 3a2a 46bf ccc0 cbbf
00000010: b2f8 433e e0ec cd3f 688a 9340 8a46 c13e
00000020: f0b5 23bf cee5 52bf 2069 03bd b539 033f
00000030: 1678 e33e 5fae 0b3f 5ca3 1cbf a620 2dbf
00000040: 05b3 3c3e ae97 adbe 7238 fa3e 1024 81be
00000050: 9851 7e3d 0063 ab3e 4fe7 36be 2cc2 80bd
00000060: 15cc 5f3f beba 373f a253 353f 2353 2ebe
00000070: 864b a13d b5bc a13f 867b 00c0 4000 3ebf
00000080: f883 02bf a44e 1d3e f6aa 823e 4b05 bdbd
00000090: a48c 61be 5e9f 213f d2bf f73c 78c5 08be
000000a0: 62ee 0340 b4bf 863e c6c3 ebbd 3391 f53f
000000b0: f2c5 67bf a82f b2bf 1e82 40be 6027 75bf
000000c0: 0d50 fe3c a4bb 47be 2016 4fbf d878 003f
000000d0: 9857 063f 04b8 27bf 5cdb 31be 58af 8e3e
000000e0: f8fa 6bbf c0c5 25bf 3834 89bf a06f 04bf
000000f0: 38aa 013f 7518 5a3f ed13 e93e 6c78 563f
00000100: e00a 4d3f 247c 7a3e 00e2 413e e0fd 9c3f
00000110: 6f88 2a3f 609c f3bf d0ac 66bf ccc9 41be
00000120: 9a9e 0fc0 8cfa a2bf 3918 9ebe 3485 9abf
00000130: 6462 87bf 75fc 9e3f 10e4 6840 0ecc 593f
00000140: 78a6 1f3d 3c09 b43e 0a51 0a3f 8a9e 203e
00000150: f75f d0bd f4ff dc3e 7c6b c53c 3079 04bf
00000160: fa21 1c40 b452 0c40 3ef8 aa3f 77f0 fe3e
00000170: 6cde 0bbf d23a 5ac0 727b 22c0 d29d 283e
00000180: ed3e 1dbf d648 0dbe 49ed 83be c8c8 6fbf
00000190: c59a 593d 8fe5 023f 813f 5f3f 9b5b d73d
000001a0: 2bca 8bbd fc2b 6bbe d068 72bf a28c 143f
000001b0: e67e 623f 70db 89bf 66e2 27bf b0e1 843f
000001c0: 5be4 06bf 9c0c d33d b05a 46be ea84 2abf
000001d0: dc0f 56bd 9af2 613f 03c6 1b3f 6e50 0d3f
000001e0: 1d97 4340 4055 4e40 1430 7340 3260 613f
000001f0: b11c 11c0 7034 33c0 4d18 a2c0 8fed 6cbf
00000200: 21e3 6fbf 554e bcbf 8674 b1bf c8bb 2f3f
00000210: 7455 1140 fb03 983f 3895 65be 5dc9 44be
00000220: 847f 7b3e cf73 8e3f be49 6f3f c7ad 1abe
00000230: f433 29be d80e 86bd 03e1 27bf e979 52be
00000240: 2cd3 08bf aa38 1ebf bdc1 0bbf 20e4 02bf
00000250: 79ff e23e 5c71 23be ac10 0740 ea78 d73e
00000260: bcff f93e 5bfa 873f f470 4a3f deb8 76be
00000270: 25be 873e c0b2 abbf 4a5c d4bf aa02 0f3e
00000280: cb4f b9be 1b5e 2bbe 2473 6d3e 6fab b9be
00000290: c09e 823e 3ccb 8f3e 37a1 9d3e 26a6 a03e
000002a0: 9814 ab3f c407 a13f e664 0d40 b236 4e3c
000002b0: 168c 223e 6f75 4dc0 3ad4 1cc0 dddf 4f3e
000002c0: da3a 4fbd caa3 56be 7bc2 203e 10f1 8e3e
000002d0: 3226 f03d ba5a e2bd dcfe 3bbf e26b 473f
000002e0: f316 12bb c29d cabe 14f9 8abd 0bb1 27bf
000002f0: 0f4e bbbe b5c9 363f 159f c13f 8856 f4be
00000300: 6a5f 82bf e0f7 96bf 1711 a7bf c0ec 0dbf
00000310: 505b 853e 6f4f c23e 450b 0940 38b5 123f
00000320: e649 453f 908b 0d3f 0ecf 473f 8263 35bc
00000330: f436 01be 3e41 64bf 958b 79bf c2aa a13e
00000340: 5c5d 97bf e099 37bf 6678 46bf c0bf adbe
00000350: 02ff c03f 5c84 52be 1e4e 663e dbbc 7b3f
00000360: 97da 903e 00f5 48bd fc26 523e aae3 0e3e
00000370: f2e4 17bf 6cf2 4cbf c617 84bf 0847 b93f
00000380: 329d 66be 46fc a4be 6c79 76bd 567e 4c3e
00000390: 8605 8a3d 2479 83be 0a83 253e ccc3 dd3e
000003a0: 988f 0cbf 529c 03c0 bb91 e9bf 80b4 79bf
000003b0: 8904 4c3f 50ce 643f 9719 7340 83b2 70bf
000003c0: 67d9 afbf f0f7 34c0 961d 19c0 5d70 f13e
000003d0: f34f d3bd 99ce 3540 3a2b 3e40 b4fd 44be
000003e0: 4a24 823e d214 da3e 665a 7dbc cd91 d3bc
000003f0: 703d a3be b837 9bbe 3081 98be f7f4 d9be

static_variable_selection.single_variable_grns.processed_correction_value_center.gate_norm.glu.fc.bias f4 [32]
-1.1908468 -0.31601915 0.01831125 0.8466631 -0.20727316 1.6694431 -0.11761119 -1.0257674
0.7669784 -1.8898205 0.5723305 0.95140576 -0.531959 -0.40975815 -0.42025107 2.4113188
-1.0325099 0.28853118 -0.7961253 0.90945685 -0.09213945 1.8593202 0.11091094 -0.14156726
-1.1374282 0.63480175 -1.2017037 0.63551766 0.014398254 -1.1631262 -1.6436466 0.062262863
00000000: ab6d 98bf 43cd a1be 7901 963c eabe 583f
00000010: 6a3f 54be 50b0 d53f 23de f0bd 594c 83bf
00000020: b258 443f a3e5 f1bf 4084 123f 548f 733f
00000030: 772e 08bf d2cb d1be 262b d7be 0c53 1a40
00000040: 4929 84bf 5cba 933e dece 4bbf 2ad2 683f
00000050: 9cb3 bcbd 34fe ed3f 4625 e33d 02f7 10be
00000060: 3f97 91bf 5e82 223f 6dd1 99bf 49b1 223f
00000070: a8e6 6b3c 52e1 94bf 0363 d2bf 5807 7f3d

static_variable_selection.single_variable_grns.processed_correction_value_center.gate_norm.add_norm.norm.weight f4 [16]
2.6534874 0.6518259 1.3617406 0.53583354 1.3743639 -0.58778113 0.5666972 1.3343846
0.1998511 0.47216803 0.89124036 2.961248 0.63391304 1.387539 0.0013946658 2.3008313
00000000: bdd2 2940 10de 263f 844d ae3f 632c 093f
00000010: 28eb af3f d378 16bf 1113 113f 1dcd aa3f
00000020: c4a5 4c3e 02c0 f13e 5428 643f 1685 3d40
00000030: 2048 223f e19a b13f 38cd b63a d240 1340

static_variable_selection.single_variable_grns.processed_correction_value_center.gate_norm.add_norm.norm.bias f4 [16]
-1.8080552 -0.019533396 -3.0337048 -1.262016 0.114233516 0.71925455 0.25310683 -0.94690216
0.61843497 -0.55412614 0.13277563 1.748709 -0.32597756 0.32506782 1.3315043 1.4592533
00000000: 5a6e e7bf 8004 a0bc 3828 42c0 be89 a1bf
00000010: 43f3 e93d 1121 383f 3897 813e 2e68 72bf
00000020: c151 1e3f 36db 0dbf 56f6 073e b2d5 df3f
00000030: 88e6 a6be 4a6f a63e bc6e aa3f d0c8 ba3f

static_variable_selection.single_variable_grns.processed_correction_value_scale.resample_norm.mask f4 [16]
-0.21793795 -1.6568104 2.9047308 -0.30870104 -0.5473759 0.8255305 -0.19853805 0.33601516
-1.4251792 0.6291779 -0.033584885 0.76409614 -1.3689827 -0.70241576 1.4235295 0.07665543
00000000: 202b 5fbe 5d12 d4bf 1ce7 3940 100e 9ebe
00000010: d420 0cbf f855 533f 8f4d 4bbe 2e0a ac3e
00000020: 466c b6bf ce11 213f 4e90 09bd ce9b 433f
00000030: d33a afbf 85d1 33bf 3736 b63f 86fd 9c3d

static_variable_selection.single_variable_grns.processed_correction_value_scale.resample_norm.norm.weight f4 [16]
1.08952 0.61175406 6.119243 1.1117979 1.0866797 2.2157855 1.0057712 1.3545067
0.07055757 2.0957997 1.0228415 2.6713552 -0.0885433 1.1441637 3.3350601 2.3908195
00000000: 6475 8b3f ea9b 1c3f d7d0 c340 654f 8e3f
00000010: 5218 8b3f 6ecf 0d40 1cbd 803f 7a60 ad3f
00000020: 7d80 903d 9521 0640 78ec 823f 7cf7 2a40
00000030: 3156 b5bd f573 923f a071 5540 3003 1940

static_variable_selection.single_variable_grns.processed_correction_value_scale.resample_norm.norm.bias f4 [16]
0.13720177 0.035500772 -3.7667954 -1.0468829 0.09337506 1.6993842 0.044932477 -0.93132085
0.8347722 -1.5672976 -0.18434627 1.9520764 -0.983404 0.014000623 1.9004124 1.7068835
00000000: 9f7e 0c3e 4269 113d 2d13 71c0 4200 86bf
00000010: 6c3b bf3d 6c85 d93f 1e0b 383d 0b6b 6ebf
00000020: a2b3 553f 359d c8bf 45c5 3cbe a4dd f93f
00000030: 5dc0 7bbf de62 653c b740 f33f 297b da3f

static_variable_selection.single_variable_grns.processed_correction_value_scale.fc1.weight f4 [8, 8]
1.5394809 0.78231025 -0.7341056 -0.6293436 1.9400477 -0.9368551 -1.0107925 -1.0406483
-0.04644878 1.7147837 -0.16318715 -0.26086232 -0.22566752 -0.9797251 -0.71950924 -1.3805193
1.3016284 0.7483064 -0.65388703 -0.037903246 0.9558302 -1.4466429 -0.77643156 -1.276994
0.94064987 0.48346514 -0.5835514 0.088155106 1.657342 -1.3472173 -0.7126586 -0.6577061
0.56360924 0.43632585 0.6037608 -0.7058867 1.533705 -1.4246888 -0.9652748 -0.4048456
2.487019 0.88434815 -1.4128277 -0.80724394 2.6927314 -0.029573373 -1.146644 -2.0905914
1.6719909 0.20744506 -0.4125844 -0.50686526 1.407907 -1.4877619 -0.5584581 -0.3722366
1.8012192 1.4195175 -0.28198564 -0.91414976 1.4478016 -0.16436058 -0.3803785 0.03999553
00000000: b60d c53f 7c45 483f 58ee 3bbf aa1c 21bf
00000010: 7c53 f83f bcd5 6fbf a661 81bf f733 85bf
00000020: 1341 3ebd 087e db3f 881a 27be bf8f 85be
00000030: 6315 67be 44cf 7abf c231 38bf dbb4 b0bf
00000040: c29b a63f 0291 3f3f 2465 27bf 6f40 1bbd
00000050: 4ab1 743f 982b b9bf 38c4 46bf 8a74 a3bf
00000060: 6ece 703f be88 f73e a063 15bf aa8a b43d
00000070: c823 d43f 9e71 acbf cb70 36bf 6d5f 28bf
00000080: b248 103f 1a66 df3e 1190 1a3f feb4 34bf
00000090: 7250 c43f 345c b6bf 401c 77bf ec47 cfbe
000000a0: 522b 1f40 a464 623f 8ad7 b4bf 8aa7 4ebf
000000b0: b655 2c40 dc43 f2bc 3bc5 92bf 40cc 05c0
000000c0: cc03 d63f 7a6c 543e 433e d3be ecc1 01bf
000000d0: 4c36 b43f fb6e bebf 1cf7 0ebf cc95 bebe
000000e0: 5a8e e63f c0b2 b53f 6c60 90be b805 6abf
000000f0: 9051 b93f 244e 28be f9c0 c2be 5ad2 233d

static_variable_selection.single_variable_grns.processed_correction_value_scale.fc1.bias f4 [8]
-1.4695714 -0.89194864 -1.2070806 -1.1363797 -0.54505783 -1.9245641 -0.87784505 -1.2028897
00000000: ea1a bcbf bf56 64bf 9e81 9abf e474 91bf
00000010: e988 0bbf 1e58 f6bf 74ba 60bf 4af8 99bf

static_variable_selection.single_variable_grns.processed_correction_value_scale.fc2.weight f4 [8, 8]
-1.0188913 -1.325784 0.63107157 -0.65460545 2.9278867 -1.1830847 2.8899183 -0.60025007
0.9663472 1.8338137 -0.17648871 0.18583438 -1.9209235 0.0066924277 -1.158365 1.2235963
-0.27149123 -0.13413477 0.45832446 -2.455245 0.3338666 2.4507942 -0.8529968 -1.5338249
-1.1618955 -0.16590206 -0.28422263 -0.95732754 2.6540484 -0.73676896 1.1176846 -0.7544756
-0.11903999 -2.1917667 -0.5697701 0.8636676 1.4961178 -1.5597289 3.3325405 1.3297052
0.6306584 0.18933329 0.75269616 2.3903837 -4.066057 0.62328506 -1.1954589 2.878396
0.5732456 -1.9557515 0.04407066 0.40393054 0.09691601 -0.2058911 0.44035137 0.20746757
0.50216126 -0.15895203 0.35816917 -0.1285479 -1.1489661 0.8226348 -1.3962834 -0.40826237
00000000: 086b 82bf 4ab3 a9bf e88d 213f 3994 27bf
00000010: 7f62 3b40 526f 97bf 6cf4 3840 fda9 19bf
00000020: 8862 773f 68ba ea3f 75b9 34be 5e4b 3e3e
00000030: d2e0 f5bf 274c db3b 4e45 94bf ce9e 9c3f
00000040: e600 8bbe a05a 09be 81a9 ea3e bc22 1dc0
00000050: 90f0 aa3e d0d9 1c40 005e 5abf 6054 c4bf
00000060: feb8 94bf 3be2 29be a185 91be 6b13 75bf
00000070: eedb 2940 e49c 3cbf 4a10 8f3f 5025 41bf
00000080: 3dcb f3bd e845 0cc0 74dc 11bf 5219 5d3f
00000090: ca80 bf3f 32a5 c7bf 5848 5540 c833 aa3f
000000a0: d472 213f 96e0 413e b2b0 403f 0cfc 1840
000000b0: 241d 82c0 9c8f 1f3f cc04 99bf a437 3840
000000c0: 39c0 123f 1156 fabf 7083 343d fccf ce3e
000000d0: e77b c63d 1ed5 52be bc75 e13e 6172 543e
000000e0: a48d 003f 52c4 22be f361 b73e 10a2 03be
000000f0: 5211 93bf 3298 523f 6ab9 b2bf c407 d1be

static_variable_selection.single_variable_grns.processed_correction_value_scale.fc2.bias f4 [8]
0.29851824 -0.07923031 2.3419468 0.5174734 -0.3263449 -2.4290373 -0.25217503 -0.29125023
00000000: 62d7 983e 8043 a2bd 75e2 1540 2379 043f
00000010: ae16 a7be 5975 1bc0 161d 81be c01e 95be

static_variable_selection.single_variable_grns.processed_correction_value_scale.gate_norm.glu.fc.weight f4 [32, 8]
-1.5150316 -0.8227838 0.5423207 1.004224 2.408811 -3.1394544 0.51036423 0.23539193
0.37041718 0.4085607 -2.0020885 1.0212302 -0.7839125 1.6432313 -0.030941833 -0.11104749
0.11819132 2.2724464 1.2523733 -3.858057 -7.3684235 3.4182706 1.6366212 2.2793963
1.0879734 0.22960095 0.35602883 -0.012133146 -1.4279542 0.5848912 -0.21791524 0.57871985
0.8445833 -0.68408036 1.3710356 0.5544228 -0.75550836 -1.0865977 -0.39800024 0.19886881
-5.238928 3.2140033 -2.0292456 -2.2226858 -0.35319418 3.368468 1.8202221 1.7183733
-0.27756682 -0.73098516 -0.1943356 0.26917994 2.1903515 -0.44938388 -0.37642324 -1.101543
2.0415387 -1.4069699 -0.2888391 1.0077492 0.17460302 -1.0264169 -0.3337419 -0.9936559
-1.2586278 0.40875188 -1.1407688 0.027816484 0.5346441 0.16067825 0.2262985 0.21018766
2.2324133 -1.3992872 -1.514837 0.8473586 2.1686358 -0.55652785 -1.1369865 -1.321219
0.8320658 -0.8571413 -0.3746874 0.83459747 1.5851088 -0.5884853 -0.90467846 -0.8786619
-1.612154 0.015617185 1.8272736 0.41574794 -0.74109054 -0.7555774 0.05187445 0.8628005
1.5321469 -0.5915157 -0.40461755 0.31686538 -0.25871462 -0.81813145 0.2892875 -0.31395233
-0.9508048 0.005523483 -1.7684681 0.34820104 1.6798617 -0.06618412 -0.06952942 0.067366704
-1.2772001 -0.44107443 3.755744 0.3086133 -1.5386306 -1.8327619 0.002653353 1.5598623
0.13024896 0.15267801 -0.2853458 0.2799413 0.7016917 0.19530115 -0.052753747 -0.41521746
1.8398086 -0.37366438 -4.9464645 -0.29166192 4.2327604 4.3391676 -2.1326466 -2.108586
-1.2763653 -0.75863457 0.3428888 -0.8489598 5.193387 -1.3418555 -0.37844726 -0.5174968
1.3093857 -0.42988598 -0.84647113 0.044554725 0.77229345 0.12646122 -0.50741 -0.6594446
-0.67833984 0.028763019 0.14145884 -0.15605235 -0.25716388 -0.90413636 0.61444473 0.431131
1.3968909 -0.21637286 -0.6051652 0.066697255 0.28862673 0.19748345 -0.015615021 -0.24440971
3.4157388 -1.7328532 -3.0014186 1.9409665 2.9408438 -0.9244678 -1.0481545 -0.66342205
0.8250892 -0.15130562 -0.38607666 0.6318054 0.5114547 -0.09327805 -0.38012782 -0.42092985
0.41457242 -0.4359791 -0.76314545 0.2193862 0.5661736 0.24625674 0.034797885 -0.5675158
-0.9548768 0.020323105 -0.91702926 -0.14519526 1.3017092 0.6540232 -0.25142232 -0.7086877
1.0524782 0.45309603 -2.066019 -0.39467704 1.2914555 2.2398193 -0.42413655 -1.5386784
0.79328126 -0.41010803 -0.76596534 0.21507812 0.42032814 -0.229014 -0.04683032 -0.4997176
-0.82394594 0.42783314 0.6292247 0.16430081 -0.8034834 -0.031384367 0.46166077 0.71506155
0.3743142 0.23794872 0.17581372 0.09709513 -0.31942403 -0.44672874 -0.16413888 0.23517951
-0.093954265 -0.08539659 -0.8225868 0.31251082 0.33874276 0.3213354 0.095875174 0.14464028
-0.021088824 -0.56960833 1.7054119 0.55946124 0.21422337 -1.2130641 -0.63971794 -0.01085644
0.12758678 0.015630461 -1.0177189 0.11506314 0.49521676 0.492405 0.16201706 0.037490226
00000000: 8eec c1bf f6a1 52bf 88d5 0a3f 698a 803f
00000010: f629 1a40 d2ec 48c0 3ba7 023f 950a 713e
00000020: 52a7 bd3e de2e d13e 3822 00c0 acb7 823f
00000030: 7dae 48bf 6755 d23f ba79 fdbc de6c e3bd
00000040: 4a0e f23d c36f 1140 c54d a03f 68ea 76c0
00000050: 20ca ebc0 f2c4 5a40 ce7c d13f a1e1 1140
00000060: b642 8b3f 831c 6b3e 6949 b63e 1aca 46bc
00000070: 34c7 b6bf 6ebb 153f 2c25 5fbe fc26 143f
00000080: 9c36 583f e41f 2fbf 187e af3f a7ee 0d3f
00000090: ff68 41bf a215 8bbf b0c6 cbbe 44a4 4b3e
000000a0: 4ca5 a7c0 3bb2 4d40 29df 01c0 7c40 0ec0
000000b0: ded5 b4be fb94 5740 0afd e83f a8f3 db3f
000000c0: 3d1d 8ebe d821 3bbf e9ff 46be f4d1 893e
000000d0: b82e 0c40 a515 e6be 8cba c0be 5cff 8cbf
000000e0: 92a8 0240 9717 b4bf b8e2 93be edfd 803f
000000f0: 22cb 323e a161 83bf 38e0 aabe 3c60 7ebf
00000100: b71a a1bf ed47 d13e b604 92bf 65df e33c
00000110: 70de 083f d788 243e cbba 673e 6f3b 573e
00000120: dcdf 0e40 d81b b3bf 2ee6 c1bf 7eec 583f
00000130: eeca 0a40 9c78 0ebf c688 91bf b41d a9bf
00000140: 4402 553f 9d6d 5bbf 07d7 bfbe 2ea8 553f
00000150: d8e4 ca3f f9a6 16bf 0299 67bf fcef 60bf
00000160: 105b cebf 39df 7f3c 1ae4 e93f eadc d43e
00000170: 1cb8 3dbf 856d 41bf 4e7a 543d 7ee0 5c3f
00000180: 641d c43f 936d 17bf 082a cfbe 2e3c a23e
00000190: 3e76 84be 1071 51bf 7e1d 943e 5cbe a0be
000001a0: f267 73bf 55fe b43b 2a5d e2bf 6847 b23e
000001b0: b505 d73f 8a8b 87bd 7165 8ebd 8ef7 893d
000001c0: 4b7b a3bf 82d4 e1be 1c5e 7040 9002 9e3e
000001d0: d9f1 c4bf f197 eabf e0e3 2d3b 91a9 c73f
000001e0: fc5f 053e a057 1c3e d818 92be 7754 8f3e
000001f0: 11a2 333f 06fd 473e 5014 58bd 6297 d4be
00000200: d97e eb3f f050 bfbe 7049 9ec0 b654 95be
00000210: c672 8740 76da 8a40 487d 08c0 13f3 06c0
00000220: f05f a3bf e035 42bf 1f8f af3e 6e55 59bf
00000230: 3a30 a640 ecc1 abbf d7c3 c1be ac7a 04bf
00000240: f399 a73f 041a dcbe 55b2 58bf 047f 363d
00000250: 06b5 453f 0d7f 013e 9fe5 01bf 5cd1 28bf
00000260: aea7 2dbf 6ca0 eb3c 96da 103e 30cc 1fbe
00000270: fcaa 83be 7b75 67bf 404c 1d3f 34bd dc3e
00000280: 52cd b23f d990 5dbe 1bec 1abf 9298 883d
00000290: e2c6 933e 1a39 4a3e 25d6 7fbc 8a46 7abe
000002a0: 779b 5a40 22ce ddbf 3e17 40c0 9771 f83f
000002b0: c936 3c40 eca9 6cbf ed29 86bf 07d6 29bf
000002c0: 0c39 533f dcef 1abe d7ab c5be 00be 213f
000002d0: b2ee 023f 9008 bfbd 1da0 c2be 1e84 d7be
000002e0: d642 d43e a738 dfbe 805d 43bf c7a6 603e
000002f0: c1f0 103f ba2a 7c3e 3a88 0e3d b748 11bf
00000300: ce72 74bf a47c a63c 6ec2 6abf 11ae 14be
00000310: 689e a63f 106e 273f 6dba 80be 8f6c 35bf
00000320: 9bb7 863f 34fc e73e a839 04c0 1c13 cabe
00000330: 6a4e a53f 3359 0f40 6d28 d9be 6af3 c4bf
00000340: 7b14 4b3f aef9 d1be 4e16 44bf 703d 5c3e
00000350: 4035 d73e a582 6abe 26d1 3fbd fcda ffbe
00000360: 1fee 52bf f20c db3e df14 213f 793e 283e
00000370: 17b1 4dbf e58c 00bd cd5e ec3e 460e 373f
00000380: 1ca6 bf3e d4a8 733e 8308 343e d0d9 c63d
00000390: 8c8b a3be a1b9 e4be 0614 28be e6d2 703e
000003a0: 186b c0bd 68e4 aebd 0c95 52bf 6b01 a03e
000003b0: b16f ad3e 1386 a43e 345a c43d 951c 143e
000003c0: 78c2 acbc dad1 11bf f04a da3f da38 0f3f
000003d0: 5f5d 5b3e af45 9bbf 8ec4 23bf 36df 31bc
000003e0: 1ca6 023e 740b 803c 9d44 82bf 39a6 eb3d
000003f0: 0d8d fd3e 821c fc3e cde7 253e 5a8f 193d

static_variable_selection.single_variable_grns.processed_correction_value_scale.gate_norm.glu.fc.bias f4 [32]
1.9096003 -0.26243404 -3.5104146 -0.42703038 0.1674448 0.52113926 1.1574128 -0.1667439
0.775334 -1.59254 0.11372 1.6140645 -1.0384512 0.63375413 1.3829681 0.588826
-3.3534625 0.94908726 -0.36867446 0.4963392 -0.4433042 1.4152321 -0.36346957 -0.046764664
0.055658877 -2.5126219 -0.25732636 0.28716505 -0.22393286 0.3998842 0.98150235 -0.15154108
00000000: c86d f43f c15d 86be a2aa 60c0 baa3 dabe
00000010: a676 2b3e 6269 053f 1a26 943f eabe 2abe
00000020: 4a7c 463f 5ad8 cbbf 08e6 e83d aa99 ce3f
00000030: f8eb 84bf b63d 223f 1905 b13f 4dbd 163f
00000040: 219f 56c0 62f7 723f e6c2 bcbe 2c20 fe3e
00000050: c5f8 e2be 5326 b53f af18 babe 4e8c 3fbd
00000060: 90fa 633d ccce 20c0 48c0 83be 4c07 933e
00000070: a84e 65be 9fbd cc3e bd43 7b3f 962d 1bbe

static_variable_selection.single_variable_grns.processed_correction_value_scale.gate_norm.add_norm.norm.weight f4 [16]
-0.5909958 -0.24132952 4.589018 1.1914659 0.9518566 -0.5133605 1.0887948 1.0449808
-0.23549314 0.89630127 1.115737 2.464899 0.5581886 1.6148357 2.258729 1.3573083
00000000: 804b 17bf 161f 77be 3cd9 9240 f481 983f
00000010: e0ac 733f 986b 03bf a15d 8b3f eec1 853f
00000020: 1d25 71be 0074 653f 78d0 8e3f e8c0 1d40
00000030: 73e5 0e3f f0b2 ce3f 048f 1040 47bc ad3f

static_variable_selection.single_variable_grns.processed_correction_value_scale.gate_norm.add_norm.norm.bias f4 [16]
-0.141902 -0.75464153 -3.755318 -2.2473316 -0.008108221 1.3070059 0.3752598 -0.65838647
1.7405825 0.24997702 0.035961047 1.7489204 0.17206876 1.0889621 1.4442506 1.1643627
00000000: c24e 11be 3030 41bf 2157 70c0 48d4 0fc0
00000010: 58d8 04bc f84b a73f 0d22 c03e 048c 28bf
00000020: 68cb de3f faf9 7f3e e44b 133d a0dc df3f
00000030: cb32 303e 1c63 8b3f 34dd b83f d609 953f

static_variable_selection.prescalers.encoder_length.weight f4 [8, 1]
0.53418225 0.10802547 0.10634506 0.23373781 0.3906206 0.78929746 0.2717111 0.54978716
00000000: 2bc0 083f 753c dd3d 70cb d93d f758 6f3e
00000010: 6cff c73e 660f 4a3f b81d 8b3e dabe 0c3f

static_variable_selection.prescalers.encoder_length.bias f4 [8]
1.2735826 -2.915841 0.024915911 1.3809445 -0.7329048 0.42704025 0.58518076 0.22383347
00000000: c104 a33f 249d 3ac0 741c cc3c cac2 b03f
00000010: a69f 3bbf 05a5 da3e 68ce 153f 9a34 653e

static_variable_selection.prescalers.processed_correction_value_center.weight f4 [8, 1]
-0.37214908 0.50431657 -0.026458614 -0.6758205 0.4943543 0.06959568 -0.14320612 -0.9617145
00000000: 538a bebe e41a 013f bcbf d8bc 9302 2dbf
00000010: 021c fd3e 2e88 8e3d a0a4 12be ec32 76bf

static_variable_selection.prescalers.processed_correction_value_center.bias f4 [8]
-0.22390744 0.37049827 -0.12159313 0.4787049 -0.8896868 1.2077501 1.5755244 1.4440969
00000000: fe47 65be f3b1 bd3e d205 f9bd cf18 f53e
00000010: 84c2 63bf 8e97 9a3f c9aa c93f 2bd8 b83f

static_variable_selection.prescalers.processed_correction_value_scale.weight f4 [8, 1]
-0.118896365 -0.99653196 -0.39054477 -0.08111668 -0.921665 0.7873204 0.28472787 0.7587029
00000000: f07f f3bd b81c 7fbf 7cf5 c7be 8020 a6bd
00000010: 3df2 6bbf d48d 493f dac7 913e 5a3a 423f

static_variable_selection.prescalers.processed_correction_value_scale.bias f4 [8]
-0.2758075 -1.4763138 -0.22787043 0.4651047 -0.9820994 1.0389736 0.63485247 0.6055304
00000000: a436 8dbe daf7 bcbf de56 69be 3422 ee3e
00000010: de6a 7bbf 16fd 843f b185 223f 0a04 1b3f

encoder_variable_selection.flattened_grn.resample_norm.mask f4 [5]
-0.6300081 0.7212328 -0.35855162 0.53551507 0.40434676
00000000: 3648 21bf b6a2 383f 1494 b7be 8417 093f
00000010: 8a06 cf3e

encoder_variable_selection.flattened_grn.resample_norm.norm.weight f4 [5]
-0.6338749 0.25385526 2.9258618 0.71288335 1.9539418
00000000: a045 22bf 51f9 813e 5241 3b40 867f 363f
00000010: c41a fa3f

encoder_variable_selection.flattened_grn.resample_norm.norm.bias f4 [5]
-1.1704934 -1.2591032 3.5996318 -0.5400939 -0.63264424
00000000: bad2 95bf 4b2a a1bf 5e60 6640 9843 0abf
00000010: f9f4 21bf

encoder_variable_selection.flattened_grn.fc1.weight f4 [5, 40]
0.26088196 -0.17587912 -0.027777717 -0.08032161 0.028513987 -0.075927794 0.7930033 0.7566273
-0.5107361 -0.43322212 0.7549223 -0.04870489 -0.04962685 -0.30675042 0.34633586 -0.48550487
0.12682173 0.19437575 0.25207138 0.035386037 -0.34452373 0.43664995 0.24256884 0.6891948
0.43720555 0.2830143 -0.17041177 -0.53902847 0.23134652 0.063370585 -0.706024 0.5800264
-0.0013724944 -0.35739094 -1.0513978 -0.63476735 -0.57575387 0.036417175 0.2790444 1.1705246
-0.75572294 -0.0044967392 -1.1571018 -0.2657718 -0.01673774 0.315521 1.4445394 0.5623677
-0.42518893 -0.092892416 0.4310645 -0.80420935 -0.76186717 -0.7317858 0.42395717 0.8936039
1.0292493 -1.3085132 0.38825488 0.74679244 -0.9180157 0.87834144 0.7954215 1.2479718
1.2155985 1.6568096 -0.5362006 -0.9185269 0.80697304 1.1862574 -1.6953872 0.4132802
-0.83852124 -0.7656848 -0.7308713 -0.45842582 -1.2243693 0.034486946 -0.4414238 1.377231
-0.4173838 2.1081529 2.811057 -0.6526594 -1.946539 -1.2708611 1.2713519 -1.7401116
1.3385463 -0.49480382 -0.24314857 1.1504552 1.2664218 0.9075022 -0.35019517 -0.69841695
-1.2366451 -0.9834907 -1.160783 -0.7960721 1.4516085 -1.9399371 -1.8928409 -0.26877898
-1.0687206 0.72243917 -0.63382804 0.80184436 0.555057 0.7980026 1.9501588 -2.3336153
-0.049593005 0.25953722 0.34465396 0.43407172 0.93540347 0.72479236 -0.3353622 0.14909047
-0.64612114 -0.08224827 -0.429219 -0.31196547 0.021648861 0.097012505 0.24148595 0.10781811
-0.029170098 -0.11972661 0.23298253 -0.4194863 -0.38804245 -0.36049354 0.19884735 -0.038230605
0.6700177 -0.80693185 0.074202806 -0.016448118 -0.26222867 0.29317534 0.31639016 0.079150274
0.6013298 0.86012125 -0.2315065 -0.39128333 0.40496528 0.32911518 -0.6574199 0.14815691
-0.08249235 -0.5859653 -0.86428285 -0.24828851 0.046165437 0.14591122 0.102087796 0.5612712
0.6718836 -0.33444434 -1.5393713 0.16520683 0.88267094 0.19697309 0.06636087 0.13799867
0.26608172 -0.23845169 0.09196247 -0.42062038 -0.66309935 -0.5050417 0.28652936 -0.06993361
0.64602137 0.2172268 0.24310596 0.0176441 -0.19534731 1.3659308 1.0719314 0.33802432
0.45994407 -0.016963277 0.23823446 -0.4050787 0.07373804 0.3278628 -1.116127 0.57911325
0.46840093 -1.1735406 -1.8428698 -1.8221977 0.66534936 0.38627377 0.47902083 1.0897591
00000000: 5292 853e a819 34be 188e e3bc a87f a4bd
00000010: 2a96 e93c 0880 9bbd 4402 4b3f 54b2 413f
00000020: 9abf 02bf 4acf ddbe 9642 413f c77e 47bd
00000030: 8645 4bbd 640e 9dbe ef52 b13e 1894 f8be
00000040: 8edd 013e 700a 473e 800f 813e f3f0 103d
00000050: 6a65 b0be 9590 df3e f763 783e 126f 303f
00000060: 68d9 df3e 40e7 903e 6c80 2ebe c5fd 09bf
00000070: 1ae6 6c3e 70c8 813d fdbd 34bf 9c7c 143f
00000080: 45e5 b3ba f2fb b6be 3494 86bf 1d80 22bf
00000090: 9b64 13bf 2d2a 153d e8de 8e3e c0d3 953f
000000a0: 0f77 41bf 6259 93bb e91b 94bf 3e13 88be
000000b0: 961d 89bc f88b a13e abe6 b83f 54f7 0f3f
000000c0: 5db2 d9be 613e bebd 7cb4 dc3e aae0 4dbf
000000d0: ba09 43bf 5056 3bbf ea10 d93e 3ac3 643f
000000e0: 71be 833f 5c7d a7bf 58c9 c63e ca2d 3f3f
000000f0: 1403 6bbf fcda 603f bea0 4b3f 8abd 9f3f
00000100: bb98 9b3f 5612 d43f 7144 09bf 9424 6bbf
00000110: c995 4e3f 48d7 973f 7302 d9bf 7699 d33e
00000120: 54a9 56bf eb03 44bf 621a 3bbf cab6 eabe
00000130: 22b8 9cbf 2f42 0d3d 4d02 e2be 1b49 b03f
00000140: 54b3 d5be faeb 0640 5ce8 3340 b014 27bf
00000150: 3128 f9bf 94ab a2bf a9bb a23f fabb debf
00000160: 7c55 ab3f ed56 fdbe f0fb 78be 1e42 933f
00000170: 1c1a a23f 1052 683f c84c b3be 74cb 32bf
00000180: 634a 9ebf 0cc6 7bbf 8a94 94bf 62cb 4bbf
00000190: 4fce b93f dc4f f8bf 9c48 f2bf 669d 89be
000001a0: d6cb 88bf c6f1 383f 8e42 22bf ac45 4d3f
000001b0: 3718 0e3f e649 4c3f ce9e f93f f459 15c0
000001c0: 0922 4bbd 10e2 843e 7c76 b03e a63e de3e
000001d0: 9a76 6f3f fe8b 393f 98b4 abbe 2cab 183e
000001e0: 3268 25bf c871 a8bd 98c2 dbbe f0b9 9fbe
000001f0: f458 b13c 7eae c63d 1848 773e becf dc3d
00000200: 21f6 eebc 3a33 f5bd f992 6e3e e9c6 d6be
00000210: 80ad c6be 9c92 b8be a49e 4b3e b297 1cbd
00000220: 4886 2b3f 1693 4ebf a4f7 973d 34be 86bc
00000230: d642 86be 141b 963e e4fd a13e 8a19 a23d
00000240: c0f0 193f e830 5c3f 0a10 6dbe 4a56 c8be
00000250: 9c57 cf3e c981 a83e ac4c 28bf 72b6 173e
00000260: c0f1 a8bd d201 16bf a441 5dbf 583f 7ebe
00000270: f817 3d3d c069 153e 6813 d13d 78af 0f3f
00000280: 9000 2c3f 4a3c abbe 1e0a c5bf fb2b 293e
00000290: b9f6 613f 50b3 493e 35e8 873d 864f 0d3e
000002a0: dd3b 883e ae2c 74be d256 bc3d 8e5b d7be
000002b0: e1c0 29bf 6a4a 01bf fab3 923e 5a39 8fbd
000002c0: a861 253f b470 5e3e c5f0 783e 5c8a 903c
000002d0: 2009 48be d2d6 ae3f 0c35 893f 8611 ad3e
000002e0: ca7d eb3e 92f6 8abc bcf3 733e 7a66 cfbe
000002f0: f803 973d a2dd a73e 40dd 8ebf c440 143f
00000300: 3fd2 ef3e 9436 96bf 28e3 ebbf c63d e9bf
00000310: 5654 2a3f adc5 c53e 3842 f53e 3a7d 8b3f

encoder_variable_selection.flattened_grn.fc1.bias f4 [5]
-0.3233739 -1.378709 0.56546843 -0.48924333 -0.51001227
00000000: 4491 a5be 8979 b0bf 8ac2 103f 1a7e fabe
00000010: 2a90 02bf
