optuna_test/trial_1/epoch=0.ckpt (torch, 379286 bytes, 687 tensors)

prescalers.encoder_length.weight f4 [8, 1]
00000000: 2768 033f 2a81 7c3f 8453 7e3f 4778 913e
00000010: 6fc7 3dbf 2669 2dbf bdb0 68be 397e 313f
0.513308 0.9863459 0.99346185 0.28412077 -0.74132437 -0.6773857 -0.2272367 0.69333225

prescalers.encoder_length.bias f4 [8]
00000000: 9d2a 783f ba1a 7e3f 9898 12bf bc5f 0ebf
00000010: 105a d63d beb1 7fbf a052 1ebf 33dd 7ebf
0.9694002 0.9925953 -0.5726409 -0.5561483 0.10466397 -0.9988059 -0.61844826 -0.99556273

prescalers.processed_correction_value_center.weight f4 [8, 1]
00000000: 38fd 753f 68b4 3dbf de5b 04bf f8e7 2a3e
00000010: cc82 ddbe 885f 8dbe 700b 383f c2ce 083f
0.96089506 -0.74103403 -0.5170268 0.16690052 -0.43263853 -0.27611947 0.7189245 0.5344049

prescalers.processed_correction_value_center.bias f4 [8]
00000000: cad8 683f 4066 a4be b2a7 50bf 977b 633f
00000010: 66cd 77bf 9a27 01bf 24a1 19be 9b6f 13bf
0.90955794 -0.3210926 -0.8150588 0.8886046 -0.9679779 -0.5045105 -0.15002877 -0.5759217

prescalers.processed_correction_value_scale.weight f4 [8, 1]
00000000: d857 393f d098 ae3d 6c8c 313f e89d f6be
00000010: 5061 17bf c46a b5be e0b0 5bbd c059 90be
0.72399664 0.085252404 0.6935489 -0.48167348 -0.5913286 -0.35433018 -0.053635478 -0.28193474

prescalers.processed_correction_value_scale.bias f4 [8]
00000000: e420 183f b572 32bd a9a7 29bf c444 513f
00000010: 1163 61bf 7d50 443f 92a1 803e bf84 c93e
0.5942519 -0.043566424 -0.66271454 0.81745553 -0.8804179 0.76685315 0.25123268 0.3935909

prescalers.time_idx.weight f4 [8, 1]
00000000: 65bf 713e 2402 f5bd 1b60 cebe 2a15 65be
00000010: 2cb1 9c3e 1555 82be 3a51 f7bd 6ba1 643f
0.23608167 -0.11963299 -0.40307698 -0.22371355 0.3060392 -0.25455537 -0.120760396 0.89308804

prescalers.time_idx.bias f4 [8]
00000000: 6dc1 0fbf 4ee7 e83e a84d 46bf b2e0 bd3e
00000010: 762d f8be 85b7 09bf 2870 3a3e b917 3abe
-0.5615452 0.4548897 -0.77462244 0.3708549 -0.48472184 -0.53795654 0.18206847 -0.18173112

prescalers.relative_time_idx.weight f4 [8, 1]
00000000: 73be 503e 08fe 3c3f 4024 063f e84a f23e
00000010: f7cf 4d3f 9394 06be 9bf5 223f 1c9f 54bf
0.2038515 0.7382512 0.52399063 0.47322774 0.80395454 -0.13142614 0.63656014 -0.8305528

prescalers.relative_time_idx.bias f4 [8]
00000000: 7e2c a6be f30e 543f a318 773e 502c 423f
00000010: ae56 013f 8be3 b03e a189 05bf 52bc 13bf
-0.3245582 0.8283531 0.24130492 0.75848866 0.5052289 0.34548602 -0.5216313 -0.5770923

prescalers.processed_broadcast_clock_bias.weight f4 [8, 1]
00000000: cda2 01bf d0cf 47bf 423c b53e 6718 543f
00000010: 8314 2f3f 80c9 a03e d3cf 703f fcef 5bbe
-0.5063904 -0.7805147 0.35397536 0.82849735 0.68390673 0.31403732 0.94067115 -0.21478266

prescalers.processed_broadcast_clock_bias.bias f4 [8]
00000000: 9da7 6dbe 959d 103e ce50 db3e d51b 2c3f
00000010: b8b6 88be b10a 0abf bc8c 8ebd d42f 2cbf
-0.2320847 0.14122613 0.42835087 0.6722997 -0.26701903 -0.53922564 -0.06960437 -0.6726048

prescalers.processed_final_clock_bias.weight f4 [8, 1]
00000000: d08c 7c3f ee6a 9b3d 1e8e dd3d c790 5b3f
00000010: 507b 303e a851 923e 23b9 453e d6fb 323f
0.9865236 0.075887546 0.10818122 0.8576779 0.1723454 0.28577924 0.19308905 0.6991552

prescalers.processed_final_clock_bias.bias f4 [8]
00000000: 4826 9cbe 337d d13e a010 7dbf c256 6bbf
00000010: 17cc bbbe 2cd1 89be d997 9cbe cf7e 32be
-0.30497956 0.40915832 -0.9885349 -0.91929257 -0.36679146 -0.26917398 -0.305846 -0.17431186

prescalers.processed_correction_value.weight f4 [8, 1]
00000000: 61e3 d83e dd68 c4be e62f 41bf dedb b1be
00000010: 1a09 8dbe 816c 4ebf 45a8 1abf 31d2 7dbe
0.42360976 -0.38361254 -0.7546371 -0.34738058 -0.27546006 -0.80634314 -0.6041301 -0.24787213

prescalers.processed_correction_value.bias f4 [8]
00000000: 80be febd 2415 223f 64ac 603e fccb 73bf
00000010: cb60 1e3e a3ff 03bb 1eb8 f2be 4b41 613f
-0.12438679 0.6331351 0.21940762 -0.9523313 0.15466611 -0.0020141385 -0.47406095 0.87990254

static_variable_selection.flattened_grn.resample_norm.mask f4 [3]
00000000: 876f 61b6 79ae 7234 c844 5236
-3.359253e-06 2.2601479e-07 3.1332474e-06

static_variable_selection.flattened_grn.resample_norm.norm.weight f4 [3]
00000000: c4ff 7f3f 3c00 803f c4ff 7f3f
0.9999964 1.0000072 0.9999964

static_variable_selection.flattened_grn.resample_norm.norm.bias f4 [3]
00000000: acf3 33b6 c049 fab6 0b21 2a37
-2.6814914e-06 -7.459166e-06 1.0140483e-05

static_variable_selection.flattened_grn.fc1.weight f4 [3, 24]
00000000: 96f4 d7bd 1a33 cebe 93ef 34be 3766 65be
00000010: 7a99 18bd 2698 7b3d a365 833e b809 463d
00000020: 2847 d33d 3b7f f7be 26ab acba 9f3f 5a3a
00000030: a6bd 383e a637 e9bd 9097 2bbd bd45 c63c
00000040: b301 8abe 8188 c2b8 b568 9fbe 79d5 f83e
00000050: 350b 63be fb39 e1be d8fd b03e deff 4c3e
00000060: 09e4 85bc 7f5c 20bd f7cd c23e 4adf c23d
00000070: 7f55 e43e 06ab 243e d346 a6be 3cc2 cebe
00000080: f2d7 ad3e 8031 8c3e 1873 edbe cc06 c6bd
00000090: b9bc 86be e161 923d e12c a9be 2652 8c3d
000000a0: 4527 9cbd fd21 f73e 4ebf 8d3e bc24 2ebd
000000b0: 2c6e 4d3f e3d7 0f3e a50e 103f b1d4 b4bd
000000c0: f26f b5be eba9 8fbe ef08 c43d ca35 f63d
000000d0: 61c2 2cbf 3dc8 01be 11a7 a33d 81dd d7be
000000e0: 82f5 dcbc b3f9 c5be 0977 903e f85c 39bc
000000f0: 4c53 403f 432d ed3d 5224 a03d 0c9e 06bf
00000100: eaf5 ebbe 76d0 9abe 1f84 abbe df3b e93e
00000110: 97c5 97bd a4ef cbbe 22be 64bd 7be9 f7be
-0.10544698 -0.40273362 -0.17669515 -0.22402273 -0.03725574 0.061424397 0.2566348 0.048349112
0.10316306 -0.48339257 -0.0013173565 0.00083255203 0.18041095 -0.11387567 -0.04189259 0.024203176
-0.2695442 -9.276067e-05 -0.31134573 0.48600367 -0.22172244 -0.43989548 0.34568667 0.2001948
-0.016344087 -0.03915071 0.38047764 0.09515245 0.44596478 0.16080865 -0.3247591 -0.40382564
0.33953816 0.27381516 -0.46376872 -0.09669265 -0.2631586 0.07147575 -0.33042052 0.06851606
-0.076246776 0.48268119 0.27685016 -0.0425155 0.80246234 0.14047198 0.56272346 -0.0882963
-0.3543697 -0.28059325 0.095720164 0.12021978 -0.674841 -0.12674041 0.0799085 -0.42161182
-0.026972536 -0.38667068 0.28215817 -0.011313669 0.751271 0.115808986 0.078194275 -0.5258491
-0.46086055 -0.30237168 -0.33499238 0.4555349 -0.07410734 -0.3983127 -0.055845387 -0.4842032

static_variable_selection.flattened_grn.fc1.bias f4 [3]
00000000: ce52 92b5 dc61 d035 4887 4835
-1.0901947e-06 1.5525688e-06 7.4702666e-07

static_variable_selection.flattened_grn.fc2.weight f4 [3, 3]
00000000: 5927 3c3f e094 bc3f 57e2 91be 362e 093f
00000010: 4dbe 003e 1dfc cdbe 3161 48bd 769b c93f
00000020: 5f02 17be
0.7349754 1.4732933 -0.28492996 0.5358614 0.12572594 -0.4023141 -0.048920814 1.5750568
-0.14746998

static_variable_selection.flattened_grn.fc2.bias f4 [3]
00000000: 2a5f 1536 4be8 eeb6 4420 c0b4
2.2258123e-06 -7.119995e-06 -3.5786263e-07

static_variable_selection.flattened_grn.gate_norm.glu.fc.weight f4 [6, 3]
00000000: da61 05bf fe81 1c3f a081 81bd 46a4 48bf
00000010: d363 393f 18d9 fdbe cabd 0cbf 33ad 4bbf
00000020: 9bde b3be 28ba e1be cb33 0dbf 2443 8abe
00000030: bf4b d1be c52c 3abe 8d51 c83e ae8f 123f
00000040: 91fa 0a3f 22bb 46bf
-0.52102435 0.6113585 -0.06323552 -0.7837566 0.72417945 -0.49579692 -0.54977095 -0.79561156
-0.35130772 -0.44087338 -0.55157155 -0.2700435 -0.40878102 -0.1818114 0.39124718 0.5725049
0.54288584 -0.7762929

static_variable_selection.flattened_grn.gate_norm.glu.fc.bias f4 [6]
00000000: 3e69 c6b5 b8d4 84b6 dc50 9d36 e87b 0db4
00000010: 77bd 2eb5 54a0 3135
-1.4782779e-06 -3.9586703e-06 4.688378e-06 -1.3176725e-07 -6.509576e-07 6.6170946e-07

static_variable_selection.flattened_grn.gate_norm.add_norm.norm.weight f4 [3]
00000000: 15fe 7f3f 92ff 7f3f a6ff 7f3f
0.99997073 0.99999344 0.99999464

static_variable_selection.flattened_grn.gate_norm.add_norm.norm.bias f4 [3]
00000000: 1dd9 b2b7 414a d536 ad10 7b37
-2.1320355e-05 6.356539e-06 1.49646485e-05

static_variable_selection.single_variable_grns.encoder_length.fc1.weight f4 [8, 8]
00000000: e912 0e3e 451b b7be 5a55 c0be 3425 113f
00000010: d097 023e e01e 133e bcbd c43e 7abd 4fbf
00000020: 1385 493f 96d3 56bd 4333 29be 60f3 18be
00000030: 4452 91be 50d2 873f af12 143e 90e8 073f
00000040: a3b6 2ebf 3abe 27bf dbd3 af3e ecd9 eebe
00000050: b857 863e dcec 2bbf 6624 26bf 0fd2 cdbe
00000060: dc56 12bf 2c69 223d c541 41be 9b8b 80be
00000070: a58c 9abd 2463 d63e 88f5 533e 88e3 90be
00000080: 6c8d e13e 11db 023f 5313 cf3e 6f56 e2be
00000090: fd37 07bf f521 0cbf f643 07be 1027 093f
000000a0: c1d5 613f 509f 2a3e 3e16 57bf adfb 813f
000000b0: 99bd d2be 9a11 a33d db7e bcbe 81d2 61be
000000c0: 5d83 b4be 50fe 463f 8af9 08bf cdcd 4f3e
000000d0: d8bd 26be 0c4c e2be 06cc b43d 103f ff3e
000000e0: e2bb d7be a787 a93e c892 733f de13 96bd
000000f0: 4607 e6bd 1df4 38be 2a6d a43d 3329 90be
0.13874401 -0.35762993 -0.37565118 0.5669739 0.12753224 0.14367247 0.38426006 -0.81148493
0.7871868 -0.052447878 -0.16523461 -0.1493659 -0.28383076 1.0611057 0.14460252 0.5308924
-0.6824743 -0.6552464 0.3434132 -0.46650636 0.262388 -0.67158294 -0.6489929 -0.40199324
-0.57163787 0.03965108 -0.18872745 -0.2510651 -0.07546357 0.41872513 0.20699131 -0.28298593
0.4405321 0.5111552 0.4044443 -0.4420657 -0.52819806 -0.54739314 -0.13209519 0.5357523
0.8821679 0.16662335 -0.84018314 1.015493 -0.41160277 0.079623416 -0.36815533 -0.22052957
-0.35256472 0.777318 -0.53505766 0.2029335 -0.16283357 -0.44198644 0.08827977 0.498528
-0.4213553 0.33111307 0.95145845 -0.07328008 -0.11231856 -0.18061872 0.08028634 -0.28156433

static_variable_selection.single_variable_grns.encoder_length.fc1.bias f4 [8]
00000000: 1f9c b936 f0f8 4137 0a1e 4137 821b 0c36
00000010: a20c 3f38 7ab8 2b38 d464 98b7 7f27 31b8
5.5316045e-06 1.1561657e-05 1.15106905e-05 2.0877637e-06 4.5549714e-05 4.0941384e-05 -1.8166764e-05 -4.2236872e-05

static_variable_selection.single_variable_grns.encoder_length.fc2.weight f4 [8, 8]
00000000: 1208 97bd 7fa1 be3e e6e5 bb3d 8fda 063f
00000010: a8d5 a4bd d045 b23d 7f0d 9d3e 0a70 c73e
00000020: 1816 f43e 5a7b 25bf a73b 60bf 3de9 173f
00000030: 7263 97bd b713 fa3e 41a2 3d3f 79f4 953e
00000040: ed07 e9bd ed38 64bd dd2d b4bd 369f 933e
00000050: e946 bc3e 4a99 ee3e 1aa3 edbe 8070 08bf
00000060: 5a31 e43e 17a1 03bf 2b2a 803e fae8 97be
00000070: 52bb 513d ce73 e2be b4f1 92bf 09bb 2dbd
00000080: 0802 cabe 17f2 45be 370b 68bf 6f55 27be
00000090: 4d76 8e3e d212 19bd b347 1dbf d1fa 0bbf
000000a0: bddc 5abf 22f7 79bf d739 85bc 4d24 74be
000000b0: 67c2 edbe 2acf c3be a9e2 23be b365 08bd
000000c0: d4b6 80be 7c88 3ebd e8ad 733e faa2 063f
000000d0: 1346 213e a65e 183f 40ea e5be a3cf b8be
000000e0: 9350 c1bc 361e 553f 36f1 803e c3f2 413e
000000f0: 1e0e 5e3f aae1 303f f8a7 513f b333 05bf
-0.07374586 0.37232587 0.09174709 0.52677244 -0.08048564 0.08704722 0.3067436 0.38952667
0.47673106 -0.64641345 -0.8759102 0.5934027 -0.073920146 0.48843166 0.74075705 0.2928808
-0.11378465 -0.05571835 -0.0879781 0.28832406 0.3677285 0.46601325 -0.464135 -0.5329666
0.44568902 -0.5141768 0.25032172 -0.29669935 0.051204033 -0.44228977 -1.1480012 -0.0424147
-0.39454675 -0.19330631 -0.9064211 -0.16341184 0.2782463 -0.037371464 -0.6143753 -0.5467959
-0.8549307 -0.9764272 -0.016262932 -0.23841973 -0.4643738 -0.3824399 -0.16004433 -0.033300113
-0.25139487 -0.04651688 0.23796809 0.5259243 0.15749387 0.5951942 -0.4490528 -0.36095914
-0.023597991 0.83249223 0.2518403 0.18940262 0.8674029 0.69094336 0.81896925 -0.5203201

static_variable_selection.single_variable_grns.encoder_length.fc2.bias f4 [8]
00000000: 4553 e1b7 ca29 7db6 0c87 0e38 5a36 2537
00000010: 2ecf 06b7 ed95 bcb7 6539 8237 984d bc37
-2.6860866e-05 -3.7724262e-06 3.398121e-05 9.847421e-06 -8.03526e-06 -2.2481161e-05 1.5523934e-05 2.2447479e-05

static_variable_selection.single_variable_grns.encoder_length.gate_norm.glu.fc.weight f4 [16, 8]
00000000: 7cd9 ff3e 3bce 64bd 843b ab3e 26c1 f2be
00000010: 8ef2 9fbe 56c3 acbc b482 e2be 5a24 653d
00000020: 8a95 a6be bfef 8b3e 875a 073e 857d 503e
00000030: c2af a83e d2cb a2bd 669e fb3e 54ee 2dbe
00000040: 48a8 ca3e 7d63 463e d97b dfbe db32 82be
00000050: ff16 af3e 7c00 f13e c2c1 d1be 1921 b3be
00000060: 8e33 c7be 6773 c3be 6c25 a23c aa6d d03d
00000070: 1ed2 d93d e794 d7be d4a9 d73e f102 d63e
00000080: e434 7cbe 4409 65be 3fd3 81be a1a9 fe3e
00000090: 5373 903d 7477 9cbd 2dd8 e6be 00c3 213d
000000a0: b99e 73be 98cc 04bd 0c33 adbc 7fec c6be
000000b0: 097b ee3e c126 fab9 e0cc 7fbd 3aba a6be
000000c0: 6c0f adbe 03e3 eb3d 5e77 be3e 9f08 ffbe
000000d0: 1205 5d3e 3a19 903e 2e07 d73d 860e ec3d
000000e0: de22 98bd 0ba1 a6be ab48 853e 9609 eebe
000000f0: ce33 b33e b110 c3be 3811 b8be db1e be3e
00000100: aa4f ccbe 3ae5 c23e ef79 e63e 10d2 7a3e
00000110: 9250 e5be 28fd 50be 20c2 db3e b06b d33d
00000120: 1051 3f3d 5ee6 f33e b050 0cbe 6289 5c3e
00000130: 9819 febd 042f a83e d6ed a7be 561d cfbe
00000140: 0c9e 973e 6e62 363e 9e80 dd3e 2b20 b93e
00000150: 8f22 943e ed65 d9be 59be 0abe 8fc1 393e
00000160: 38c2 cabd e0b4 363e 204d c2be 7f06 2bbe
00000170: 2ca6 1dbe 1ae3 62be c636 a13e 848c 313e
00000180: 934d c03c a0c0 113e 3f78 193e 74ab dc3e
00000190: c429 29be 3a8f 81be 94cc bcbe bab0 dcbd
000001a0: 1054 8f3e 8800 e73e 1b54 c73e 8772 45bd
000001b0: abe4 dfbd 3c35 cebe 00ab 4a3e a0e7 88bd
000001c0: 302a 94bd 70b6 873d 1ad3 093e 02c9 183e
000001d0: fe67 d8bd 7602 bfbd a7ef 81be e6e1 94bc
000001e0: 1299 b33d e7ed 5c3e 32e4 75bd 0e19 8dbe
000001f0: ddbd efbd 87f9 fdbd 88cb 5b3e 7f96 00be
0.49970615 -0.05586074 0.33443844 -0.47412986 -0.31239742 -0.021089237 -0.44240344 0.05594287
-0.32535964 0.2733135 0.13218127 0.20360382 0.32946593 -0.07949032 0.49144286 -0.16985446
0.39581513 0.1937389 -0.43649176 -0.25429425 0.34197232 0.47070682 -0.40968138 -0.3498619
-0.3890652 -0.38173983 0.019793235 0.10177167 0.1063578 -0.4210579 0.42121756 0.4179912
-0.24629551 -0.22366816 -0.2535648 0.49738792 0.07053246 -0.076399714 -0.45086804 0.039492607
-0.23791017 -0.03242168 -0.021142505 -0.38852307 0.46578243 -0.0004771259 -0.062451243 -0.32563955
-0.33800828 0.115179084 0.37200445 -0.49811265 0.21583965 0.28144246 0.10499416 0.115262076
-0.074285254 -0.3254474 0.26032004 -0.46491688 0.3500046 -0.38098672 -0.35950637 0.37132916
-0.3990453 0.3806551 0.45014903 0.24494195 -0.44788033 -0.20409071 0.42921543 0.10323274
0.046708167 0.47636694 -0.13702655 0.21536782 -0.12407225 0.3284837 -0.32798642 -0.4045207
0.29612768 0.17810985 0.4326219 0.36157355 0.28932616 -0.42460576 -0.13549174 0.18140243
-0.099003255 0.17842436 -0.37949467 -0.16701697 -0.15395421 -0.22156945 0.314871 0.17338759
0.02347449 0.14233637 0.14987276 0.43099558 -0.16519839 -0.25304586 -0.3687483 -0.107758954
0.27993822 0.45117593 0.38931355 -0.048204925 -0.10932287 -0.4027499 0.19791794 -0.06684804
-0.07234609 0.06626594 0.13459435 0.14920428 -0.1056671 -0.09326641 -0.25378153 -0.018174123
0.0876943 0.21575128 -0.060032077 -0.27558178 -0.117061354 -0.12401109 0.2146436 -0.1255741

static_variable_selection.single_variable_grns.encoder_length.gate_norm.glu.fc.bias f4 [16]
00000000: 2faa 6b36 57ab e8b3 e6ea 4bb8 b49c 8535
00000010: fcd6 c436 c6cc 4737 09c4 9e37 d90f 0fb7
00000020: 9363 e835 151b 6cb3 b336 6a37 cb5c 3c36
00000030: 7fb4 98b6 c7e7 b934 9690 9837 44af 06b7
3.5116789e-06 -1.08345084e-07 -4.8617738e-05 9.954879e-07 5.8662827e-06 1.1909002e-05 1.8926354e-05 -8.527154e-06
1.7314327e-06 -5.4972663e-08 1.39602225e-05 2.8068196e-06 -4.5509655e-06 3.4627575e-07 1.818714e-05 -8.02783e-06

static_variable_selection.single_variable_grns.encoder_length.gate_norm.add_norm.norm.weight f4 [8]
00000000: e7fb 7f3f 1afc 7f3f a702 803f cbff 7f3f
00000010: 9e00 803f 5b01 803f c8ff 7f3f 38fd 7f3f
0.9999375 0.9999405 1.000081 0.99999684 1.0000188 1.0000414 0.99999666 0.99995756

static_variable_selection.single_variable_grns.encoder_length.gate_norm.add_norm.norm.bias f4 [8]
00000000: 9d1b 43b8 ce61 58b8 bebf 14b9 7005 47b8
00000010: 08a7 9db7 c051 bdb7 a1e4 4d37 03bc 93b8
-4.651734e-05 -5.15895e-05 -0.0001418581 -4.745036e-05 -1.8793638e-05 -2.2568624e-05 1.2272184e-05 -7.044526e-05

static_variable_selection.single_variable_grns.processed_correction_value_center.fc1.weight f4 [8, 8]
00000000: 0df2 15bf 845f aa3f edab 463f 1362 463f
00000010: 2e5d 78be 3bab d6bd 5cfe 363f c055 bdbe
00000020: 4400 563f 32c0 ecbe e4b1 dbbe 6d0a 8ebe
00000030: 0381 293f ed18 40bf b6c6 d4bd d671 c73e
00000040: ed66 e9be 8fbd 82bd 08d4 433d 0792 a83d
00000050: 1c70 633f d183 9fbf 06fd a23e e8b2 d3be
00000060: 8a15 e83e a04d 8e3e eea2 2f3e fdaf 69bf
00000070: 8cc6 4b3e 6132 113f 8e1c d8be 7b96 463f
00000080: ec63 953f 04c1 fa3e d0ac 54bf 6795 cfbe
00000090: c3f3 123f 62e8 123f ba4e 8f3d 4c9e 5c3f
000000a0: 05e9 d0be bbbc 013f ecc7 7d3c 4e13 6bbf
000000b0: 25e5 1cbd f01d 4abf 061f bebe b083 843f
000000c0: df32 0e3d 2512 d5be beb0 a43e 2f20 35be
000000d0: 79bf 9dbf 7d3e 1c3f 6648 82be 34ec 67be
000000e0: 8e5d 9fbc d33f c3bd c294 cc3d c9f4 2abf
000000f0: e79d 573f 6040 8f3e ae53 21bf 2c15 0d3f
-0.58572465 1.3310399 0.7760609 0.774934 -0.24254295 -0.10481878 0.7148187 -0.36979485
0.83594155 -0.46240383 -0.42909157 -0.2774233 0.6621248 -0.75038034 -0.103894636 0.38954037
-0.4558634 -0.06383812 0.04780963 0.082309775 0.8884294 -1.2462102 0.31833667 -0.41347432
0.45328933 0.27793598 0.17151996 -0.9128416 0.19899958 0.567175 -0.42209285 0.77573365
1.1671119 0.48975384 -0.8307619 -0.40543672 0.574032 0.5738584 0.06997438 0.8617904
-0.4080278 0.50678605 0.01548956 -0.9182633 -0.038304467 -0.7895193 -0.37133044 1.0352688
0.034716483 -0.41615406 0.32166094 -0.17688058 -1.2324058 0.6103285 -0.2544586 -0.22648698
-0.01945379 -0.09533658 0.09989311 -0.6677976 0.84225315 0.27978802 -0.6301831 0.5511043

static_variable_selection.single_variable_grns.processed_correction_value_center.fc1.bias f4 [8]
00000000: 62b6 2435 b60a 89b5 ee3c 6536 19c4 9fb5
00000010: 28ed 5736 ac4e adb4 5bd2 2eb6 dd5f aab3
6.136016e-07 -1.0210413e-06 3.4159125e-06 -1.1903495e-06 3.217554e-06 -3.2281002e-07 -2.6050463e-06 -7.933679e-08

static_variable_selection.single_variable_grns.processed_correction_value_center.fc2.weight f4 [8, 8]
00000000: 4293 06be 8db8 473f b6b0 0f3d 5268 e0be
00000010: 1b7b 5a3e 8b98 5dba c179 5c3f 298b f73c
00000020: 230e 73be 8b7d 2ebf 9889 723f 0d55 0fbd
00000030: 6a6b a43f 0148 d2be dba4 4abf 1576 87bf
00000040: ff31 8d3e 5cae 4ebe 1e1f 70be d9e8 12bf
00000050: ff67 3abe 9254 89be 37b7 bebe a829 7c3f
00000060: 3c5b 543e 48e5 113e fd2e debe 8aa9 95be
00000070: e561 11bd 0ba3 47be f425 f0be d1b7 463f
00000080: 9e88 0c3f 0aa6 303e a6ca 9b3e 544f 16bf
00000090: e6ae 76bf accb 8c3e 8e43 013e 31c2 a63e
000000a0: ff12 103d a205 d93e f07c b33e f743 a6be
000000b0: ef97 803e 42d6 1b3f 0ecb 38be 88d1 d53e
000000c0: 90e5 1cbc a5f1 333f 2593 8e3d d8d4 4fbe
000000d0: c01d a2bf fc92 813c ea9a 303f 40fe 6dbd
000000e0: 6127 dbbe fd57 b7be b684 0d3e f574 11be
000000f0: e707 c63e cfc2 e23d c79f 713d 77de bbbe
-0.13142112 0.7801598 0.035080634 -0.4382959 0.21336024 -0.00084532116 0.8612328 0.030217724
-0.23735861 -0.68160313 0.947412 -0.03499322 1.284528 -0.4107056 -0.791578 -1.0582911
0.27577206 -0.201837 -0.2344937 -0.5738655 -0.18203734 -0.26822335 -0.37249157 0.9850106
0.20737928 0.1424762 -0.43395224 -0.2923091 -0.03549375 -0.1949579 -0.46903956 0.7762423
0.5489596 0.17250839 0.30428046 -0.58714795 -0.96360624 0.2749914 0.12623426 0.3257003
0.035174366 0.4238711 0.35056257 -0.32473728 0.25115916 0.60873806 -0.18046209 0.41761422
-0.009576216 0.70290595 0.06961659 -0.20296037 -1.2665329 0.015817158 0.6898638 -0.0581038
-0.4280348 -0.35809317 0.13820156 -0.14204772 0.38677904 0.11072313 0.058990266 -0.36693165

static_variable_selection.single_variable_grns.processed_correction_value_center.fc2.bias f4 [8]
00000000: fb79 3236 13fb a036 b7e1 4a36 faa7 9734
00000010: 9ee5 4f36 b21c 7635 5a30 fbb3 38e4 9034
2.659507e-06 4.7976005e-06 3.023173e-06 2.824816e-07 3.0979058e-06 9.16839e-07 -1.16968934e-07 2.698814e-07

static_variable_selection.single_variable_grns.processed_correction_value_center.gate_norm.glu.fc.weight f4 [16, 8]
00000000: 567c ecbe 2226 8ebc 9241 a0bd 6a0c a5bd
00000010: fce5 26be 0774 f8bd 8132 49be 4c65 f2be
00000020: 046a c23e 0087 babd dc76 e8be 0c76 9f3e
00000030: 884b ed3e dcb0 913e 94f6 c1be e8cc c43d
00000040: a4a9 c0bb c84d c2be be94 adbe 1fe6 003d
00000050: 8c71 c7be 04de 423e 7c40 b5be f6a5 713e
00000060: f27e a13c e09d bcbe c561 ecbd aaf1 ecbe
00000070: 31d4 7c3d 7a6f cb3b 6123 ab3d f04c 90be
00000080: 9498 953e 3cfa d6bd b58b f1bc 3676 bcbe
00000090: eaf6 cf3e 9817 7f3e 9807 bdbe fc58 bf3e
000000a0: 6cc4 903e eee5 4e3e e871 63be 715c ea3d
000000b0: be17 b23e ec6f 813e 9bcb cabe 7c63 943d
000000c0: 43d2 633e 3a06 9c3e 861b 723e c268 fb3c
000000d0: e8e5 e3be 64f8 cb3e 88df f9be 19f4 0b3e
000000e0: 6670 323e 497d 703d f8e5 763c 26cd 873e
000000f0: 60f7 65bd 482e a83e 60d9 203d d427 28be
00000100: a6b5 1cbe 64b6 f2bc 341d 713e 4efc 9f3e
00000110: 5a07 8e3e ac41 c6be 3602 e93e 0010 5a3e
00000120: bd2b ecbc c0e0 e8be 049f a83e 140c cdbe
00000130: 640b b03e f2fe 893e 704e f3be 5041 473e
00000140: 6c47 d63e e539 c8bc aa0a 283e 79c0 5c3c
00000150: aabf 9e3e e692 a03e 000a d63e 086b 02be
00000160: 369d 163e 2c82 e0be b492 173e 306a 9fbe
00000170: ec9f 76be 0e19 b6be 529c 03be 88b7 ac3d
00000180: 0f48 b6bd 1e58 bfbe aeff b23b 7270 0a3d
00000190: 063f c6be 60b1 98be 5c18 953c 3afb 8f3e
000001a0: b2d9 bf3e a212 da3c 28c7 ec3e cce6 ea3e
000001b0: d055 793e fa33 cbbe 48d3 f5be 229d 903c
000001c0: 5340 eabd cc95 793d d434 9f3e f657 e6be
000001d0: 44d3 0d3e 4c71 793e 4613 413d de5f 0a3e
000001e0: c2dc f2be 34c9 ca3e b263 973e 4694 ea3e
000001f0: 08e2 c83e 3e51 bd3e 9665 a1be 1069 e63e
-0.4618861 -0.017352168 -0.078250065 -0.080590084 -0.1629867 -0.121315055 -0.19648172 -0.47342908
0.37971509 -0.091077805 -0.45403183 0.3114475 0.46346688 0.28455245 -0.37883437 0.09609395
-0.0058795977 -0.37949967 -0.33902544 0.03146946 -0.38953817 0.19030005 -0.3540076 0.23598465
0.019713853 -0.368392 -0.115420856 -0.46278125 0.0617258 0.0062083574 0.08356357 -0.281837
0.2921797 -0.10496947 -0.029485563 -0.36808938 0.40618068 0.24911344 -0.36919856 0.37372577
0.28274858 0.20204899 -0.2221142 0.11443413 0.3478374 0.25280702 -0.39608464 0.07245538
0.22248177 0.304735 0.23643312 0.0306896 -0.44511342 0.39837945 -0.48803353 0.13667335
0.17425689 0.05871323 0.015069477 0.26523703 -0.05614412 0.3284781 0.039269805 -0.16421443
-0.15303668 -0.029627986 0.23546296 0.3124718 0.27739984 -0.3872198 0.455095 0.21295166
-0.02882945 -0.4548397 0.3293382 -0.40048277 0.3438369 0.2695232 -0.4752078 0.19458508
0.41851366 -0.024441669 0.16410318 0.013473623 0.31005603 0.31362075 0.41804504 -0.12736142
0.14708409 -0.43849313 0.14802057 -0.31135702 -0.24084443 -0.3556599 -0.128526 0.08433443
-0.08900463 -0.37371916 0.0054626083 0.033798642 -0.38719958 -0.29822826 0.018200092 0.28121358
0.37470776 0.026620213 0.46245694 0.4587921 0.24349141 -0.39688092 -0.48012757 0.017653052
-0.1143805 0.060933873 0.31094992 -0.44988984 0.13850123 0.24359626 0.04713752 0.13513133
-0.4743405 0.3960663 0.2956825 0.4581625 0.39234948 0.36976045 -0.31522816 0.4500203

static_variable_selection.single_variable_grns.processed_correction_value_center.gate_norm.glu.fc.bias f4 [16]
00000000: d77f efb4 0eaa 2cb4 e95f 08b7 6ba4 afb5
00000010: 1b93 3c36 22ec e735 2b79 8336 1d40 deb4
00000020: b203 3f34 3026 93b2 e73f 1e35 29d5 55b4
00000030: 5218 3134 0d79 32b4 6a7e c1b5 cc49 1b33
-4.4610235e-07 -1.6080614e-07 -8.1285625e-06 -1.3086368e-06 2.809981e-06 1.7279565e-06 3.91821e-06 -4.139737e-07
1.7789606e-07 -1.7130418e-08 5.8952577e-07 -1.9914718e-07 1.6493257e-07 -1.662158e-07 -1.4416412e-06 3.6155868e-08

static_variable_selection.single_variable_grns.processed_correction_value_center.gate_norm.add_norm.norm.weight f4 [8]
00000000: bfff 7f3f 0000 803f 7800 803f 68ff 7f3f
00000010: 0000 803f 0000 803f 0000 803f 1e00 803f
0.9999961 1.0 1.0000143 0.99999094 1.0 1.0 1.0 1.0000036

static_variable_selection.single_variable_grns.processed_correction_value_center.gate_norm.add_norm.norm.bias f4 [8]
00000000: a6e2 92b6 fcec a2b6 0e12 60b7 79d6 95b6
00000010: 8268 edb5 5d7d 0eb6 5c0f 9b35 3978 deb6
-4.3775244e-06 -4.855565e-06 -1.3355644e-05 -4.465514e-06 -1.7688292e-06 -2.123262e-06 1.155287e-06 -6.6301113e-06

static_variable_selection.single_variable_grns.processed_correction_value_scale.fc1.weight f4 [8, 8]
00000000: 8cce 1abf e2c5 503e 2738 9b3d d761 ee3c
00000010: af85 623f 2c6e bc3e b83d 363e 7d07 ba3e
00000020: 33db bebe fae9 183e aaa2 92be e10a f93e
00000030: 49b7 883f ea53 413f 05ce cd3e 948e de3e
00000040: ecb7 17be 4b16 25bf da6c 17bf 9ea1 5cbf
00000050: 16dd a73d 8c02 a03e 5d04 c6be d73f a73d
00000060: 3d8c ed3e eda1 653f b986 d73e 84b8 48bf
00000070: 5485 303e 886e 44bf 2988 cabe 2224 123f
00000080: 36c8 87bf 5f28 4e3f 3fc9 a8be 54f3 5ebe
00000090: e47b 143f 196a 03bf 1bb9 85bd 3267 953e
000000a0: 2d83 263f 26a0 133f a804 b3be 720a a7be
000000b0: 44a1 af3c 712b 3bbe 9277 04bc 3c2e f2bd
000000c0: 036c f2be ae04 b03e b4cb 85bf 33d1 11be
000000d0: eea8 de3e c907 3dbe 0e49 b33e 3b56 de3e
000000e0: 2a87 623f f416 9b3e c906 2b3e 125d 07be
000000f0: c20b 9fbe 29bb 3c3c a973 753f 777d 5fbd
-0.60471416 0.20387986 0.075790696 0.029099388 0.88485235 0.36802804 0.17796981 0.36333838
-0.3727661 0.14933005 -0.28639728 0.48641112 1.0680934 0.7551867 0.40196243 0.43468153
-0.14816254 -0.6448714 -0.5915047 -0.8618411 0.08196466 0.31251943 -0.38675204 0.08166473
0.46396056 0.89700204 0.42094973 -0.7840655 0.1723836 -0.7673116 -0.39557007 0.57086384
-1.0607975 0.8053035 -0.3296604 -0.2177251 0.5800154 -0.5133377 -0.06529447 0.29180294
0.6504391 0.5766624 -0.3496449 -0.32625157 0.021439202 -0.1827829 -0.008085148 -0.11825225
-0.4734803 0.3437857 -1.045279 -0.1423996 0.43488258 -0.18460001 0.35016674 0.43425164
0.88487494 0.3029095 0.16701807 -0.13219097 -0.31063658 0.011519232 0.9587961 -0.054563012

static_variable_selection.single_variable_grns.processed_correction_value_scale.fc1.bias f4 [8]
00000000: a48e b535 d726 8ab6 9eb7 d136 27f3 3c36
00000010: 7faf 8c35 20dc 9d36 f822 74b6 be9f 4137
1.3527065e-06 -4.117242e-06 6.2500612e-06 2.8155716e-06 1.0481889e-06 4.7045905e-06 -3.6379188e-06 1.1540889e-05

static_variable_selection.single_variable_grns.processed_correction_value_scale.fc2.weight f4 [8, 8]
00000000: c75c 033f 6016 1abe 405f f43e 4132 9c3e
00000010: 74a4 a03d 99c4 1abf 2ad4 86bf 4b63 fb3e
00000020: b0ec be3e c680 143f 7b1b 6c3e 1543 f93e
00000030: 8c82 8fbe d8ef 8dbf 9687 f13e 625c 293e
00000040: 27df 41bd 49f6 623d 67ce 5ebf 43c8 cbbe
00000050: 3369 033d 3130 e5be 0187 a5be ab68 f3be
00000060: 6a38 2c3f 586c f5bd 2985 663e dc23 943e
00000070: e7bb 74be 91d1 08bf 1a8e b9be b370 d5be
00000080: 194f 263c 667f d8be 02cc 2c3e fff0 81bf
00000090: 302a 1fbf 1b9d f1bb a904 3cbe e1b5 28bf
000000a0: 630e a2be 7cf0 96be 665e dcbd cafc 02bf
000000b0: 3992 00bf dcae 3bbc ce8e e5bd 1819 95bd
000000c0: fd18 53be c7d6 283e 30b9 013e 6ab7 a03e
000000d0: 405e 73be 96c7 f6bd 3c41 c73e d96e 8c3e
000000e0: acf3 123f 53ce c9be 9111 acbe 2160 d63e
000000f0: 0e40 6cbe 17bb 19bf c404 9c3e b7aa 80be
0.5131344 -0.15047598 0.4772892 0.3050709 0.07843867 -0.60456234 -1.0533497 0.49099192
0.37289953 0.5800899 0.23057358 0.48683992 -0.28029287 -1.108882 0.47173756 0.16539147
-0.047331955 0.055410657 -0.87033695 -0.39801225 0.032082748 -0.4476333 -0.32329562 -0.47540793
0.6727358 -0.119835556 0.22511734 0.2893361 -0.23899804 -0.5344477 -0.36241227 -0.41687545
0.010150694 -0.42284697 0.16874698 -1.0151671 -0.6217375 -0.0073734648 -0.18361153 -0.65902525
-0.316516 -0.2948035 -0.107601926 -0.51166975 -0.5022312 -0.011455264 -0.112088785 -0.07280177
-0.20615001 0.16488181 0.126683 0.31389934 -0.23766422 -0.12049787 0.38916957 0.2742832
0.57403064 -0.39415225 -0.33607152 0.41870216 -0.2307131 -0.600511 0.30472386 -0.25130245

static_variable_selection.single_variable_grns.processed_correction_value_scale.fc2.bias f4 [8]
00000000: e8cc fe36 121e b2b6 2cf3 2db7 347e 44b6
00000010: 18cf bcb6 600c 6735 70b7 8234 1669 9c36
7.593644e-06 -5.308314e-06 -1.0368221e-05 -2.9279736e-06 -5.6269455e-06 8.6072214e-07 2.4347855e-07 4.661396e-06

static_variable_selection.single_variable_grns.processed_correction_value_scale.gate_norm.glu.fc.weight f4 [16, 8]
00000000: 8831 e43e c4e4 283e 662d d2be 0a6a 96be
00000010: a02e a1be 3fc2 c3bd 8e02 d0bd be98 513e
00000020: d9d0 863e c763 b8bd 22f3 9e3e b917 4d3e
00000030: 96dc de3e 9a30 84be 58d7 8ebd dc80 f33e
00000040: deac ecbe 0994 c33e 7aec 953e e3b4 3a3e
00000050: 7965 6a3e 4ab5 b13d 5f19 abbc 2160 86be
00000060: 6658 ed3e 72e8 c8be e022 0bbe 7cc7 b43e
00000070: 6e10 06be 8252 8dbe beb5 ab3e 4c28 fb3e
00000080: f2ac 5cbd ea46 13bd a491 c5be 2ca5 fdbe
00000090: 76e7 acbe deb7 9ebe 945d 2d3e ec93 f23e
000000a0: 11e1 07be d620 59be 9a7d 8d3e 24ea b43e
000000b0: 6843 57be 844c 2d3d aa0e 7c3c f2df 81be
000000c0: 92e4 fe3e 9005 85be 7cb4 babe 8028 693e
000000d0: e487 bcbd bd72 753e dd81 aabd fe83 99bd
000000e0: 16e4 a83e 875a 95bb 3cbe ec3e 3f7e e33c
000000f0: ee15 063e 42cd 35be 086a c7bb 7af9 1ebe
00000100: 18f7 5cbe a0f4 d13d b032 333d f466 803e
00000110: 38fd 0dbe e0a9 d3be 326a a33e 0478 523e
00000120: d8d3 23be c05e bcbd 6074 d33b 2cc1 aabe
00000130: 787a ac3e c65b cfbd 54ba 883e 4a07 4bbe
00000140: 02ca b7be 5cd7 cebe 908f 893e 8436 e23e
00000150: 29cf 42be 905c acbe 962e 723e d3ad 963d
00000160: 8cdb 91be 2418 25be 8889 aebe c446 1d3d
00000170: 6e91 923e 0000 8e3d 9c68 ddbe a97f d03d
00000180: 82ca 4f3e 7aca bfbd 82e7 ed3e a4ea a83e
00000190: 6e79 9e3e 1fa7 383d 8637 d7be 734b 3a3d
000001a0: a8cb 03be 60ac 4f3d 8c50 91be e28a a43e
000001b0: 84a8 463e 38c2 bfbd ccb5 46be 2cb3 8c3e
000001c0: 6c3b cebd 7cb1 fbbe 2811 9c3d 0c09 7abe
000001d0: 74f3 a13d e24c 5abe 22b2 76be d673 7b3e
000001e0: f44f 6fbe 10d1 bd3d 0887 f33e 1062 113e
000001f0: 1c17 03be 141d 63be 6268 c0be d087 adbe
0.4456904 0.16493517 -0.4105026 -0.29377776 -0.31480885 -0.09558534 -0.10156737 0.20468423
0.26331213 -0.09003406 0.3104487 0.2002858 0.4352767 -0.2581833 -0.06974667 0.4755925
-0.46225637 0.3819888 0.2928198 0.18233065 0.22890271 0.08677156 -0.020886121 -0.26245216
0.46356505 -0.39239842 -0.13587523 0.35308444 -0.13092205 -0.2760201 0.33537096 0.49054182
-0.05387587 -0.0359563 -0.38587677 -0.4954008 -0.3377034 -0.30999655 0.16930228 0.4737848
-0.1326945 -0.21203932 0.2763489 0.35334885 -0.21021807 0.0423093 0.015384356 -0.2536617
0.4978376 -0.25980806 -0.36465824 0.22769356 -0.092056066 0.2396955 -0.08325551 -0.07495879
0.32986516 -0.004557911 0.46238887 0.02777016 0.13094303 -0.17754081 -0.006085638 -0.15524855
-0.21578634 0.10251737 0.04374951 0.25078547 -0.13866127 -0.41340542 0.31916958 0.20553595
-0.1599878 -0.0919776 0.006453082 -0.33350503 0.33687186 -0.10124926 0.26704657 -0.19827
-0.35896307 -0.4039868 0.26867342 0.44182217 -0.19024338 -0.3366437 0.23650584 0.07357373
-0.28487813 -0.1612249 -0.34089303 0.038397565 0.2862658 0.06933594 -0.43243873 0.10180599
0.20292094 -0.09364791 0.4646569 0.32991517 0.30952018 0.045081254 -0.4203455 0.04548211
-0.12870657 0.0507015 -0.28381765 0.3213721 0.19400221 -0.09363216 -0.19405288 0.27480447
-0.100699276 -0.49158847 0.0762046 -0.24417514 0.07907763 -0.21318391 -0.2409139 0.24555907
-0.23370343 0.09268391 0.47563958 0.14197564 -0.12801784 -0.22179061 -0.37579638 -0.3389268

static_variable_selection.single_variable_grns.processed_correction_value_scale.gate_norm.glu.fc.bias f4 [16]
00000000: 12fd 31b5 f9c9 6535 d8ca 27b7 fe1f 43b5
00000010: a002 d636 3111 d535 5849 1937 7ff8 89b6
00000020: 23fc 1434 d998 47b4 21e7 08b6 4dff a534
00000030: 22f1 80b5 0875 54b3 173a 6eb5 8437 4334
-6.6305904e-07 8.5603057e-07 -1.0001204e-05 -7.2689716e-07 6.3780026e-06 1.587474e-06 9.136587e-06 -4.111847e-06
1.3875301e-07 -1.8588925e-07 -2.0400114e-06 3.09194e-07 -9.606922e-07 -4.9466536e-08 -8.874644e-07 1.8180987e-07

static_variable_selection.single_variable_grns.processed_correction_value_scale.gate_norm.add_norm.norm.weight f4 [8]
00000000: 89ff 7f3f 3c00 803f d200 803f abff 7f3f
00000010: 3b00 803f a6ff 7f3f 0000 803f 87ff 7f3f
0.9999929 1.0000072 1.000025 0.99999493 1.000007 0.99999464 1.0 0.9999928

static_variable_selection.single_variable_grns.processed_correction_value_scale.gate_norm.add_norm.norm.bias f4 [8]
00000000: 1a4b 09b7 5835 18b7 915e d1b7 f307 0cb7
00000010: 42b0 5db6 aa46 85b6 bba8 1036 16ea 4fb7
-8.183322e-06 -9.072326e-06 -2.4958777e-05 -8.346501e-06 -3.3034162e-06 -3.9719353e-06 2.1555886e-06 -1.2392664e-05

static_variable_selection.prescalers.encoder_length.weight f4 [8, 1]
00000000: 2768 033f 2a81 7c3f 8453 7e3f 4778 913e
00000010: 6fc7 3dbf 2669 2dbf bdb0 68be 397e 313f
0.513308 0.9863459 0.99346185 0.28412077 -0.74132437 -0.6773857 -0.2272367 0.69333225

static_variable_selection.prescalers.encoder_length.bias f4 [8]
00000000: 9d2a 783f ba1a 7e3f 9898 12bf bc5f 0ebf
00000010: 105a d63d beb1 7fbf a052 1ebf 33dd 7ebf
0.9694002 0.9925953 -0.5726409 -0.5561483 0.10466397 -0.9988059 -0.61844826 -0.99556273

static_variable_selection.prescalers.processed_correction_value_center.weight f4 [8, 1]
00000000: 38fd 753f 68b4 3dbf de5b 04bf f8e7 2a3e
00000010: cc82 ddbe 885f 8dbe 700b 383f c2ce 083f
0.96089506 -0.74103403 -0.5170268 0.16690052 -0.43263853 -0.27611947 0.7189245 0.5344049

static_variable_selection.prescalers.processed_correction_value_center.bias f4 [8]
00000000: cad8 683f 4066 a4be b2a7 50bf 977b 633f
00000010: 66cd 77bf 9a27 01bf 24a1 19be 9b6f 13bf
0.90955794 -0.3210926 -0.8150588 0.8886046 -0.9679779 -0.5045105 -0.15002877 -0.5759217

static_variable_selection.prescalers.processed_correction_value_scale.weight f4 [8, 1]
00000000: d857 393f d098 ae3d 6c8c 313f e89d f6be
00000010: 5061 17bf c46a b5be e0b0 5bbd c059 90be
0.72399664 0.085252404 0.6935489 -0.48167348 -0.5913286 -0.35433018 -0.053635478 -0.28193474

static_variable_selection.prescalers.processed_correction_value_scale.bias f4 [8]
00000000: e420 183f b572 32bd a9a7 29bf c444 513f
00000010: 1163 61bf 7d50 443f 92a1 803e bf84 c93e
0.5942519 -0.043566424 -0.66271454 0.81745553 -0.8804179 0.76685315 0.25123268 0.3935909

encoder_variable_selection.flattened_grn.resample_norm.mask f4 [5]
00000000: b60c 78b5 dad5 8435 ad04 b037 dcc2 2936
00000010: 45c9 c5b7
-9.2405696e-07 9.897005e-07 2.0983012e-05 2.5296386e-06 -2.3577953e-05

encoder_variable_selection.flattened_grn.resample_norm.norm.weight f4 [5]
00000000: 0000 803f 1d00 803f f300 803f 1e00 803f
00000010: d8fd 7f3f
1.0 1.0000035 1.000029 1.0000036 0.9999671

encoder_variable_selection.flattened_grn.resample_norm.norm.bias f4 [5]
00000000: 579f 7835 d094 7537 5c48 ac37 a38e feb6
00000010: e031 efb7
9.261907e-07 1.4637786e-05 2.0537693e-05 -7.586395e-06 -2.8514245e-05

encoder_variable_selection.flattened_grn.fc1.weight f4 [5, 40]
00000000: c6d0 073d 5a21 92bd bc64 6b3d c020 583e
00000010: 9c30 8b3e d89d 21be 0b59 8b3d ef92 14bd
00000020: dcfd fb3d 97d5 14be 59ad fbbd 5402 8dbe
00000030: a11f dc3e 448c 72be 0a5a 993e c783 b83e
00000040: 68c3 f1bc 3b56 193e 2efc 593d 29e3 2abd
00000050: c03d 18be f4f0 38be 0205 09bf ed23 9c3e
00000060: cf3b 4cbe 387a fbbd 9e54 15be fc67 a6bd
00000070: c5e2 103e 8e7b 2b3e 4d0b 763e 0bb0 debe
00000080: a701 143d bc98 5dbc 7b40 9fbd d583 0ebe
00000090: 17f3 69bd f392 4cbe 5664 f0be 05d4 213e
000000a0: 6cdc 463e 90e2 bf3c b3e6 ea3d 4522 46be
000000b0: ced8 a93d 277a 60bd 2650 ea3d e069 89be
000000c0: 057f 9b3e 3738 f03d 435f 493e 2335 b8be
000000d0: afac d03d b782 a9bd 387e 0dbe 27fd 043c
000000e0: acc1 94bb 9bfe 963d 4dfe 8cbd 2069 ffbc
000000f0: 65f1 37bf 4f81 c5bd 6163 cf3c 1619 a8be
00000100: a2da 87be e534 abbc 79b5 33be e7a2 7cbe
00000110: 2fae 8d3e 1543 48be e0e5 aebe 69c2 e43d
00000120: f71d a2be 79e1 a43d 52a5 c4be af53 19bd
00000130: 9ab0 293e 8e9f c73c c29e bf3d 1ecb 0cbd
00000140: 2f8d 2ebe 5b73 bf3b f62f f03c ab7d 5bbe
00000150: a9cc 6f3e 42a5 09be d936 2abe b95d efbe
00000160: fb71 6d3e f712 bf3d 71ce babd a4fa 51be
00000170: 8ca6 4bbd b46e ba3c 962e 32be a721 24bd
00000180: 4ffd 0ebe c24b 8b3d aafd 2a3e a217 39be
00000190: e4cf df3d 7d25 373e 25f8 983d 9a61 8cbd
000001a0: 75a1 853c 17cf 9ebe 8a11 103f 2730 9bbd
000001b0: d85a ed3c 5600 fcbc 6904 2c3f 945a 73bd
000001c0: 75b9 6e3e fefd b2be 5003 b53d 27fa 0f3e
000001d0: ec4f 52be 9c4c 463e dd89 89be dc0f 68be
000001e0: 9e1f 5fbe ee1c 84be ba0e af3e 089f a2be
000001f0: a27c 72be 5f08 89bd 7c7f 133e 412c 003f
00000200: ef3b 55bd 8f5a cabd 744a 7e3e fdab c03e
00000210: c041 28be 8fb0 37be d60e b0be 9f07 ec3c
00000220: 5f91 44bc 4804 fabd bdb4 873e e1ea 64be
00000230: d93a ac3d c857 b2bc c353 543e 3837 55be
00000240: 2c86 84be 10fe dfbc 63b6 223f 2823 a33e
00000250: cb32 b3be c385 a0be f8c3 dfbd c6a8 01be
00000260: 99c3 ca3c 6045 2cbe 8e7a afbc dffe 2a3c
00000270: b782 503c 41d5 d23e bb1e 843e 0485 7cbd
00000280: f35c c43e 9855 b8be f43b e3bd 2250 9cbe
00000290: ff65 763e ad3b 68bc 7ef0 803e b295 b03e
000002a0: 560c afbd fdea 813d 0d32 523d 3fef 9d3d
000002b0: 130e 00bc 4e57 bd3e 1881 5bbe 944a ec3e
000002c0: 1f21 edbd db15 bcbd fee0 83be 3227 01bf
000002d0: 778c 263c 4de3 3a3e df4e 203e 6922 debd
000002e0: b822 6bbe 1759 9ebe 8668 cebe 2176 d5be
000002f0: 5cf0 ac3e 6141 8d3e b2a5 b33d 8240 67be
00000300: d881 5cbd 53cb 2a3e 36d2 6fbe 5c63 91bd
00000310: 88c6 75be 91b5 6e3d e13b 1ebd 09cb cc3e
0.033158086 -0.071352676 0.057469115 0.21106243 0.27185524 -0.15782869 0.06804093 -0.03627294
0.12304279 -0.14534603 -0.12288923 -0.2754084 0.4299288 -0.2368632 0.29951507 0.36038038
-0.029512122 0.149743 0.053219013 -0.041720543 -0.14867306 -0.18060666 -0.53523266 0.3049616
-0.1994469 -0.12279171 -0.1458306 -0.08125302 0.14149006 0.16746351 0.24027748 -0.43493685
0.03613439 -0.013525184 -0.077759705 -0.13917477 -0.057116594 -0.19977932 -0.4695155 0.15803535
0.19420022 0.023423463 0.11469784 -0.1934901 0.08293305 -0.054803994 0.11441068 -0.2683859
0.30370346 0.11729472 0.19665246 -0.3597804 0.10189187 -0.08276885 -0.1381768 0.008116997
-0.004539689 0.07372781 -0.068844415 -0.031178057 -0.71852714 -0.09643804 0.025315942 -0.3283164
-0.2653399 -0.020899246 -0.17549695 -0.24671517 0.27671954 -0.1955684 -0.34159756 0.11169893
-0.31663486 0.08050818 -0.3840738 -0.037433323 0.16571274 0.024368074 0.093564525 -0.034373395
-0.17046045 0.005842609 0.029319745 -0.21434657 0.23417915 -0.13441947 -0.16622485 -0.46751192
0.23188011 0.09329789 -0.09121407 -0.20505768 -0.04971938 0.022757865 -0.17400584 -0.040071156
-0.13963817 0.06801559 0.16698328 -0.18075421 0.10928324 0.17885394 0.07469205 -0.068545535
0.01631234 -0.31017372 0.5627676 -0.07577544 0.028973982 -0.030761879 0.6719423 -0.059412554
0.23312934 -0.34959406 0.088385224 0.1406027 -0.205383 0.19365162 -0.26862994 -0.226623
-0.21789405 -0.25803322 0.34190923 -0.31761956 -0.23680356 -0.0669105 0.144041 0.50067526
-0.05205911 -0.09880554 0.24833089 0.37631217 -0.16431332 -0.17938446 -0.3438632 0.028812228
-0.01199755 -0.12207848 0.2650508 -0.22355224 0.08409662 -0.021770373 0.20735078 -0.20821846
-0.25883615 -0.027342826 0.6355955 0.3186276 -0.3499969 -0.31352052 -0.1092605 -0.12662038
0.024751471 -0.1682334 -0.021420743 0.010436743 0.012726477 0.41178325 0.25804695 -0.06165029
0.38352165 -0.36002803 -0.110954195 -0.30529886 0.24062346 -0.014174384 0.2518348 0.34489208
-0.08547275 0.063436486 0.051317263 0.07711648 -0.007815856 0.3698067 -0.21435964 0.4615065
-0.11578583 -0.09183856 -0.25757593 -0.5045043 0.010165325 0.18250771 0.15655087 -0.10846407
-0.22962463 -0.30927345 -0.4031412 -0.41691688 0.3377713 0.27588943 0.08771838 -0.22583202
-0.053834766 0.16679125 -0.23420033 -0.070990294 -0.24001515 0.058278624 -0.038631324 0.39998654

encoder_variable_selection.flattened_grn.fc1.bias f4 [5]
00000000: 703e d5b4 d114 37b6 9b97 a0b5 ffba fb36
00000010: ad68 7234
-3.971977e-07 -2.7281242e-06 -1.1965052e-06 7.502152e-06 2.2576087e-07

encoder_variable_selection.flattened_grn.context.weight f4 [5, 8]
00000000: ec12 93be 80c2 ca3e cf91 d2be 2ba9 ecbe
00000010: 661f 293f 52c6 91be b931 d2be c2ee 9f3e
00000020: 555e ffbe 2503 073e 5eb1 14bf 54c9 1ebe
00000030: b842 183f 11c3 11bf 9f0b ecbe ada7 483d
00000040: 0a9c bdbe a0a6 99be 607a 80bd 7b68 13bf
00000050: ccc7 a7be 9aed 27bf 32a6 1b3f 1315 673c
00000060: 5536 b63e 6cf3 19bf bdd8 29bf 121c 88be
00000070: 0a53 263f 93b4 dcbe 9081 c43e dc0b 293f
00000080: 9e1d 63be 2662 79be 3b3d 83be 11af ccbe
00000090: b9f2 28bf d339 a8be 7a47 f3be 9b10 6abc
-0.28725374 0.39601517 -0.41126868 -0.46222815 0.66063535 -0.2847162 -0.4105356 0.31236845
-0.49876657 0.13184793 -0.5808314 -0.15506488 0.59476805 -0.5693827 -0.46102616 0.048988033
-0.3703311 -0.30009937 -0.06273341 -0.575813 -0.3276962 -0.65596926 0.6080047 0.014104146
0.35588327 -0.6013706 -0.6634634 -0.26583916 0.6497046 -0.43106517 0.38380098 0.6603372
-0.22179267 -0.24353847 -0.25632653 -0.39977315 -0.65995365 -0.32856616 -0.4751547 -0.014286186

encoder_variable_selection.flattened_grn.fc2.weight f4 [5, 5]
00000000: e271 743c 7a3e 8a3d d5e0 08bf cc38 903f
00000010: 0066 bbbe 391d 343f 15d7 f23e 026e b7bf
00000020: c12a 62be 5b3e 8ebe cea3 343e 8562 863e
00000030: 7354 6cbf 212f f1bd 919c 163f ce5c 34bc
00000040: 2b45 053f 0a75 763f de97 4b3f a98d e83e
00000050: bfb3 a83e 453d 01bf 4783 da3e 86a5 03bf
00000060: 05ab 563f
0.01491973 0.06750198 -0.53468066 1.1267333 -0.36601257 0.7035709 0.4742972 -1.4330447
-0.22086622 -0.27781948 0.17640612 0.2624704 -0.9231636 -0.11776567 0.5883265 -0.0110084545
0.52058667 0.9627234 0.79528606 0.45420578 0.32949635 -0.50484115 0.42678282 -0.51424444
0.83854705

encoder_variable_selection.flattened_grn.fc2.bias f4 [5]
00000000: b8b1 8637 a3b2 28b7 4950 fe36 997d 92b6
00000010: b071 8535
1.6056802e-05 -1.0055172e-05 7.5791363e-06 -4.3657606e-06 9.94236e-07

encoder_variable_selection.flattened_grn.gate_norm.glu.fc.weight f4 [10, 5]
00000000: b08f f33e 1180 9a3e 44fa 563e a351 47be
00000010: 183c 22bd 14c3 51bc 3c3c aebe ed81 19bf
00000020: b700 18bf 4553 05bf eb34 743e c7ad b53e
00000030: b6b0 6a3e d248 05be 8178 95be 38d5 0c3e
00000040: b0cc 3f3e baad cbbd 7078 fa3e d757 13bf
00000050: 24ca 19bf acd6 143f bc4a 7bbe 224e 57bd
00000060: 6984 9fbd 0982 cf3e b575 c03e 3247 0dbf
00000070: 52fa ecbe 374e e9bd 7f2f 893e c356 08bf
00000080: a406 c4be f820 18bf 5544 bebe 1d81 5cbe
00000090: 7df6 0fbe 54aa 47be 71b3 603e 718d ee3d
000000a0: 0ec9 84be d0f4 c33d 8f12 1f3f c72b d9bd
000000b0: 6eee 403d 2995 fbbe 6533 9ebe c55a 82bc
000000c0: c7f9 03bf 8c51 113f
0.47570562 0.30175832 0.20993906 -0.19464736 -0.03960809 -0.012802858 -0.3403033 -0.59963876
-0.5937609 -0.52080184 0.23848312 0.35484144 0.22918972 -0.1301606 -0.291935 0.13753211
0.18730426 -0.09945245 0.48920012 -0.5755591 -0.6007407 0.58140063 -0.24540228 -0.052564748
-0.07788927 0.40528896 0.37589803 -0.5518676 -0.4628473 -0.113918714 0.2679405 -0.5325739
-0.38286316 -0.59425306 -0.37161508 -0.21533628 -0.14058872 -0.19498569 0.21943451 0.116480716
-0.25934643 0.09568179 0.62137693 -0.10604053 0.047102384 -0.49137238 -0.30898586 -0.015912423
-0.51553005 0.56765056

encoder_variable_selection.flattened_grn.gate_norm.glu.fc.bias f4 [10]
00000000: 1b1f 4234 0622 8736 350b 2537 6e4a c6b6
00000010: e908 bfb7 148e 2b34 da4e 26b6 aafc a9b5
00000020: cdca a435 e426 ceb4
1.8078974e-07 4.0272744e-06 9.837376e-06 -5.9095246e-06 -2.2773123e-05 1.5977304e-07 -2.4781825e-06 -1.2665016e-06
1.2277975e-06 -3.8398787e-07

encoder_variable_selection.flattened_grn.gate_norm.add_norm.norm.weight f4 [5]
00000000: bdff 7f3f 0000 803f c800 803f 0300 803f
00000010: a6fc 7f3f
0.999996 1.0 1.0000238 1.0000004 0.99994886

encoder_variable_selection.flattened_grn.gate_norm.add_norm.norm.bias f4 [5]
00000000: 91fe c436 b865 a337 9ab3 9737 ba3b 20b6
00000010: 4724 2cb8
5.8708906e-06 1.947848e-05 1.8084236e-05 -2.3876623e-06 -4.104178e-05

encoder_variable_selection.single_variable_grns.time_idx.fc1.weight f4 [8, 8]
00000000: 95f9 2ebf 5697 0fbe 67e1 88bd cc97 7bbf
00000010: 52a5 9e3d e94d b1be c640 3bbf 47a4 a73d
00000020: 591c 523f aa69 62bf b8f3 923e e1ae 033e
00000030: b525 cd3e 26d1 6a3f b5cc d6be bd37 283f
00000040: f4fd a6bd dd67 dbbe 5327 1ebd e3e2 933e
00000050: a521 d6be 74a1 f73e 1110 2bbf ec97 d4be
00000060: eea1 4a3f f205 dfbc 83cf f43d d09b e2bd
00000070: 7455 9cbe 479d 04bf 655b 723f 3f48 c63e
00000080: 29a4 0e3f 107f 1e3e 849d aabe 3910 c0be
00000090: 2380 92be f519 67be 6832 c13e 3744 33be
000000a0: 36ed 97be bf71 213f 4fda e53e 770e 30be
000000b0: 5357 03be 7c08 9a3e dfb7 a6bd 99bf b33e
000000c0: f316 ea3e eebc c8bc d971 abbe c1ee bbbc
000000d0: a00a d83e 7afa 693d eabe 483e f70b 9fbe
000000e0: 7104 963e b1de f03e d3b0 523e 931e 063e
000000f0: 871f f43e 062d 873e 230a 9dbe 985a 34bf
-0.6834958 -0.14022574 -0.06683617 -0.982785 0.07746376 -0.34629753 -0.7314571 0.0818563
0.82074505 -0.8844248 0.28701568 0.1285968 0.4006783 0.91725385 -0.41953054 0.6571005
-0.081539065 -0.4285268 -0.03861172 0.28884038 -0.41822544 0.48365366 -0.6682139 -0.41522157
0.79153335 -0.027224515 0.11953642 -0.11064875 -0.30533946 -0.51802486 0.94670707 0.38726994
0.5571924 0.15478158 -0.333233 -0.37512377 -0.28613386 -0.22568496 0.3773377 -0.1750649
-0.29673165 0.6306419 0.4489312 -0.17193018 -0.1282628 0.30084598 -0.081405394 0.35107115
0.45720634 -0.024504151 -0.33485296 -0.022940995 0.42195606 0.05712364 0.19604078 -0.31063816
0.29300264 0.470449 0.20575266 0.130976 0.47680303 0.26401538 -0.30671796 -0.70450735

encoder_variable_selection.single_variable_grns.time_idx.fc1.bias f4 [8]
00000000: febc 78b5 1d04 69b3 ecaf 6f35 0696 4eb6
00000010: 7030 9cb5 6f91 0836 46e9 6db6 8596 29b6
-9.266222e-07 -5.425328e-08 8.929044e-07 -3.0783717e-06 -1.1637003e-06 2.0350233e-06 -3.5451535e-06 -2.5270576e-06

encoder_variable_selection.single_variable_grns.time_idx.fc2.weight f4 [8, 8]
00000000: d30d 123f df96 27bf 25d2 cf3e e305 ad3e
00000010: 136d 473e 24de 9dbe c299 ab3e fd5a 873f
00000020: 5328 da3e 147c aabe c552 b03e c379 503e
00000030: 89d3 2f3e d35b 4e3f f34a 3bbf 59a2 86be
00000040: d655 e63e 4524 9e3d 4f9d 82be 54fb a7bc
00000050: c4f4 863d 0213 e2be 5799 debe bda0 e5bb
00000060: f68b fc3e ba6c 393f 7838 303d 5431 46bf
00000070: 6037 02bf 5c08 b4be c984 b0be 0f32 03bc
00000080: fe46 19bc 00df 77be 2ddd b83e 62b2 d5be
00000090: 30b1 c13e 2456 21be 0e17 97bd c820 f63e
000000a0: e519 e83e 3d2e 0f3f 1bbf 35bf df1f 2f3f
000000b0: deef 33be 9aff 393f deff 49bd 0682 91be
000000c0: 7d65 3e3e ce5b 793f 5fe0 523c eb0c 7f3e
000000d0: 41a8 4e3f 59b0 f7be 0465 343f 3258 073f
000000e0: c49b df3e a7ec 533f 2a60 9f3e 4907 17bf
000000f0: e62b d63e 07cc 03be 6152 acbc 0967 453f
0.57052344 -0.65464586 0.40590015 0.33793554 0.19475202 -0.30833542 0.33515745 1.0574642
0.4260889 -0.3329779 0.34438148 0.20358948 0.17170538 0.8060886 -0.7316124 -0.26295736
0.44987363 0.077217616 -0.25510642 -0.020505585 0.06589654 -0.44155127 -0.43476364 -0.007007687
0.49325532 0.7243153 0.043022603 -0.7741902 -0.50865746 -0.35162628 -0.34476307 -0.00800754
-0.009355305 -0.24206161 0.36106244 -0.41737658 0.37830496 -0.15755516 -0.07377444 0.48071885
0.45332256 0.5592993 -0.7099473 0.68408006 -0.17571971 0.7265564 -0.04931628 -0.28419513
0.18593402 0.9740571 0.012870877 0.24907272 0.80725485 -0.4837673 0.7046664 0.5286895
0.43673527 0.8278298 0.31128055 -0.5899549 0.41830367 -0.12870799 -0.021035375 0.77110344

encoder_variable_selection.single_variable_grns.time_idx.fc2.bias f4 [8]
00000000: 9e8d 65b6 01a0 f835 a651 22b5 5d71 5135
00000010: f24e da35 c99d 9db5 ff17 1db6 091f dd35
-3.4206091e-06 1.8524007e-06 -6.0468517e-07 7.802353e-07 1.6265242e-06 -1.1743333e-06 -2.340879e-06 1.6474816e-06

encoder_variable_selection.single_variable_grns.time_idx.gate_norm.glu.fc.weight f4 [16, 8]
00000000: c4ec 81be d22c ecbe 43dd ab3e f620 833e
00000010: 46cb 9d3e 5521 e8bd 0c42 e83e 8610 a2be
00000020: 2a5f 4ebe 6825 87be cc9e 943e 4ac9 9a3e
00000030: 1494 b2bd a4e1 5d3e 6e45 d33e 4ad2 013d
00000040: f48d c43e a899 d0be c8bf 5bbe e2aa a1be
00000050: df8c 0e3b cc9c 71be ea63 3c3e 4f94 71bd
00000060: e241 d9be 141f 9c3e 1463 c6be 4b16 c43e
00000070: e493 8a3e 24da 0d3e 5088 96be 7b2a df3e
00000080: dedb 20be 66fa 4ebe d2ee 803d 5e19 efbd
00000090: 386d 69be 4401 2dbe 2fa2 a5bd 24e3 f6be
000000a0: 6c9f ac3e 92e8 ad3e 64b0 c7be 726a a53e
000000b0: 829a 953e a8fc 593e 6be5 2d3e b20e 9fbd
000000c0: 468d b2be 0e21 e4be 2edb 163e f28e e4bc
000000d0: 3a2e 74be b0fc 8bbe b85c 8d3e 4199 ee3e
000000e0: 34a8 7cbe c8bd 9e3e 1a99 dd3d 929b ad3e
000000f0: cc96 ab3e be20 a7be 0a47 4bbd ae62 513d
00000100: 7235 ef3e 7050 c23e 6cca 6fbe 2ada 92be
00000110: be6b a43c d0ea 443d 7215 12bd 860f d63d
00000120: 843f febe 0611 05bd c090 033e dcd8 8ebe
00000130: 3047 b53e 5a51 15bd 5ceb 4ebe 7efc 9abe
00000140: 42e7 433e 3ebb b33e c277 2fbd 9c1d e93e
00000150: a015 8d3e c00e b03e ee35 e13e 48f3 16be
00000160: d464 473d 02e5 a4be d2d5 bf3d 7be6 073e
00000170: 7f29 4a3e bafc b53d ea5d 24be 909c 343e
00000180: 20dc 08bd 5874 353e aaa2 b1be 066a 8a3e
00000190: 20d8 ba3e bc8b 733e e275 f8bd 261c e33e
000001a0: b254 593d 6087 66bd 60c9 e2be 382b bebe
000001b0: 5a52 bb3e 28f1 57be a4ae 81be 2037 b0be
000001c0: 404c 363e 52b6 93be dcda 1cbe 8a40 853d
000001d0: a8d5 ce3e 6f5a afbd 6846 aa3e eaa7 f23b
000001e0: 3af7 afbe 7088 d0be 5e4a 9c3e 232c f53d
000001f0: c2f9 debe c04b d2be 8653 dd3e 6648 dc3e
-0.2537595 -0.46127945 0.33567247 0.25611085 0.30819148 -0.113344826 0.4536289 -0.3165323
-0.2015349 -0.26395726 0.29027402 0.30231696 -0.0871965 0.21668106 0.41263908 0.031694688
0.38389552 -0.4074223 -0.21459877 -0.31575686 0.0021751446 -0.2359497 0.18397489 -0.05897933
-0.42433077 0.3049246 -0.38747466 0.38298258 0.27065957 0.13852745 -0.29400873 0.43587098
-0.15708873 -0.20212707 0.06295551 -0.1167476 -0.2279557 -0.16895014 -0.08087575 -0.4822017
0.3371538 0.339665 -0.39001763 0.32307774 0.29219443 0.21287787 0.16982047 -0.07766475
-0.34873408 -0.4455647 0.14732048 -0.027900193 -0.23845759 -0.27341223 0.276098 0.46601298
-0.2467354 0.31004167 0.108202174 0.33907753 0.33513486 -0.32642168 -0.049628295 0.0511195
0.46720463 0.37951994 -0.23417062 -0.2868207 0.020070907 0.048075497 -0.035664983 0.104521796
-0.49657834 -0.032486938 0.12848186 -0.27899826 0.35405874 -0.036454536 -0.2020697 -0.3027076
0.19131187 0.35103792 -0.04283882 0.45530403 0.2755556 0.34386253 0.43986458 -0.14741242
0.04868014 -0.3220597 0.09366955 0.13271515 0.19742392 0.088860944 -0.1605145 0.17637849
-0.033413053 0.17720163 -0.34694415 0.27034014 0.36493015 0.23783773 -0.12131859 0.44357413
0.053059287 -0.056281447 -0.44294262 -0.37142348 0.36586267 -0.21088088 -0.25328553 -0.34417057
0.17802525 -0.28850037 -0.15317863 0.065064505 0.40397382 -0.08562171 0.3325684 0.007405271
-0.34368306 -0.40729094 0.30525488 0.11971309 -0.43549925 -0.41073418 0.43227786 0.43023986

encoder_variable_selection.single_variable_grns.time_idx.gate_norm.glu.fc.bias f4 [16]
00000000: c5e5 9135 2123 4db6 c6aa c7b5 b0af 7f36
00000010: c642 8db5 f66f ecb5 dcfa 6032 e63d c335
00000020: 815c 2ab4 3191 8135 d610 ceb4 26f1 72b5
00000030: a500 9cb4 eca9 56b3 997a 1434 5adc bc34
1.0870214e-06 -3.0567828e-06 -1.4876357e-06 3.8100225e-06 -1.0524752e-06 -1.7615955e-06 1.3095555e-08 1.4546647e-06
-1.5866136e-07 9.653505e-07 -3.838274e-07 -9.050294e-07 -2.9057733e-07 -4.99803e-08 1.3828175e-07 3.5178056e-07

encoder_variable_selection.single_variable_grns.time_idx.gate_norm.add_norm.norm.weight f4 [8]
00000000: 0000 803f e2ff 7f3f 0000 803f 1e00 803f
00000010: 0000 803f 0000 803f 0000 803f 0000 803f
1.0 0.9999982 1.0 1.0000036 1.0 1.0 1.0 1.0

encoder_variable_selection.single_variable_grns.time_idx.gate_norm.add_norm.norm.bias f4 [8]
00000000: 82c1 1735 77f6 25b6 7d2d 44b6 65da bd36
00000010: c578 02b6 1673 f9b5 1e6f 57b4 b644 4136
5.6533474e-07 -2.4730377e-06 -2.9232754e-06 5.6580634e-06 -1.9441807e-06 -1.858544e-06 -2.006386e-07 2.8799236e-06

encoder_variable_selection.single_variable_grns.relative_time_idx.fc1.weight f4 [8, 8]
00000000: 6213 543e 20c0 ae3e 756a 91be ee4f ca3e
00000010: 1330 67be dbbc 4c3f d930 88be 8bbd d03e
00000020: 9d95 48bd 1045 f13c de17 3fbd e3f5 333e
00000030: 0b0a ea38 d6d6 c9bd 13cd 0c3e 6fc9 adbe
00000040: 1814 5f3f c88f c9bd 6dfc f3bd 29b3 36be
00000050: 5e9d 58bf 8e42 19bf c0ea a3bf 3040 8f3d
00000060: 35c2 fa3e be31 7bbe 6498 4abe 3ad0 013f
00000070: 4cfe 073f 242e f3be 973b 043f c5a9 04bf
00000080: 3d3f 073e 0e3b 343e 6a62 783e f519 89be
00000090: 6d6b 383f 20c1 443e 2b65 7e3f b388 b3bc
000000a0: 6ba0 503e 7175 da3e 8910 8bbe e6f8 523e
000000b0: 0282 ecbd b6ab 43bf 6c48 ee3d 3e02 11bf
000000c0: b3de d3be a605 b13f e6bb e53e a80d 963e
000000d0: 9325 c93e 09de aebe b2fa 2b3f 7d1d 02bf
000000e0: cd59 3ebe 40fd 73bf 15b5 93be 4638 f83d
000000f0: e0b3 97bc 0ee3 6fbd 6448 423f a9df 623e
0.20710519 0.34130955 -0.28401533 0.39514107 -0.22576933 0.7997567 -0.26599768 0.4076961
-0.048970807 0.029451877 -0.04665362 0.17574267 0.0001115986 -0.0985543 0.13750105 -0.33942744
0.87140036 -0.09841877 -0.11913381 -0.17841782 -0.84615123 -0.5986718 -1.2806015 0.06994665
0.48976293 -0.24530694 -0.19784695 0.50708354 0.531224 -0.4749614 0.51653427 -0.5182155
0.13207717 0.17600653 0.24256292 -0.26777616 0.7203892 0.19214296 0.9937312 -0.02191577
0.20373695 0.42667726 -0.27161053 0.2060276 -0.115482345 -0.76433885 0.11634907 -0.56644046
-0.41380844 1.3829849 0.44869918 0.29307294 0.3928648 -0.34153774 0.67179406 -0.50826246
-0.18588944 -0.95308304 -0.28849092 0.12120108 -0.018518388 -0.058566146 0.7589171 0.22155632

encoder_variable_selection.single_variable_grns.relative_time_idx.fc1.bias f4 [8]
00000000: e57e d836 6fb5 3b37 dec0 2237 af4a 08b7
00000010: ef1a 8a36 30b9 43b6 101d ce36 f81e 8eb6
6.452074e-06 1.1188312e-05 9.700858e-06 -8.12362e-06 4.115856e-06 -2.9165058e-06 6.1426617e-06 -4.235535e-06

encoder_variable_selection.single_variable_grns.relative_time_idx.fc2.weight f4 [8, 8]
00000000: a9d3 543f ee87 283f 3ed2 80be ce23 80bc
00000010: 5030 a83e 8d32 ac3e 2a9d 813e 61a6 8a3c
00000020: d56e d43e e84e 873f 9963 3a3f f9f9 bfbe
00000030: 4864 323f e2f0 943c 2eae df3e 1fbc 73bf
00000040: ba30 bf3c ab8c d4be e167 6bbf 7394 43bf
00000050: 946d 823d fc74 0d3e eb17 a7bd 3a21 45be
00000060: 5813 fdbe ab83 fa3d c8f3 84be a144 8a3e
00000070: 521c 803f f673 8b3d b21b 893e 9ff9 bc3d
00000080: 2343 503f 5344 2f3f 3b5f 633e 1401 1dbe
00000090: bf94 553d e09c 5fbf 427c b63d 9b3f 9ebe
000000a0: 2e83 173f d16f bb3e 5b09 9d3d 6d10 3dbf
000000b0: f5ca 67bd 817e d9be 9dd5 a73e 78eb 1c3f
000000c0: b632 cdbe fca7 8e3e 1023 debc 06bd b33e
000000d0: cbd6 0c3f a153 da3e 0540 5fbc db55 06be
000000e0: 0478 2d3d d329 b63f 62fd 08bf beec 823e
000000f0: d347 bebe 71fb 10be ce4d cabe af70 bf3d
0.8313547 0.6583241 -0.25160402 -0.015642073 0.3284936 0.33632317 0.2531522 0.016925039
0.41490808 1.0570955 0.72808224 -0.37495402 0.6968427 0.018181268 0.43687576 -0.95208925
0.023338664 -0.4151357 -0.9195538 -0.7639839 0.063685566 0.13814157 -0.08158859 -0.19250956
-0.4942882 0.12232145 -0.2596724 0.27005485 1.0008643 0.06809227 0.26778942 0.09227299
0.8135244 0.6846363 0.22204296 -0.15332443 0.05214381 -0.8734875 0.08910419 -0.30907902
0.5918454 0.36608747 0.076678 -0.7385319 -0.05659004 -0.42479327 0.32780161 0.61296797
-0.40077752 0.27862537 -0.027116328 0.3510515 0.5501525 0.4264193 -0.013626103 -0.13118689
0.042350784 1.4231514 -0.5351163 0.25571245 -0.37164173 -0.14158417 -0.39512485 0.093476646

encoder_variable_selection.single_variable_grns.relative_time_idx.fc2.bias f4 [8]
00000000: 5aaf a5b6 5792 6b37 ccfa 5036 ea2c 2bb6
00000010: f813 ea35 e601 c236 fa35 6436 cbb3 fdb5
-4.937797e-06 1.4041164e-05 3.1140398e-06 -2.550713e-06 1.744017e-06 5.7818716e-06 3.4006066e-06 -1.8902296e-06
